canvi/arch/weights/elbo,0.0001,10.pth (torch, 613149 bytes, 94 tensors)

_transform._transforms.1.transform_net.initial_layer.weight f4 [64, 33]
0	0xbcd1ff5c	-0.02563446
1	0x3dc5579d	0.096358515
2	0x3e1fb813	0.15597562
3	0xbdcccdb1	-0.1000017
4	0xbe4239a2	-0.18967298
5	0xbe121c78	-0.14268672
6	0xbdc6e96f	-0.09712493
7	0xbdeb14be	-0.11478566
8	0x3dc24a6d	0.09486852
9	0x3c7d9ea6	0.015479719
10	0x3c9513ef	0.018197982
11	0x3e2d7b35	0.16941531
12	0xb9f404a6	-0.0004654277
13	0xbd9e9e25	-0.077450074
14	0x3df8b7cb	0.12144431
15	0xbdf0a3cc	-0.11749992
16	0x3ce6246c	0.02809354
17	0xbe153b7b	-0.14573471
18	0x3e3c9acb	0.18418424
19	0xbd1cdeb7	-0.038298335
20	0xbbb884d8	-0.0056310706
21	0xbdfa6aab	-0.122273766
22	0x3c8c759c	0.017145924
23	0x3def7870	0.116928935
24	0x3da045bd	0.078258015
25	0x3e1b3d0f	0.15160011
26	0xbe0edfa4	-0.139525
27	0x3dbb551f	0.09147095
28	0x3dd46e6d	0.103726245
29	0x3d15a94c	0.036538407
30	0xbe46f24f	-0.19428371
31	0x3d434205	0.047670383
32	0xbd8c5b76	-0.06853382
33	0xbe143894	-0.14474708
34	0xbdfc14a5	-0.12308625
35	0x3d2f099d	0.042733777
36	0xbc458460	-0.012055486
37	0x3db457c4	0.088058025
38	0xbd9f8cf8	-0.077905595
39	0xbcb0b4df	-0.021570621
40	0xbe072d73	-0.13200931
41	0x3926be8c	0.00015901978
42	0xbd1a4ab1	-0.037668888
43	0xbdc4b777	-0.09605306
44	0x3d16489d	0.036690343
45	0x3cb3f61f	0.021967946
46	0xbdc20048	-0.0947271
47	0x3dcfa84b	0.10139521
48	0x3e104d8f	0.14092086
49	0x3e275b9f	0.16343544
50	0xbd79e510	-0.061009467
51	0x3e070dc0	0.13188839
52	0xbcd068c0	-0.025440574
53	0x3d9b4dc6	0.075831935
54	0xbe3aa472	-0.18226793
55	0x3dca0ec3	0.09866097
56	0x3daec13d	0.08532951
57	0x3da43e89	0.0801974
58	0xbe06f706	-0.1318017
59	0xbd763b5b	-0.0601152
60	0xbca29fe8	-0.01985164
61	0xbc3766a7	-0.011193908
62	0x3d8c8cb2	0.06862773
63	0x3ca53975	0.020169
64	0xbe2a3db5	-0.16625102
65	0x3d34993b	0.044091444
66	0x3e0e3bbb	0.13889973
67	0x3d08e5df	0.033422347
68	0x3e05daca	0.13071743
69	0x3dedc388	0.1160956
70	0x3ddd4dd9	0.10805864
71	0x3dcedbf7	0.10100549
72	0x3e0bf987	0.13669406
73	0xbdb091e0	-0.086215734
74	0xbe1b63ab	-0.15174739
75	0x3d0d34a6	0.034474038
76	0xbe001d56	-0.12511191
77	0xbe13b4c5	-0.14424427
78	0x3e264913	0.16238813
79	0x3e3d4df4	0.18486768
80	0x3e39cc61	0.1814437
81	0x3e1c2841	0.1524973
82	0x3d92124a	0.071323946
83	0xbda46fea	-0.080291584
84	0xbe3508c0	-0.17679119
85	0xbe029ad6	-0.12754378
86	0x3caa3e6f	0.020781724
87	0x3dc1be59	0.09460134
88	0xbe1a43ec	-0.15064973
89	0xbc4e30b5	-0.012584855
90	0x3dc26693	0.09492221
91	0x3da59072	0.080841914
92	0x3dfdbb92	0.12389292
93	0x3e1ded09	0.15422453
94	0x3da897bb	0.08232065
95	0xbe2abdc1	-0.16673948
96	0x3d50018d	0.05078273
97	0x3d770e7f	0.06031656
98	0x3e33c173	0.17554264
99	0x3c362dfb	0.011119361
100	0xbe197356	-0.14985403
101	0xbe2ddc00	-0.16978455
102	0xbd0fe090	-0.03512627
103	0xbe20e24c	-0.15711325
104	0x3d336b17	0.0438033
105	0x3db1c1d7	0.0867955
106	0xbd5d14e7	-0.053975012
107	0x3d24a30a	0.04019455
108	0xbe4793a2	-0.19489911
109	0x3cf2eb06	0.029653084
110	0x3e1d0fc4	0.15338045
111	0xbc100df0	-0.008792385
112	0x3d815691	0.06315339
113	0xbdd703e4	-0.10498789
114	0x3d9114dd	0.070840575
115	0xbd4ff87c	-0.050774083
116	0x3e12c615	0.14333375
117	0x3c30e3e6	0.010796523
118	0xbe18be38	-0.14916313
119	0xbe33d415	-0.17561372
120	0x3da16b4d	0.07881794
121	0xbdcec9c8	-0.100970805
122	0xbd9add94	-0.07561794
123	0x3cead6c9	0.02866687
124	0x3c09c852	0.0084095765
125	0x3e1633e3	0.1466823
126	0xbe0b3dff	-0.13597868
127	0x3da129f8	0.07869333
128	0x3d6b9e67	0.05752411
129	0xbdb3db7a	-0.08782096
130	0xbe1c0d17	-0.15239368
131	0x3dc10876	0.09425442
132	0xbe2c15e7	-0.1680523
133	0x3dc398e2	0.095506445
134	0xbde445e4	-0.11146143
135	0x3c76ce64	0.015063856
136	0xbd8b2120	-0.067934275
137	0x3da03409	0.07822425
138	0xbe36c016	-0.17846712
139	0xbcb5f82c	-0.022213064
140	0x3cffdfe7	0.031234695
141	0x3d991559	0.07474775
142	0xbde54b9a	-0.111960605
143	0xbde9cf43	-0.11416485
144	0x3e1cd156	0.1531423
145	0x3db59c16	0.08867662
146	0xbe2d6eb1	-0.16936757
147	0xbe0f000e	-0.13964865
148	0xbdaeae6c	-0.08529362
149	0xbddc11f7	-0.10745614
150	0xbe050444	-0.12989908
151	0x3dddfcd6	0.1083924
152	0xbdc913b7	-0.098182134
153	0x3c827e87	0.015929474
154	0xbe28ee0b	-0.16497056
155	0x3d6c9565	0.05775966
156	0xbcecf329	-0.028924542
157	0xbce47dab	-0.027891954
158	0xbc84d029	-0.01621254
159	0x3da94c5c	0.082665175
160	0xbd1cd07d	-0.038284767
161	0xbbe84ecc	-0.0070894714
162	0xbe07eb2d	-0.13273306
163	0x3e074d76	0.13213143
164	0xbda68e56	-0.08132617
165	0x3d9d0c9a	0.07668419
166	0x3cd6e233	0.026230907
167	0x3df64ba6	0.120261475
168	0xbdc2b567	-0.09507256
169	0x3e385944	0.18002802
170	0x3d97e773	0.07417192
171	0xbddaf9f9	-0.1069221
172	0x3d706d1c	0.058697805
173	0xbdb91fce	-0.090392694
174	0x3de0daa1	0.109792
175	0xbd5cd6f1	-0.05391592
176	0xbe1eee67	-0.15520631
177	0xbc593776	-0.013257852
178	0x3e08bbaf	0.13352846
179	0xbe0ac6e1	-0.13552429
180	0xbe0e265b	-0.13881819
181	0xbd1b8f6e	-0.037978582
182	0xbd5ee264	-0.05441512
183	0x3d7efd0a	0.062253036
184	0x3d5d4190	0.054017603
185	0x3e31c834	0.17361528
186	0x3e44996b	0.1919915
187	0xbda408df	-0.080095045
188	0x3d5b2354	0.05350049
189	0x3dce1cd0	0.10064089
190	0xbdc3725a	-0.09543295
191	0x3e5e64b8	0.21718109
192	0xbe1cc967	-0.15311204
193	0x3da2fa9b	0.079579554
194	0x3dc54b61	0.09633518
195	0x3e34f87c	0.17672914
196	0x3e372e58	0.17888772
197	0x3babddc1	0.005244941
198	0x3d38a02a	0.04507462
199	0xbd806060	-0.06268382
200	0x3df6d9d6	0.12053268
201	0xbcfaac1b	-0.030599644
202	0x3bbf07f8	0.0058298074
203	0xbe2f5c20	-0.17124987
204	0xbd209b79	-0.03921077
205	0xbdf2ced4	-0.118558556
206	0xbe5513d4	-0.20808345
207	0x3e2e4b8a	0.17021003
208	0xbd865db6	-0.06560843
209	0x3d374811	0.044746462
210	0xbd268070	-0.04064983
211	0xbcef205a	-0.029190231
212	0x3de4ea92	0.11177553
213	0xbd302b97	-0.04301032
214	0xbd907aa6	-0.07054643
215	0x3e142985	0.14468963
216	0xbdd37661	-0.10325313
217	0x3e0ecb9b	0.13944857
218	0xbe0bde80	-0.13659096
219	0xbd5243aa	-0.05133406
220	0xbd61649b	-0.055027585
221	0xbe46d7eb	-0.19418304
222	0xbdc132ec	-0.09433541
223	0xbdcc16fd	-0.09965322
224	0x3e15a7a2	0.14614728
225	0x3d84fc64	0.06493452
226	0x3d19da92	0.03756196
227	0x3d027950	0.031853974
228	0x3e0ab150	0.13544202
229	0xbc40f2da	-0.01177665
230	0x3db70f29	0.089384384
231	0xbd9e60f3	-0.07733335
232	0x3dc17eb7	0.09447997
233	0xbe1194b5	-0.14216883
234	0xbddfe589	-0.10932452
235	0xbda98c73	-0.08278742
236	0x3e06f14c	0.13177985
237	0x3e28b6bc	0.16475958
238	0x3ddc3a19	0.10753269
239	0xbe1ec322	-0.15504125
240	0x3e0bd4da	0.13655415
241	0xbdf23e78	-0.11828321
242	0x3e340da7	0.17583333
243	0xbc97c6c5	-0.018527398
244	0x3cc7d2c8	0.0243925
245	0xbe255b0b	-0.16148011
246	0xbcf9d844	-0.030498631
247	0xbe3843b7	-0.17994581
248	0x3d3e691f	0.04648697
249	0xbe22347f	-0.15840338
250	0x3d10d05e	0.035354964
251	0xbe0655cf	-0.13118671
252	0x3df96b91	0.1217872
253	0xbe1944e6	-0.14967689
254	0x3da405e0	0.08008933
255	0xbd532f71	-0.051558916

_transform._transforms.1.transform_net.initial_layer.bias f4 [64]
0	0x3e4eb1f3	0.2018507
1	0xbde0d86d	-0.1097878
2	0xbe0857e5	-0.13314779
3	0x3e259117	0.16168629
4	0xbd0e4bff	-0.034740444
5	0x3e0478db	0.12936728
6	0xbc0e1556	-0.008672079
7	0xbcdec641	-0.027194144
8	0xbe46fbe2	-0.19432023
9	0xbd707777	-0.05870768
10	0x3d430d19	0.047619913
11	0x3da7c788	0.081923544
12	0x3e135a92	0.14390019
13	0xbd56180f	-0.052269038
14	0xbe293cef	-0.1652715
15	0x3d019e46	0.031645082
16	0x3e2fc7f5	0.17166121
17	0x3e346efc	0.17620462
18	0x3d765d19	0.06014738
19	0xbd83a968	-0.06428796
20	0xbd034854	-0.0320514
21	0x3d588f44	0.052871004
22	0x3daab71e	0.08335708
23	0x3d3f5276	0.0467095
24	0x3ce7d1b5	0.028298238
25	0xbd6ffb66	-0.05858936
26	0xbddf0b2a	-0.10890801
27	0x3cd07be8	0.025449708
28	0x3deda1cc	0.11603126
29	0xbdadf45f	-0.08493876
30	0xbd1b7d84	-0.037961498
31	0xbdee2e3e	-0.11629914
32	0x3ce4a44d	0.027910376
33	0x3da5eb30	0.08101499
34	0xbdb4983a	-0.088180974
35	0xbe28d6f8	-0.16488254
36	0x3e0bd867	0.1365677
37	0x3ddc2fec	0.10751328
38	0xbd3d3ceb	-0.046200674
39	0x3d6da259	0.058016155
40	0xbe2e906d	-0.17047282
41	0xbddbcb5f	-0.10732149
42	0x3d66c1e0	0.056337237
43	0x3e20c075	0.15698417
44	0x3e18344c	0.148637
45	0x3c2da2a5	0.0105978595
46	0xbd795cde	-0.06087958
47	0xbe0bd9a4	-0.13657242
48	0x3deead59	0.11654157
49	0x3dd2e974	0.10298434
50	0x3d7ed9d1	0.062219445
51	0x3e0e970f	0.13924812
52	0x3c62860e	0.013825906
53	0x3dca434f	0.09876119
54	0x3e249fcd	0.16076584
55	0x3cdf02ff	0.027223108
56	0x3d38f9e1	0.045160178
57	0xbdae40ef	-0.08508479
58	0xbdf7b1fc	-0.12094495
59	0x3c9a67de	0.018848356
60	0xbe3071e5	-0.17230947
61	0x3e2a9eff	0.16662215
62	0xbe045b0d	-0.12925358
63	0x3ddc3d03	0.107538246

_transform._transforms.1.transform_net.blocks.0.context_layer.weight f4 [64, 32]
0	0x3d9749ce	0.07387124
1	0x3ddba2cb	0.1072441
2	0xbe0817dd	-0.13290353
3	0x3c7e3ebb	0.015517886
4	0xbdf7fc8d	-0.12108717
5	0xbd3bef89	-0.045882735
6	0xbdbfee3c	-0.093716115
7	0x3e0ea6eb	0.13930862
8	0xbdec190f	-0.11528217
9	0xba41e225	-0.0007396064
10	0xbdd3680f	-0.10322582
11	0xbe03bd1a	-0.12865105
12	0x3b33f93f	0.0027461795
13	0xbd92c691	-0.0716678
14	0x3dda5bbc	0.10662028
15	0xbd7fe64d	-0.06247549
16	0x3da9729f	0.08273815
17	0xbe2854a5	-0.1643854
18	0xbdf2d483	-0.1185694
19	0x3e2e434a	0.17017856
20	0x3dc8bbd2	0.09801449
21	0x3dcf5e78	0.1012544
22	0xbd6a71d5	-0.057237465
23	0xbdab7b82	-0.083731666
24	0xbba4af6f	-0.005025796
25	0x3e235f0d	0.15954228
26	0xbd39fee1	-0.045409087
27	0xbdfe68cf	-0.124223344
28	0x3e144177	0.14478098
29	0xbe446ce4	-0.19182163
30	0x3e080c53	0.13285951
31	0x3de5453e	0.111948475
32	0x3e0459b5	0.12924846
33	0xbd4db547	-0.050221708
34	0x3e5750d9	0.21026935
35	0xbcb3e625	-0.021960327
36	0x3de2900e	0.110626325
37	0xbdbbaa6a	-0.09163363
38	0xbd978fd6	-0.074004814
39	0xbe1f317b	-0.15546219
40	0x3e4d5d3b	0.20055096
41	0xbe232855	-0.15933354
42	0xbd714aaf	-0.058909114
43	0x3db21f7a	0.0869741
44	0xbe1a1a0a	-0.15048996
45	0xbd68ee60	-0.056867957
46	0x3e146bdb	0.14494269
47	0x3e365ca5	0.17808779
48	0x3dc06dac	0.09395918
49	0xbe11cadb	-0.1423754
50	0x3e0d620b	0.13806932
51	0xbe3b8d04	-0.18315512
52	0xbd586c68	-0.05283776
53	0x3d0ad23f	0.033891913
54	0xbddee10d	-0.10882769
55	0x3e17d787	0.14828311
56	0x3cc23210	0.023705512
57	0xbdca52da	-0.09879084
58	0x3dbf7dcb	0.09350165
59	0xbcd16e95	-0.025565425
60	0x3d62c2db	0.05536161
61	0x3d8b2cd8	0.06795663
62	0xbe3d080a	-0.18460098
63	0x3e1108a5	0.14163454
64	0xbd16a695	-0.03677996
65	0x3c70dbfd	0.014700887
66	0xbb3c3a64	-0.0028721327
67	0x3e008d98	0.12554014
68	0x3d9cc991	0.07655633
69	0x3db553dd	0.08853886
70	0xbdcbb068	-0.09945756
71	0xbd512774	-0.051063016
72	0xbc01b52a	-0.007916728
73	0xbae2e438	-0.0017310446
74	0x3df4ad4c	0.11947116
75	0x3d6bb5c1	0.05754638
76	0x3e2b8b07	0.16752253
77	0x3d10f744	0.03539206
78	0x3e417321	0.18891574
79	0x3e3d2d5e	0.18474337
80	0x3dab79cc	0.0837284
81	0xbd0f8f14	-0.03504856
82	0x3e48a709	0.19594969
83	0x3d0f6d8f	0.035016593
84	0x3e407790	0.1879561
85	0xbe1f8a41	-0.15580083
86	0xbb21c078	-0.002468137
87	0x3ca67b4e	0.020322468
88	0xbe4c142d	-0.19929571
89	0x3dd76881	0.105179794
90	0xbd42bb56	-0.04754194
91	0xbe3cef9a	-0.18450776
92	0xbe37ce9d	-0.1794991
93	0xbdcccbb3	-0.0999979
94	0xbd8fc66d	-0.070202686
95	0x3e3cf896	0.18454203
96	0xbd774723	-0.060370576
97	0x3daebeb5	0.08532468
98	0xbe28741f	-0.16450547
99	0x3e3659a7	0.17807637
100	0x3c89a458	0.016801998
101	0x3d9c5904	0.07634166
102	0x3da3697d	0.07979105
103	0xbde5dc69	-0.112236805
104	0xbda0751e	-0.07834838
105	0xbdd6782f	-0.10472142
106	0xbdd0d178	-0.10196203
107	0xbcb28bdb	-0.021795204
108	0x3e1b5987	0.1517087
109	0xbe12419f	-0.14282845
110	0xbe33ee24	-0.17571312
111	0xbbd6868e	-0.006546802
112	0xbc5c2dc1	-0.013438643
113	0xbe2b67d2	-0.16738823
114	0x3df01245	0.11722235
115	0x3e396164	0.18103558
116	0xbbf22f33	-0.0073908805
117	0x3c87148e	0.016489293
118	0xbe1e6379	-0.15467633
119	0x3c42ce41	0.011889995
120	0x3e287a83	0.16452985
121	0xbdd86167	-0.10565453
122	0xbdd42b67	-0.10359841
123	0xbe01d055	-0.12677129
124	0x3db8fe7c	0.09032914
125	0x3ce93cf6	0.028471451
126	0x3e210134	0.15723115
127	0x3db3fb9d	0.08788226
128	0x3e2fdac8	0.17173302
129	0xbd1af034	-0.03782673
130	0xbd8031d3	-0.06259503
131	0x3da1d2ef	0.079015605
132	0xbe653b35	-0.22385867
133	0xbdc0cd6c	-0.09414181
134	0xbadf783c	-0.0017049382
135	0x3d203e35	0.039121825
136	0x3e0f2ffd	0.1398315
137	0xbdf73b0f	-0.120718114
138	0xbe10113b	-0.14069073
139	0xbe13b4cc	-0.14424437
140	0x3e3a6a58	0.1820463
141	0x3dda24d6	0.10651557
142	0xbd5361c4	-0.05160691
143	0x3e0c28b2	0.13687399
144	0x3d937fe4	0.072021276
145	0xbdabcd3f	-0.08388757
146	0x3d115649	0.03548268
147	0x3d0e1d5e	0.034695975
148	0xbcb44940	-0.022007585
149	0x3cf3e7f5	0.029773692
150	0x3d428490	0.047489703
151	0x3e10c6e2	0.14138368
152	0xbe0d7a7d	-0.13816257
153	0xbdf54362	-0.11975743
154	0xbe2f4230	-0.17115092
155	0x3e0bad2e	0.13640282
156	0xbd9110b1	-0.07083262
157	0x3e05cce5	0.13066442
158	0x3cca046f	0.024660317
159	0xbd22f036	-0.039779864
160	0xbde9cd00	-0.11416054
161	0x3dffb162	0.12485005
162	0xbd109c6a	-0.035305418
163	0xbdd4697a	-0.103716806
164	0x3ddcff7a	0.10790916
165	0xbe16440b	-0.14674394
166	0x3e02d1e7	0.12775384
167	0x3ce52ff6	0.027976971
168	0xbe3664e2	-0.17811921
169	0x3d4020f1	0.046906415
170	0x3a251d4f	0.0006298618
171	0x3e246ff7	0.16058336
172	0xbd3cd2d1	-0.046099488
173	0xbe062aa1	-0.13102199
174	0xbe3057af	-0.17220949
175	0x3ce11f89	0.027480857
176	0xbc1708ea	-0.009218434
177	0xbb84ecb1	-0.004056536
178	0x3e02652d	0.12733908
179	0x3dfe1092	0.12405504
180	0x3ca40d4f	0.020025877
181	0x3e489e75	0.19591697
182	0x3d978ec6	0.07400279
183	0x3cabc20b	0.02096655
184	0xbd3b5148	-0.045731813
185	0xbe4dae95	-0.20086129
186	0x3cf63b5d	0.030057603
187	0x3dd6aa3b	0.10481688
188	0xbd97a52a	-0.074045494
189	0xbe3af7a8	-0.18258536
190	0xbe02e848	-0.12783921
191	0x3e06787b	0.13131897
192	0xbcaf869f	-0.021426497
193	0xbe03e4cb	-0.12880246
194	0x3dd62333	0.104559325
195	0x3cd4135c	0.025888138
196	0xbd7e9268	-0.062151343
197	0x3c85f6d9	0.016353058
198	0xbde39eaa	-0.11114247
199	0xbcedac45	-0.029012809
200	0x3ca2e248	0.01988329
201	0xbddc6545	-0.10761503
202	0xbe1935b2	-0.1496189
203	0x3e0fbc18	0.14036596
204	0x3e4fb4ac	0.20283765
205	0x3dc02981	0.09382916
206	0x3e297123	0.16547064
207	0x3e0b4eda	0.13604298
208	0xbe149b2c	-0.14512318
209	0x3dd2edaf	0.10299241
210	0x3bac7ad0	0.005263664
211	0x3cf1039b	0.029420665
212	0xbde07412	-0.10959639
213	0x3d1ab543	0.03777052
214	0x3dceac03	0.100914024
215	0x3d1b9dfa	0.037992455
216	0xbc839362	-0.016061489
217	0x3e340e19	0.17583503
218	0x3d27041d	0.040775407
219	0xbdc93666	-0.09824829
220	0x3ce6960a	0.028147716
221	0xbdb8de0a	-0.090267256
222	0xbe2d67b4	-0.16934091
223	0x3e26dd4b	0.16295354
224	0xbe18f4a6	-0.14937076
225	0xbe06c70f	-0.13161872
226	0xbddc9f30	-0.1077255
227	0xbd0a29da	-0.03373132
228	0xbe22c554	-0.15895587
229	0xbd072f22	-0.033003934
230	0x3d83363b	0.06406828
231	0x3d96c518	0.073618114
232	0xbda009f6	-0.078144
233	0xbdf36f7c	-0.11886498
234	0xbda3c195	-0.07995907
235	0x3d18ead0	0.03733331
236	0xbcdbc72f	-0.026828377
237	0x3e4c2762	0.19936898
238	0x3e006e03	0.12541966
239	0xbd381b52	-0.04494793
240	0x3cf5279e	0.029926118
241	0x3d26db70	0.040736616
242	0x3dff95e6	0.12479763
243	0xbd375af8	-0.04476449
244	0x3e176b76	0.14787087
245	0x3d660caa	0.05616442
246	0xbdd38b39	-0.10329289
247	0xbe1f5238	-0.15558708
248	0xbd230318	-0.039797872
249	0x3d48c459	0.049015377
250	0xbd97c24c	-0.07410106
251	0xbe075c43	-0.13218789
252	0x3dff1e87	0.124569945
253	0x3e1579fa	0.14597312
254	0x3ca63510	0.020288974
255	0xbe248a2b	-0.16068332

_transform._transforms.1.transform_net.blocks.0.context_layer.bias f4 [64]
0	0xbdf0d9c2	-0.11760284
1	0x3e2ef85c	0.17086929
2	0x3cd05d18	0.025435016
3	0xbe105a0b	-0.14096849
4	0x3e044165	0.12915571
5	0x3db39018	0.08767718
6	0xbdcddd9d	-0.10052035
7	0x3e384fa4	0.1799913
8	0x3d04aca3	0.0323912
9	0xbd35ecdf	-0.04441535
10	0x3d918936	0.07106249
11	0x3c8de3c1	0.017320516
12	0x3e40df97	0.18835293
13	0xbdd635aa	-0.10459454
14	0x3e3aab5e	0.18229434
15	0x3e4b49b0	0.19852328
16	0x3e13615e	0.14392611
17	0x3e1434f6	0.14473328
18	0x3def924b	0.11697825
19	0x3de3fa52	0.11131729
20	0x3e5ccd0e	0.21562597
21	0x3e32afeb	0.1744992
22	0x3e0617e0	0.13095045
23	0x3e36cca8	0.17851508
24	0xbca6bb8f	-0.020353107
25	0x3e256e26	0.161553
26	0xbd84146a	-0.06449206
27	0xbbda3776	-0.0066594435
28	0x3e287c5f	0.16453694
29	0xbdce1ecf	-0.1006447
30	0x3e453ad5	0.19260724
31	0x3c73e1da	0.01488539
32	0x3d22e0cf	0.039765175
33	0xbdae5237	-0.08511775
34	0xbdabcc62	-0.08388592
35	0x3b2c6686	0.0026306226
36	0x3d2a0196	0.04150542
37	0x3e6897d5	0.2271417
38	0x3d91e7e4	0.07124308
39	0x3e2e23c4	0.17005831
40	0x3de971f1	0.11398686
41	0xbcc4f5a8	-0.02404292
42	0xbded0c69	-0.11574633
43	0x3c904364	0.01761026
44	0x3d592507	0.053013828
45	0x3daa5fb9	0.08319039
46	0x3db5cb0b	0.08876618
47	0xbdc12c5f	-0.09432291
48	0x3bc17ebc	0.0059050005
49	0xbcb0c826	-0.021579813
50	0x3db4007f	0.08789157
51	0x3e3be8d6	0.18350539
52	0xbd2b413c	-0.04181026
53	0x3c470edb	0.012149538
54	0x3e3c2b24	0.18375832
55	0x3d887d18	0.06664485
56	0xbe021b91	-0.12705828
57	0x3b18ac40	0.0023296028
58	0xbe0727ff	-0.13198851
59	0xbd99cc0e	-0.075096235
60	0xbd364271	-0.044496957
61	0x3e0b038b	0.1357557
62	0xbd45b691	-0.048269812
63	0xbdd9e40a	-0.10639198

_transform._transforms.1.transform_net.blocks.0.linear_layers.0.weight f4 [64, 64]
0	0x3a19fc26	0.000587406
1	0x3d2c8883	0.042122375
2	0xbd30fca3	-0.043209683
3	0xbdf2c41d	-0.11853812
4	0x3db5e557	0.08881634
5	0x3c7517b8	0.014959268
6	0x3e1cbda8	0.15306723
7	0xbd8ea784	-0.06965545
8	0x3d1b256d	0.03787749
9	0xbd9c7853	-0.076401375
10	0x3da9a920	0.08284211
11	0xbd805c80	-0.06267643
12	0xbdc6fd17	-0.09716242
13	0x3df76902	0.120805755
14	0x3bb078f5	0.005385513
15	0xbcdcb0c2	-0.026939753
16	0x3dd38edc	0.10329983
17	0x3d1fa139	0.038972113
18	0xbdabfcde	-0.0839784
19	0x3d6898b5	0.056786258
20	0x3d347cbe	0.044064276
21	0x3dc56413	0.09638228
22	0xbd819a95	-0.06328312
23	0x3e09ae55	0.13445409
24	0x3e03991c	0.12851375
25	0x3dac6a4f	0.08418714
26	0x3bfb64c0	0.0076719224
27	0x3c6ca037	0.014442495
28	0x3e3a88de	0.18216273
29	0x3d7614d1	0.060078446
30	0xbd981d72	-0.07427491
31	0xbc85f825	-0.016353676
32	0x3dcff7f2	0.10154714
33	0x3de524db	0.1118867
34	0x3db09967	0.08623009
35	0x3d40a906	0.047036193
36	0x3d8731d4	0.06601301
37	0x3bb14f54	0.005411068
38	0xbdeb80e8	-0.11499196
39	0xbd1d65bb	-0.038427096
40	0xbd982a7b	-0.074299775
41	0xbd9f5939	-0.0778069
42	0xbda8cb75	-0.08241931
43	0xbd53bdd8	-0.05169472
44	0x3ca9d053	0.02072922
45	0x39c6f462	0.00037947582
46	0x3db9e3c2	0.090766445
47	0x3db38add	0.087667204
48	0x3b01b5e3	0.001979225
49	0x3e3549f7	0.17703997
50	0x3c99b5e3	0.018763488
51	0x3e304500	0.17213821
52	0x3e2427f4	0.16030866
53	0x3e267023	0.16253714
54	0x3d6514c1	0.055927996
55	0x3d693cff	0.056942936
56	0xbdef7a81	-0.11693288
57	0x3d708267	0.05871811
58	0xbd39fc2f	-0.045406517
59	0x3d5ebff3	0.054382276
60	0xbcaf7a6d	-0.021420682
61	0xbd7e4bf1	-0.062084142
62	0x3d811529	0.06302864
63	0x3d7600af	0.060059246
64	0x3b1814c9	0.0023205748
65	0x3c5eb92e	0.013593955
66	0x3d6fda1a	0.058557607
67	0xbd57cede	-0.05268752
68	0xbddc4b3c	-0.10756537
69	0x3d8d5df9	0.069026895
70	0x3e330489	0.17482199
71	0xbd835d12	-0.06414236
72	0x3dc1c47e	0.09461306
73	0x3d79b092	0.060959406
74	0xbd871fc4	-0.06597856
75	0x3cef7a05	0.029232988
76	0x3e0d02ff	0.13770674
77	0x3d0acad1	0.033884827
78	0x3db928d0	0.090409875
79	0x3e1ca6e9	0.15298046
80	0xbddf8f76	-0.10916035
81	0x3e029fdf	0.12756298
82	0x3dc5505f	0.0963447
83	0x3e0005b3	0.12502174
84	0xbe041356	-0.12898001
85	0x3ce11071	0.02747366
86	0x3d244c7a	0.040111996
87	0xbc730793	-0.014833349
88	0x3e0a8253	0.13526277
89	0xbcf0f2ef	-0.029412715
90	0x3da9ef29	0.08297569
91	0xbd093615	-0.033498842
92	0x3dc289fb	0.09498974
93	0xbde0c7c9	-0.10975606
94	0x3e1f373a	0.15548411
95	0x3e15e817	0.14639316
96	0x3d83e26a	0.064396694
97	0x3da98ef8	0.08279222
98	0xbdb7e975	-0.08980075
99	0x3d48b57a	0.049001195
100	0x3e1210d1	0.14264227
101	0x3d9ef8f6	0.07762329
102	0xbb20478e	-0.0024456712
103	0xbd8be012	-0.068298474
104	0xbe1e7f99	-0.15478362
105	0xbdbf2ae9	-0.09334356
106	0xbd2451d2	-0.040117092
107	0x3d8a4b3f	0.06752633
108	0x3e07c8d5	0.13260205
109	0x3d4147db	0.047187667
110	0xbe09cfdd	-0.134582
111	0x3d456d10	0.048199713
112	0x3d903d08	0.07042891
113	0xbd21dd90	-0.03951794
114	0xbd873f4c	-0.0660387
115	0x3e029b0f	0.12754463
116	0x3e03e05b	0.12878554
117	0xbae47953	-0.0017431177
118	0xbd6c0e2a	-0.057630695
119	0x3dc20304	0.094732314
120	0xbe1d81da	-0.15381566
121	0xbd737368	-0.05943623
122	0xbe0f0f04	-0.13970572
123	0x3dc389d1	0.09547771
124	0x3cfa36b5	0.030543664
125	0x3d8606fe	0.065443024
126	0x3d810272	0.062992945
127	0xbc3931a0	-0.011303335
128	0x3b9d70c3	0.004804702
129	0xbdce0565	-0.10059623
130	0x3d4eeaa3	0.050516736
131	0xbdb40334	-0.087896734
132	0x3d64b0e9	0.055832777
133	0x3d2d52f4	0.04231544
134	0x3de139cb	0.10997351
135	0x3d1bfbc7	0.03808191
136	0x3cc16a2b	0.023610195
137	0xbddb93f7	-0.107215814
138	0xbdf09216	-0.11746614
139	0xbe1a9355	-0.15095265
140	0xbd8e84af	-0.06958901
141	0xbd2fc988	-0.042916805
142	0xbde23cf3	-0.110467814
143	0x3df9c6f4	0.121961504
144	0x3dd59148	0.10428101
145	0x3d2147b0	0.039375007
146	0xbd66f156	-0.0563825
147	0x3b87d5c1	0.0041453545
148	0xbe0b2d53	-0.13591509
149	0xbd47dd57	-0.04879507
150	0x3de33ef3	0.11095991
151	0x3d82fde4	0.06396082
152	0xbd6b1168	-0.057389647
153	0xbdcb4b25	-0.09926442
154	0x3d9ead31	0.077478774
155	0x3cf9e8dc	0.030506544
156	0x3d706ba1	0.058696393
157	0xbccc40ba	-0.024933208
158	0x3dd258f9	0.102708764
159	0x3d42e13a	0.047578074
160	0xbc9013b9	-0.01758753
161	0x3d53fa3e	0.05175232
162	0x3da578a1	0.08079649
163	0x3ca7435e	0.020417865
164	0x3ddb9fd2	0.10723843
165	0xbc4b6f4a	-0.01241667
166	0x3dc64d6b	0.09682735
167	0xbdb5ae61	-0.08871151
168	0xbe05858f	-0.1303923
169	0x3d0c4157	0.034242
170	0x3dbaaaba	0.09114595
171	0x3d46d58d	0.0485435
172	0x3d180639	0.03711531
173	0x3d19002c	0.03735368
174	0x3da18cad	0.0788816
175	0xbd574ec3	-0.052565347
176	0xbd9fafcc	-0.077972025
177	0x3d932094	0.07183948
178	0xbb95bb00	-0.0045694113
179	0x3ce46e7c	0.027884714
180	0x3e4424dc	0.19154686
181	0x3d4bd74e	0.049765877
182	0x3a63d0cf	0.00086904777
183	0x3e0dca88	0.13846791
184	0xbd8bad05	-0.0682011
185	0x3ccaf2b9	0.024773942
186	0xbdbfb7ad	-0.09361205
187	0x3dab3d0a	0.08361252
188	0xba1e3db0	-0.0006036414
189	0x3e1ce74a	0.15322605
190	0x3d16e8d2	0.03684313
191	0xbd80fbf3	-0.062980555
192	0xbd9b38f1	-0.0757922
193	0x3d82ad83	0.06380751
194	0xbce64fba	-0.028114188
195	0x3de0a45a	0.109688476
196	0x3c5bbaed	0.013411266
197	0x3e09dda9	0.13463463
198	0x3ddf8497	0.109139614
199	0xbd41d90d	-0.047326136
200	0xbdf2d6f2	-0.11857404
201	0x3e33fcfa	0.17576972
202	0xbd89c5f8	-0.06727213
203	0x3d850597	0.06495207
204	0xbccee227	-0.025254322
205	0x3dcf4c08	0.10121924
206	0xbdf73252	-0.12070145
207	0x3dbd07d7	0.09230011
208	0x3e0b571e	0.13607451
209	0xbda68f51	-0.08132804
210	0x3db66000	0.08905029
211	0xbb9faf11	-0.0048731645
212	0x3e3264a6	0.17421207
213	0x3e1325f6	0.1436995
214	0x3d62a92a	0.05533711
215	0x3d19cead	0.037550617
216	0xbdd0d024	-0.1019595
217	0xbe02e364	-0.12782055
218	0x3dd66d00	0.10470009
219	0xbcc0c2f2	-0.023530457
220	0xbd89668e	-0.06709014
221	0xbd6bd1f4	-0.057573274
222	0x3d9b49ac	0.07582411
223	0x3dc6ea91	0.09712709
224	0x3db32acb	0.087483965
225	0xbc63526b	-0.01387463
226	0x3d402314	0.046908453
227	0x3c57161a	0.013127828
228	0xbd9eeac3	-0.07759621
229	0xbe13920d	-0.14411183
230	0xbd7c5576	-0.06160494
231	0x3aab3beb	0.0013064122
232	0x3d25d0a6	0.040482186
233	0xbddba0a3	-0.107239984
234	0xbc7d4aef	-0.01545976
235	0x3a13f41f	0.0005643982
236	0xbdc8e462	-0.098091856
237	0x3d9a0048	0.07519585
238	0xbc828dc5	-0.015936742
239	0xbd8dc69a	-0.06922646
240	0xbd1dad84	-0.038495556
241	0xbe09a8cf	-0.13443302
242	0xbde87a70	-0.11351478
243	0xbb7ae1ea	-0.0038281628
244	0x3d99a386	0.07501893
245	0xbd25004c	-0.040283486
246	0xbb838039	-0.004013088
247	0xbcefd2f2	-0.029275391
248	0x3e027b01	0.12742235
249	0xbcacf763	-0.021114057
250	0x3e12be0a	0.14330307
251	0x3cd2d995	0.025738517
252	0x3cfa0a2b	0.030522427
253	0x3d4ec477	0.050480332
254	0xbd272a57	-0.040811863
255	0x3c9d703b	0.019218555

_transform._transforms.1.transform_net.blocks.0.linear_layers.0.bias f4 [64]
0	0xbd4d0351	-0.05005199
1	0xbcff81ef	-0.031189887
2	0x3da85e7a	0.08221145
3	0xbd0c7a23	-0.034296166
4	0x3df0a7f0	0.117507815
5	0x3e010f53	0.12603502
6	0x3cac195e	0.02100819
7	0x3e1bcb54	0.15214282
8	0xbd948e75	-0.07253734
9	0xbe06a9d0	-0.13150716
10	0x3ca51377	0.020150883
11	0xbcd92e89	-0.026511448
12	0x3dda09c9	0.106463976
13	0xbd2da30f	-0.042391833
14	0xbc51a354	-0.012795288
15	0x3d85609e	0.06512569
16	0xbdc74c63	-0.097313665
17	0x3b2b4785	0.0026135158
18	0x3db73740	0.08946085
19	0x3e1287a4	0.14309555
20	0x3d81ce55	0.06338183
21	0x3dec9807	0.115524344
22	0x3e08b945	0.13351925
23	0x3d6dfc8c	0.058102176
24	0x3da8f064	0.08248976
25	0xbdc03cd2	-0.093866006
26	0xbcc270f3	-0.023735499
27	0xbe0e1e3e	-0.13878724
28	0x3dd811ee	0.10550295
29	0x3cc154f9	0.023600088
30	0xbcf6ec57	-0.030141992
31	0x3debe1b3	0.11517658
32	0x3e010103	0.12598042
33	0x3d0e88a7	0.03479829
34	0xbd0cd6bf	-0.034384485
35	0x3e035881	0.1282673
36	0x3d76c0e4	0.06024255
37	0x3e0f53a8	0.13996756
38	0x3d714312	0.058901854
39	0x3af0d62b	0.0018374374
40	0x3e169e2b	0.14708774
41	0xbd9a8c2e	-0.075462684
42	0x3daf16ef	0.08549296
43	0xbabb0b77	-0.0014270385
44	0x3d49a83e	0.049232714
45	0x3e407030	0.18792796
46	0x3d6c52cd	0.057696152
47	0x3dfad24f	0.122471444
48	0x3df879a0	0.12132573
49	0x3d7e4ca7	0.06208482
50	0x3dbdeadb	0.09273311
51	0x3dae0c86	0.084984824
52	0x3c930240	0.017945409
53	0x3e1ead33	0.15495758
54	0xbcb79874	-0.022411563
55	0x3d009b41	0.03139806
56	0xbd84748c	-0.06467542
57	0x3dac103b	0.08401533
58	0x3e008222	0.12549642
59	0x3e2ed6e8	0.17074168
60	0x3d50a6cd	0.050940324
61	0x3c60d72f	0.013723179
62	0xbd597699	-0.05309162
63	0x3de25813	0.11051955

_transform._transforms.1.transform_net.blocks.0.linear_layers.1.weight f4 [64, 64]
0	0xbc747d91	-0.0149225155
1	0xbb0dfb8b	-0.0021664824
2	0x3b170851	0.0023045728
3	0x3c4ea043	0.012611452
4	0xbb141b36	-0.0022599227
5	0x3c92cf5e	0.017921146
6	0xbc066a65	-0.008204077
7	0x3c109f11	0.008826987
8	0xbc862953	-0.016377127
9	0x3c92fe6f	0.017943589
10	0x3d703271	0.058641855
11	0x3bd9c19b	0.006645394
12	0x3b2ed898	0.0026679393
13	0xbc63522c	-0.013874572
14	0xb83cf233	-4.504826e-05
15	0x38187b0b	3.6354217e-05
16	0xbc25dfcf	-0.010124161
17	0x3d8280fb	0.06372257
18	0x3d453f99	0.048156355
19	0x3d8095fa	0.06278606
20	0x3b43ed30	0.0029896013
21	0xbb84fb88	-0.004058305
22	0x3bd99c66	0.0066409586
23	0xbc299bf8	-0.010352127
24	0x3ccbe042	0.024887208
25	0xbc8a4e2f	-0.016882984
26	0x3d2cfa80	0.042231083
27	0x3cec1059	0.028816389
28	0xbc474300	-0.01216197
29	0xba227569	-0.0006197305
30	0x3d284091	0.0410772
31	0xbaf6b984	-0.0018823599
32	0xba6e5c36	-0.000909272
33	0xbc579a67	-0.013159371
34	0xbc16e587	-0.009209997
35	0xbbe398e9	-0.0069457185
36	0xbb479ec2	-0.0030459617
37	0x3a28f8ca	0.0006445764
38	0x3ceea843	0.029132968
39	0xbaa633c7	-0.0012680226
40	0x3c819ade	0.015820917
41	0xbba45363	-0.0050148233
42	0xbaf490ba	-0.0018658855
43	0xbb2e6765	-0.002661192
44	0x3b69967d	0.0035642677
45	0x3d5baf4f	0.053633984
46	0xba48c70f	-0.00076590566
47	0x3b6490f4	0.0034876438
48	0x3cf6d9a2	0.030133072
49	0x3d9ac634	0.075573355
50	0x3c0b1085	0.008487825
51	0x3c9b398e	0.018948343
52	0xbb828efa	-0.0039843293
53	0x3cb4cf04	0.022071369
54	0x3bd4e1e0	0.006496653
55	0x3c86816d	0.016419137
56	0xbc91504b	-0.017738482
57	0x3d8b3478	0.06797117
58	0xba0c13fc	-0.0005343554
59	0x3d0df18b	0.03465418
60	0x3c38fd15	0.011290808
61	0x3b668997	0.0035177225
62	0x3d2bf70f	0.04198366
63	0xbca66f43	-0.020316726
64	0x3cdefa50	0.027218968
65	0x3d03202d	0.032013107
66	0x3d3475a7	0.044057515
67	0xbcff3ed9	-0.031157898
68	0x3d0ef135	0.034898
69	0x3c8f08ca	0.017460246
70	0x3d0075c2	0.031362303
71	0x3c4c1ebd	0.0124585
72	0x3cf769e1	0.030201854
73	0x3a6084fe	0.0008564739
74	0xbd2d1d94	-0.042264536
75	0x3c31580b	0.010824214
76	0x3d5b5fe0	0.05355823
77	0x3cffaaef	0.031209437
78	0x39ebca75	0.00044973535
79	0x3cdda8e3	0.02705807
80	0x3c24c1c5	0.010055964
81	0xbdb308d0	-0.08741915
82	0xbc8c85c1	-0.017153623
83	0xbc21be71	-0.009872065
84	0x3ca38034	0.019958593
85	0x3cd3f75a	0.025874782
86	0x3d3373d6	0.04381164
87	0x3d5e1cbc	0.054226622
88	0x3c9bef97	0.019035144
89	0x3ce92931	0.028462024
90	0xbcd7c0a6	-0.02633698
91	0xbd1eee75	-0.03880163
92	0x3d277ddf	0.040891524
93	0x3cfce7ae	0.030872192
94	0xbcf7b2ea	-0.03023668
95	0x3d0c72f8	0.03428933
96	0x3d48495a	0.04889808
97	0x3d1c166c	0.03810732
98	0x3d0e8617	0.034795847
99	0x3d436991	0.047708098
100	0x3d0031ff	0.03129768
101	0x3cc9946f	0.024606911
102	0x3cb47df4	0.022032715
103	0x3d492ecb	0.04911689
104	0x3c71e030	0.014762923
105	0x3cb39a8f	0.021924285
106	0x3cfdecb7	0.030996663
107	0x3cc75318	0.024331614
108	0x3d1b3655	0.037893612
109	0x3cb3fa45	0.021969924
110	0x3d2bc471	0.041935388
111	0x3cd7ac6d	0.026327336
112	0x3bbb6826	0.0057192026
113	0xbd7b26de	-0.061316364
114	0x3d3a4836	0.045479022
115	0x3d0a46d7	0.033758964
116	0x3ce0c7aa	0.027438957
117	0x3cd703be	0.026246902
118	0x3d1a64cb	0.03769378
119	0x3cb99111	0.02265218
120	0x3ccb444e	0.024812844
121	0xbd408b61	-0.047007922
122	0x3caf90d9	0.021431373
123	0x3c24b7f9	0.010053628
124	0x3cf4defe	0.029891487
125	0x3acef5f3	0.0015789851
126	0xbcfb4f80	-0.030677557
127	0x3d4bd0ce	0.04975968
128	0x3b8acd70	0.004235916
129	0x3c6719be	0.0141052585
130	0x3c364641	0.011125148
131	0xbcf15441	-0.02945912
132	0x3b874930	0.0041285977
133	0xbc1805c8	-0.009278722
134	0x3c11e7e4	0.008905385
135	0xbbcf65bb	-0.006329266
136	0x3c22b16d	0.009929997
137	0xbc8c80f9	-0.017151343
138	0xbd7a5419	-0.061115358
139	0xbbec5c1c	-0.0072131287
140	0x3c9d59b0	0.019207805
141	0x3c57537e	0.013142465
142	0xbaa5c8b9	-0.0012648321
143	0x3bd983bf	0.00663802
144	0x3bad15e4	0.0052821506
145	0xbd808465	-0.06275252
146	0xbd0f846c	-0.035038397
147	0xbd284d2e	-0.04108923
148	0xbaf49af6	-0.0018661905
149	0x3c0be764	0.008539055
150	0x3b978164	0.004623579
151	0x3cbd558f	0.023112087
152	0xbc1b8601	-0.009492398
153	0x3c1eb834	0.009687472
154	0xbd25bab3	-0.040461253
155	0xbd477a6a	-0.048700728
156	0x3c9c7eab	0.019103369
157	0x3b575f62	0.003286325
158	0xbd1d70d6	-0.038437687
159	0x3c3fab20	0.011698514
160	0x3ca54189	0.020172851
161	0x3c92d3d1	0.017923268
162	0x3c0acfad	0.008472365
163	0x3c8f9b38	0.017530069
164	0x3c043ed7	0.008071623
165	0x3a8476a5	0.001010616
166	0xbc635092	-0.01387419
167	0x3c9150a1	0.017738642
168	0xbc02ddfe	-0.007987497
169	0x3b567172	0.0032721427
170	0x3beec5ee	0.0072867787
171	0x3c13d256	0.009022316
172	0x3bf57f91	0.0074920137
173	0xbccd8bc6	-0.025091063
174	0x3c47af95	0.012187858
175	0x3b50c6e1	0.0031856822
176	0xbc89d5a7	-0.01682551
177	0xbd686d87	-0.05674508
178	0x3bfb4c0e	0.0076689785
179	0xbb0c1c82	-0.0021379297
180	0x3be055fb	0.006846187
181	0xbc19d82d	-0.009389919
182	0x3bde2ece	0.006780482
183	0x3a6dc688	0.0009070416
184	0x3c26df08	0.010185011
185	0xbd60595b	-0.054772716
186	0x3ae48074	0.0017433302
187	0xbc4a886b	-0.012361626
188	0x3b58a2fb	0.0033056128
189	0xbb9eed4b	-0.004850065
190	0xbd069e8e	-0.032866053
191	0x3ce74ac0	0.028233886
192	0xbd04d2df	-0.032427665
193	0xbc71ea64	-0.014765356
194	0xbcf6aea0	-0.030112565
195	0x3cd162e4	0.02555985
196	0xbcbeb46e	-0.023279395
197	0xbbf802cf	-0.007568694
198	0xbccca3e4	-0.024980493
199	0xbc197cb1	-0.009368108
200	0xbc5e9197	-0.013584516
201	0x3ba69428	0.0050835796
202	0x3cdbeea3	0.02684719
203	0xbc713aa4	-0.014723454
204	0xbd00a7f2	-0.031410165
205	0xbc927bdc	-0.017881326
206	0xba14e436	-0.0005679758
207	0xbcb1de57	-0.021712465
208	0xbc007cd9	-0.007842266
209	0x3d8cf8ca	0.0688339
210	0x3d2080e5	0.039185423
211	0x3ca6fb77	0.02038358
212	0xbcab7fd6	-0.02093498
213	0xbcc816fc	-0.024425022
214	0xbce95c73	-0.028486466
215	0xbd1cac75	-0.038250405
216	0xbbb3be69	-0.005485345
217	0xbcc7c053	-0.0243837
218	0x3cfa1bd7	0.030530853
219	0x3c2dabbf	0.0106000295
220	0xbcc76ee1	-0.024344863
221	0xbcd8b89c	-0.026455216
222	0x3cff4623	0.031161373
223	0xbcd62e98	-0.026145265
224	0xbd0c2ccd	-0.034222413
225	0xbc8dd86e	-0.017315116
226	0xbcfff1dd	-0.03124326
227	0xbd0aef2a	-0.03391949
228	0xbca83f52	-0.020538006
229	0xbcc3152a	-0.023813803
230	0xbc2fd2eb	-0.010731439
231	0xbcc38ed1	-0.023871811
232	0xbbfe48a7	-0.0077601257
233	0xbcc66578	-0.024218306
234	0xbcb03c3e	-0.0215131
235	0xbcbee64a	-0.02330317
236	0xbce66cca	-0.028128047
237	0x3af8d353	0.0018983878
238	0xbc80676d	-0.015674317
239	0xbc95e6fb	-0.018298617
240	0x3be1e24c	0.006893432
241	0x3d8e803b	0.06958052
242	0xbce4ac78	-0.02791427
243	0xbcbefd4b	-0.023314139
244	0xbcb9f2a6	-0.022698712
245	0xbc6d15c0	-0.014470518
246	0xbc913232	-0.01772413
247	0xbcc4be52	-0.024016533
248	0xbcdf65be	-0.027270194
249	0x3d3fa0ef	0.046784338
250	0xbcb6562e	-0.02225789
251	0x3b9b8255	0.0047457614
252	0xbbdf0206	-0.006805661
253	0xbbc727f0	-0.006077759
254	0x3d328d3a	0.043591715
255	0xbcd90777	-0.026492817

_transform._transforms.1.transform_net.blocks.0.linear_layers.1.bias f4 [64]
0	0x3ce2eb8c	0.027700208
1	0x3c621785	0.013799553
2	0xbb87ec60	-0.004148051
3	0xbb3e42e8	-0.0029031578
4	0xbca0eb09	-0.019643323
5	0xbc7eaa82	-0.015543582
6	0x3cfdb03b	0.030967822
7	0x3c1963cd	0.009362173
8	0xbd03e8f4	-0.032204583
9	0x3c39c34c	0.011338066
10	0x3c650eec	0.013980608
11	0x3cb0c51a	0.02157836
12	0x3d119bd3	0.035548996
13	0xbc56f440	-0.013119757
14	0x3ba07fc2	0.0048980424
15	0x3c60730c	0.013699304
16	0x3d77bbd7	0.060481872
17	0x3c0b5230	0.008503482
18	0x3c3db109	0.011577853
19	0xbb2b6f03	-0.0026158697
20	0x3d151382	0.036395557
21	0x3c75b21e	0.01499608
22	0x3cec8049	0.028869765
23	0xbb844be4	-0.004037367
24	0x3cd350dc	0.025795393
25	0xbadd2d39	-0.0016874439
26	0x3c70aa29	0.014689007
27	0xbcb797b0	-0.022411197
28	0xbbe962c9	-0.007122372
29	0x3b460d60	0.0030220374
30	0x3cd61706	0.026134025
31	0x3d25839b	0.040408712
32	0x3bc43f6b	0.0059890053
33	0xbd20e424	-0.03928007
34	0x3cc08312	0.0235
35	0xbbc69a49	-0.0060608727
36	0xbd16f80e	-0.036857657
37	0x3cf853d1	0.030313404
38	0xbc58ce39	-0.013232761
39	0x3cd8752c	0.02642306
40	0xbcf1f681	-0.029536488
41	0x3b405d23	0.0029352389
42	0xbc6d4331	-0.014481352
43	0x3c81e51c	0.015856318
44	0x3caa0d56	0.020758312
45	0x3d062771	0.032752458
46	0x3c8547e9	0.016269641
47	0x3cb7d1f2	0.022438977
48	0x3d6754ac	0.056477234
49	0x3ca8e5ff	0.020617483
50	0x3c546ed7	0.012965879
51	0x3b92c674	0.004479224
52	0x3b8a31fe	0.0042173853
53	0x3a32afdd	0.0006816367
54	0x3d12656b	0.03574125
55	0x3c4ca74a	0.012491057
56	0x3d0b0bbb	0.033946734
57	0xbab85f0e	-0.0014066414
58	0x3c8fdd6d	0.017561639
59	0xbcb965c1	-0.022631528
60	0xbc89c6bc	-0.016818397
61	0x3d0f92be	0.035052054
62	0xbc749302	-0.0149276275
63	0xba573361	-0.0008209255

_transform._transforms.1.transform_net.blocks.1.context_layer.weight f4 [64, 32]
0	0x3dd4cef1	0.103910334
1	0x3e273c38	0.16331565
2	0x3ddefd35	0.10888139
3	0xbd353aa3	-0.044245373
4	0x3e2292d2	0.1587632
5	0xbdf62a36	-0.1201977
6	0xbde2483d	-0.110489346
7	0xbc75f182	-0.015011193
8	0x3df66e79	0.1203279
9	0x3e0a5257	0.13507973
10	0x3c2d26dd	0.010568348
11	0xbc1b2c5b	-0.009471024
12	0x3d918964	0.07106283
13	0x3c439098	0.011936329
14	0x3e266ae5	0.16251715
15	0x3e261bf5	0.16221602
16	0x3e322baa	0.17399469
17	0xbce0ed79	-0.027456986
18	0xbd878560	-0.06617236
19	0xbe22597c	-0.15854448
20	0x3e1ae11a	0.15124932
21	0x3dce42b7	0.100713186
22	0xbe0df3e1	-0.13862564
23	0x3ddc0617	0.10743349
24	0xbd9c80c0	-0.076417446
25	0x3e1a5057	0.1506971
26	0x3c01f26a	0.007931331
27	0x3df3df7b	0.1190786
28	0xbd402dda	-0.046918727
29	0xbe1402d6	-0.14454207
30	0x3d872dba	0.066005185
31	0xbe210d1c	-0.15727657
32	0x3dbbafd1	0.09164394
33	0x3dbe520c	0.09292993
34	0x3da326ca	0.07966383
35	0x3e60ad4c	0.21941108
36	0xbcee1d77	-0.029066784
37	0x3dbe820a	0.09302147
38	0x3e0492f6	0.12946686
39	0xbdde4718	-0.10853404
40	0x3de1b744	0.11021283
41	0xbe019827	-0.12655698
42	0x3dc7ea50	0.097614884
43	0x3d617cb8	0.05505058
44	0x3e378828	0.17923033
45	0x3e57e5bd	0.21083732
46	0x3e177141	0.14789297
47	0xbd9f9b57	-0.077933006
48	0xbdb858dd	-0.09001324
49	0x3e0ecec8	0.13946068
50	0x3e1d955c	0.15389007
51	0xbdcc4d54	-0.09975687
52	0x3e2610de	0.16217372
53	0xbe17c002	-0.14819339
54	0xbcbdaf43	-0.02315486
55	0x3d253e0d	0.04034238
56	0xbe41e9dd	-0.18936868
57	0xbce245d8	-0.027621195
58	0xbe41667b	-0.1888675
59	0xbd70cbbf	-0.058788057
60	0x3da47dbb	0.08031794
61	0x3e2aa4ca	0.16664425
62	0x3e221812	0.15829495
63	0xbb8e2254	-0.0043375883
64	0xbba84352	-0.0051349783
65	0xbde4cab9	-0.11171479
66	0xbd11acb9	-0.03556511
67	0x3e17cf51	0.14825179
68	0xbb944e03	-0.0045259013
69	0xbe1cd3a3	-0.15315108
70	0x3e35d39c	0.17756504
71	0xbe280442	-0.16407874
72	0x3d3363c0	0.0437963
73	0xbddd6078	-0.108094156
74	0xbe09e4fd	-0.13466258
75	0xbc9822ff	-0.018571375
76	0x3e36efd7	0.17864929
77	0xbdac84cb	-0.08423766
78	0x3dcf3de5	0.10119227
79	0x3cc0e44d	0.023546362
80	0x3dbc1e90	0.09185517
81	0x3dcb5c95	0.09929768
82	0x3e1bf16b	0.15228812
83	0xbdf3d92a	-0.11906655
84	0xbd1a60c5	-0.037689943
85	0xbdb4de7c	-0.08831498
86	0x3d0f632f	0.0350067
87	0xbdb763c2	-0.08954574
88	0xbe012a44	-0.1261378
89	0xbc492d0d	-0.012278807
90	0xbe1bb4c0	-0.1520567
91	0x3dc19419	0.094520755
92	0x3e0729c5	0.13199528
93	0x3e1ff8af	0.15622209
94	0x3d89fd1c	0.0673773
95	0x3d5f3652	0.054495163
96	0xbcf84145	-0.03030456
97	0x3d878f90	0.06619179
98	0x3e190703	0.14944081
99	0xbd30931d	-0.04310905
100	0x3e3b3e51	0.1828549
101	0x3c515bef	0.012778266
102	0x3dc8f8ed	0.09813104
103	0x3e04f160	0.12982702
104	0x3d8d69ab	0.0690492
105	0x3d58e007	0.052948024
106	0x3cc8dcf4	0.024519421
107	0x3da6ff9a	0.08154221
108	0xbdc4f6e9	-0.09617407
109	0xbda7596e	-0.08171354
110	0x3d62be86	0.05535748
111	0xbdd6778a	-0.10472019
112	0xbdb5bba4	-0.0887368
113	0x3da8201d	0.0820925
114	0xbe29c399	-0.16578521
115	0x3d0cd87f	0.034386154
116	0x3d512461	0.051060084
117	0xbe124733	-0.14284973
118	0xbdebba88	-0.115101874
119	0xbb8fe15a	-0.0043908777
120	0x3d9805b1	0.074229605
121	0xbdda99e5	-0.10673884
122	0xbe1e3171	-0.15448548
123	0xbdc74990	-0.09730828
124	0xbe0c2f52	-0.13689926
125	0x3dafa377	0.085761
126	0xbdb29a38	-0.08720821
127	0x3da2969f	0.07938885
128	0xbe17c0d1	-0.14819647
129	0x3db2557b	0.0870771
130	0xbd1327fd	-0.035926808
131	0xbbb0f29d	-0.0054000155
132	0xbe1b907c	-0.15191835
133	0x3dd71710	0.10502446
134	0xbc9753b0	-0.018472522
135	0xbe23a6cf	-0.15981601
136	0xbd22377c	-0.039603695
137	0xbdc3c71d	-0.09559462
138	0x3e1ca788	0.15298283
139	0xbdd34c69	-0.103173085
140	0xbd0283d1	-0.03186399
141	0x3cd8e156	0.026474636
142	0xbe273a09	-0.16330732
143	0x3e41c939	0.18924417
144	0x3e1c16eb	0.15243118
145	0x3e2b06fd	0.16701885
146	0xbcdce5ab	-0.026964983
147	0x3d571e93	0.052519392
148	0xbe04dfba	-0.1297597
149	0xbe0931a2	-0.1339784
150	0xbdc75d32	-0.097345725
151	0x3db0ad72	0.08626832
152	0xbdd90b07	-0.105978064
153	0x3e4d7975	0.20065863
154	0x3d56c9ee	0.05243867
155	0xbe382db9	-0.17986192
156	0x3e242861	0.16031028
157	0xbe04bedb	-0.1296343
158	0x3e06c1a2	0.13159803
159	0xbe1d4d5b	-0.1536154
160	0xbcb7639a	-0.02238636
161	0x3d468493	0.048466276
162	0xbddc0ab9	-0.10744233
163	0x3dc4f86b	0.096176945
164	0xbbe77142	-0.007063062
165	0xbdc851fb	-0.097812615
166	0xbdc502f7	-0.09619706
167	0x3e380529	0.17970718
168	0x3e02755b	0.1274008
169	0x3e05ebd0	0.13078237
170	0x3e2927f4	0.16519147
171	0x3d4464e8	0.047947794
172	0xbe414d17	-0.18877064
173	0xbe50cc16	-0.20390353
174	0x3db557c7	0.08854633
175	0x3ded647d	0.11591432
176	0xbe312259	-0.17298259
177	0xbd7d2710	-0.06180483
178	0xbc63d8a1	-0.013906629
179	0x3d3ab4e1	0.045582656
180	0x3d47650e	0.048680358
181	0x3dd757ad	0.1051477
182	0xbbf9a886	-0.0076189665
183	0x3c9c0ab0	0.019048065
184	0x3abb6db0	0.0014299657
185	0xbe4fc0ce	-0.20288393
186	0x3ca9452e	0.02066287
187	0x3e03def9	0.12878026
188	0x3e12ddc0	0.14342403
189	0xbe02c33a	-0.12769786
190	0xbdae5b70	-0.08513534
191	0xbc94c7a6	-0.018161606
192	0xbc8a1d89	-0.016859787
193	0x3e0a7395	0.13520654
194	0xbd8fb3c3	-0.07016709
195	0xbde519b7	-0.11186545
196	0xbd8edb28	-0.069753945
197	0x3d4e3b59	0.050349567
198	0x3cd4486e	0.025913443
199	0xbe1827c0	-0.14858913
200	0x3d3903eb	0.045169752
201	0x3ca0129c	0.019540124
202	0x37c6498a	2.3637684e-05
203	0xbe30281f	-0.17202805
204	0x3e0bfea7	0.13671361
205	0x3cba67b4	0.022754528
206	0xbddbbd44	-0.10729459
207	0x3d7873fe	0.060657494
208	0xbe1dff87	-0.15429507
209	0x3dccb6aa	0.09995778
210	0xbce5d7e2	-0.028057043
211	0xbdcf7e6c	-0.10131535
212	0x3dbf6e24	0.093471795
213	0x3d822060	0.06353831
214	0xbd8cc4e1	-0.06873489
215	0x3cb65041	0.022255065
216	0x3d3ca9a4	0.04606022
217	0x3dfd66f7	0.123731546
218	0xbd0af74a	-0.03392724
219	0xbe26e159	-0.16296901
220	0xbe3c7827	-0.1840521
221	0x3e548fb1	0.20757939
222	0x3d9b908b	0.07595929
223	0x3e646b86	0.22306642
224	0x3e053704	0.13009268
225	0x3dce4731	0.100721724
226	0x3d1074e6	0.035267733
227	0x3e05d749	0.13070406
228	0xbe29d7af	-0.16586183
229	0xbdb70a29	-0.08937485
230	0x3dd0f2cd	0.102025606
231	0xbe0af924	-0.13571602
232	0x3df1de11	0.11809934
233	0xbe449fbc	-0.19201559
234	0x3c8129bb	0.015766969
235	0xbc90726f	-0.017632691
236	0xbc0d017b	-0.00860631
237	0x3e569d1a	0.20958367
238	0x3d558248	0.0521262
239	0x3dc911fa	0.09817882
240	0x3ddf7cd8	0.10912484
241	0x3dfcbdfc	0.12340924
242	0xbda8f892	-0.08250536
243	0x3cba0bec	0.022710763
244	0x3e2cb844	0.16867167
245	0xbde5a259	-0.11212606
246	0x3e12d190	0.14337754
247	0xbde09f25	-0.109678544
248	0x3df740eb	0.12072929
249	0x3da34d44	0.079737216
250	0x3da8e6a8	0.08247119
251	0xbe31a0a0	-0.1734643
252	0xbd2006d0	-0.039068997
253	0x3d3c4d93	0.045972418
254	0x3e363740	0.17794514
255	0x3d28fd2f	0.04125708

_transform._transforms.1.transform_net.blocks.1.context_layer.bias f4 [64]
0	0xbd6d8a2b	-0.057993095
1	0x3d94fbf3	0.07274618
2	0xbd10a3f7	-0.03531262
3	0x3d034f5f	0.032058116
4	0x3d8479cb	0.06468543
5	0x3d04f3bc	0.032459006
6	0xbc128b48	-0.00894434
7	0xbc1bc527	-0.009507454
8	0x3ca5027c	0.020142786
9	0x3d78f43c	0.060779795
10	0x3e178096	0.14795145
11	0xbd69874d	-0.0570138
12	0x3d1ce699	0.038305853
13	0xbdce8f64	-0.10085943
14	0x3e53fe45	0.20702465
15	0x3d7c8efd	0.0616598
16	0xbe0e1863	-0.1387649
17	0xbd06667d	-0.032812584
18	0xbdb984e4	-0.0905855
19	0xbdae4161	-0.08508564
20	0xbd8ef8a1	-0.06981016
21	0x3d73b1db	0.059495788
22	0x3de04363	0.10950353
23	0x3d9ae3e8	0.07563001
24	0x3da5dcf7	0.08098786
25	0xbd11a652	-0.035559006
26	0x3d9455b4	0.07242909
27	0x3d8f053f	0.069834225
28	0x3d85ba12	0.06529631
29	0x3e504a17	0.20340763
30	0xbdcd61cd	-0.1002842
31	0x3a5d36f9	0.00084386725
32	0x3cba6c40	0.022756696
33	0x3da75595	0.0817062
34	0x3e4c7a10	0.19968438
35	0xbe004419	-0.12525977
36	0x3dbfa277	0.093571596
37	0x3d853f02	0.065061584
38	0xbd725239	-0.059160445
39	0x3c2da1ac	0.010597628
40	0xbc8ab4a6	-0.016931843
41	0xbdbc43c0	-0.0919261
42	0xbd7e18b7	-0.06203529
43	0xbd7dcdea	-0.061963953
44	0x3e2897d1	0.16464163
45	0x3d565cde	0.05233466
46	0xbd3dace4	-0.04630746
47	0x3dc3eaf0	0.09566295
48	0x3e4181dc	0.18897194
49	0x3da3d4e2	0.079995885
50	0x3d8080d7	0.06274574
51	0x3d585dc6	0.052823804
52	0x3cbdbe3b	0.023161998
53	0x3d90f0e5	0.07077197
54	0xbd20469b	-0.039129835
55	0xbdeffe41	-0.11718417
56	0x3b4d4a78	0.0031324904
57	0x3cc3a6bd	0.023883218
58	0x3e15d32a	0.14631334
59	0x3dcf714d	0.10129032
60	0x3e524282	0.20533183
61	0xbdbf2e47	-0.093349986
62	0x3c9123c7	0.017717255
63	0xbdac8d42	-0.0842538

_transform._transforms.1.transform_net.blocks.1.linear_layers.0.weight f4 [64, 64]
0	0x3df99121	0.12185884
1	0xbd3a0ae3	-0.04542054
2	0xbe1999cf	-0.1500008
3	0x3e11770f	0.14205573
4	0x3defb720	0.1170485
5	0x3de535d6	0.11191909
6	0xbcc82502	-0.02443171
7	0x3e0fa12a	0.14026323
8	0x3c164d8a	0.00917376
9	0xbd48a4a9	-0.048985157
10	0x3ba9bbd1	0.00517986
11	0x3c17e9c1	0.00927204
12	0x3d12c000	0.035827637
13	0x3bb98a1a	0.005662215
14	0x3d8fbac2	0.07018043
15	0xbe307109	-0.1723062
16	0xbcf956ed	-0.030436957
17	0x3cca5368	0.024697974
18	0x3dc61e13	0.09673705
19	0xbe0104a2	-0.12599424
20	0x3e087c43	0.13328652
21	0x3db47238	0.08810848
22	0x3d8fa2ac	0.07013449
23	0xbbc265e7	-0.005932558
24	0x3dda4ca6	0.10659151
25	0xbd9473c6	-0.072486445
26	0xbbcb91c0	-0.006212443
27	0x3db3b0ef	0.08773982
28	0xbe25ed48	-0.16203797
29	0xbdc39e13	-0.09551635
30	0xbe090d31	-0.13383938
31	0xbcae86fb	-0.021304598
32	0x3d4fbaa8	0.05071512
33	0x3deeaac3	0.11653664
34	0x3d852c8f	0.065026395
35	0xbe2d6a9e	-0.16935202
36	0xbcd8d919	-0.026470708
37	0xbc699e51	-0.014258937
38	0x3d781e08	0.060575515
39	0x3d28309c	0.041061983
40	0xbe0e6bb7	-0.13908277
41	0xbd77b4b3	-0.060475063
42	0xbdd4aeca	-0.10384901
43	0x3e02f3af	0.1278827
44	0xbadf58de	-0.0017040034
45	0xbdeabb42	-0.11461498
46	0x3b635505	0.0034688127
47	0xbd1608d2	-0.036629505
48	0x3d370a29	0.044687424
49	0x3d15d38e	0.036578707
50	0x3d6a941a	0.057270147
51	0xbd4a9593	-0.04945905
52	0x3cb53080	0.022117853
53	0xbdc293d2	-0.09500851
54	0x3e1a84b3	0.15089683
55	0x3cc7c6d1	0.024386795
56	0x3df606c2	0.12013008
57	0xbbb79733	-0.005602741
58	0xbd809787	-0.062789015
59	0x3ac43c35	0.0014971556
60	0x3db0eb06	0.08638577
61	0xbcbd6684	-0.023120172
62	0x3d246a67	0.040140536
63	0x3d1951c4	0.037431493
64	0x3cd9d5b9	0.026591169
65	0xbc2f0652	-0.010682659
66	0x3da62e9d	0.081143595
67	0x3db767e0	0.089553595
68	0x3da58095	0.08081166
69	0xbd1e88fd	-0.03870486
70	0x3e1485c7	0.14504157
71	0xbcc8dd79	-0.024519669
72	0xbd20a8de	-0.039223544
73	0xbbbdbd8d	-0.0057904185
74	0x3dc33b04	0.09532741
75	0x3d1897ff	0.03725433
76	0xbd5e6f04	-0.05430509
77	0x3de22557	0.11042278
78	0xbdc73a72	-0.097279444
79	0x3d0d2434	0.034458354
80	0x3dbd8369	0.0925358
81	0xbd13d020	-0.036087155
82	0xbd6c9054	-0.05775483
83	0x3d8653d5	0.065589584
84	0x3c073cdf	0.008254259
85	0xbc93c705	-0.018039236
86	0xbad79672	-0.0016448034
87	0x3dddea7e	0.108357415
88	0xbda26fa0	-0.07931447
89	0x3ccfa726	0.025348257
90	0xbd822287	-0.06354242
91	0xbd5321e0	-0.051545978
92	0x3de47717	0.11155527
93	0x3cb2ca84	0.021825083
94	0xbd2b3110	-0.041794837
95	0x3d628a7b	0.055307847
96	0xbdfe75d0	-0.12424815
97	0x3d3289d5	0.043588478
98	0x3d8bee3f	0.06832551
99	0xbd308d68	-0.043103606
100	0xba496040	-0.0007681884
101	0x3e18c8b7	0.14920317
102	0x3dda804f	0.10669004
103	0xbde7c55a	-0.11316939
104	0xbdce998f	-0.10087883
105	0xbcc331d7	-0.023827476
106	0x3d7f460e	0.06232267
107	0x3da04357	0.07825344
108	0x3e3ee7b1	0.18643071
109	0x3d8ecc9f	0.06972622
110	0x3d15b01b	0.0365449
111	0x3da2b68f	0.079449765
112	0xbd0b28c0	-0.03397441
113	0xbcd97afa	-0.026547898
114	0x3dd5eea5	0.104459085
115	0x3d9cf63c	0.07664153
116	0x3cea329e	0.02858859
117	0x3e29cca1	0.16581966
118	0x3cb241d1	0.0217599
119	0x3d41c017	0.04730233
120	0xbe13614e	-0.14392588
121	0xbcc9c3a7	-0.024629427
122	0x3da6b970	0.08140838
123	0xbcdb41da	-0.026764799
124	0x3e009415	0.12556489
125	0x3d9a3043	0.075287364
126	0xbd3e3b08	-0.046443015
127	0x3d17dcdd	0.037075866
128	0xbcac1adf	-0.021008907
129	0xbd4447e6	-0.04792013
130	0x3d13d3ca	0.03609065
131	0xbd9bb896	-0.07603566
132	0x3ca9b196	0.020714562
133	0x3d8191b1	0.063266166
134	0x3e1f57ef	0.15560888
135	0xbb4911ad	-0.0030680702
136	0x3bb9435b	0.0056537814
137	0x3d1410f0	0.036148965
138	0xbe38981b	-0.18026774
139	0xbdda5378	-0.10660452
140	0x3d30f01a	0.04319773
141	0xbd6f57eb	-0.058433454
142	0xbdc421c1	-0.095767505
143	0x3e0dadbe	0.13835809
144	0x3d27afc1	0.040939096
145	0x3d422e20	0.04740727
146	0x3ccbdcfd	0.024885649
147	0xbd4c9b16	-0.04995259
148	0xbda0638b	-0.07831486
149	0xbdf5000c	-0.119628996
150	0xbcba1822	-0.022716586
151	0x3d743c5a	0.05962787
152	0x3e1bb99d	0.15207525
153	0xbdd786f8	-0.1052379
154	0x3d4244be	0.04742884
155	0x3d05fdc1	0.0327127
156	0xbcfcb5a1	-0.030848326
157	0x3d40f02e	0.047104053
158	0x3d887541	0.066629894
159	0x3deffe13	0.11718383
160	0xbd8daaf8	-0.06917375
161	0x3dcc45de	0.099742636
162	0x3b89581a	0.0041914107
163	0x3d36ec98	0.044659227
164	0xbcb406aa	-0.021975834
165	0x3dcfdece	0.101499185
166	0xbd417930	-0.047234714
167	0x3dd96cad	0.106164314
168	0xbc5ef1c0	-0.013607442
169	0xbd2aa7a3	-0.041663777
170	0xbd4a3764	-0.04936923
171	0x3ddca7c2	0.10774185
172	0xbc966845	-0.018360266
173	0xbc9a9d51	-0.018873842
174	0xbcf9bc08	-0.030485168
175	0x3d651958	0.055932373
176	0xbe082d50	-0.13298535
177	0x3e349aa0	0.1763711
178	0x3d02c1ca	0.031923093
179	0x3e418952	0.1890004
180	0x3d9a9875	0.0754861
181	0x3d5a82aa	0.053347267
182	0xba4fe8fb	-0.000793114
183	0x3d6bd864	0.057579413
184	0xbdde1235	-0.108433165
185	0xbd7a9e86	-0.061186336
186	0xbdbc9118	-0.09207362
187	0x3d657f4c	0.056029603
188	0x3e014052	0.12622193
189	0x3db2b93b	0.08726736
190	0x3c45eb38	0.012080006
191	0xbc98132a	-0.018563826
192	0xbd8008d5	-0.062516846
193	0xbbb624b1	-0.005558573
194	0x3dc58362	0.096442
195	0x3d8c53b6	0.06851904
196	0x3d504cbb	0.050854426
197	0x3d156404	0.036472335
198	0xbd209a97	-0.03920993
199	0x3dd73035	0.10507242
200	0x3dddf23d	0.10837219
201	0xbd28679f	-0.041114446
202	0xbdee252f	-0.11628186
203	0x3d9fb83a	0.0779881
204	0xbd828161	-0.06372333
205	0xbd9f08e8	-0.077653706
206	0xbd252e64	-0.040327445
207	0x3d853959	0.06505079
208	0x3dbc27b0	0.09187257
209	0xbd79741f	-0.060901757
210	0x3dba7687	0.091046385
211	0xbd4bbcbc	-0.049740538
212	0xbcba8cbe	-0.02277219
213	0x3dc50aad	0.09621177
214	0x3d07871b	0.03308783
215	0xbc9f9e66	-0.01948471
216	0x3d12b61f	0.035818215
217	0x3bf48103	0.0074616685
218	0x3df31429	0.118690796
219	0xbd9db4b4	-0.07700482
220	0x3e2af15f	0.16693638
221	0x3dc6dcd8	0.09710091
222	0x3d46dd71	0.048551027
223	0x3e093062	0.13397363
224	0xbdde6ce1	-0.10860611
225	0x3cac6b1f	0.021047173
226	0xbda6925b	-0.08133384
227	0x3e181191	0.14850451
228	0x3e0bd544	0.13655573
229	0x3d87c756	0.06629817
230	0xbce55b3c	-0.027997606
231	0xbcb15774	-0.021648146
232	0xbe09d0b2	-0.13458517
233	0x3cc345c0	0.02383697
234	0xbd2b32cb	-0.041796487
235	0x3df56c72	0.11983575
236	0x3c22ec55	0.009944041
237	0x3d078085	0.03308155
238	0xbd555409	-0.052082095
239	0xbdce1642	-0.10062839
240	0xbd8ef95f	-0.069811575
241	0x3dddbd8d	0.108271696
242	0xbd051c48	-0.032497674
243	0xbc5a1732	-0.013311194
244	0x3e2c354b	0.16817205
245	0x3e196919	0.14981498
246	0x3ca78385	0.020448456
247	0x3dc34b80	0.09535885
248	0xbdeb829f	-0.11499523
249	0xbd548002	-0.05187989
250	0xbd445a91	-0.047937933
251	0x3db94734	0.09046784
252	0xbbbf8b43	-0.0058454587
253	0xbd4c8cff	-0.04993915
254	0x3d5b47f7	0.053535428
255	0xbd1af004	-0.037826553
