canvi/arch/weights/favi,0.0001,10.pth (torch, 613149 bytes, 94 tensors)

_transform._transforms.1.transform_net.initial_layer.weight f4 [64, 33]
-0.046908315 0.12395346 0.12917767 -0.07650652 -0.18476306 -0.14549452 -0.059576433 -0.12961994
0.07022361 0.055663608 0.031418543 0.15742527 0.0043067024 -0.04717807 0.17999586 -0.1049626
0.02936395 -0.15224314 0.17503645 -0.011648249 0.003375632 -0.11949639 -0.016697774 0.08679799
0.10174029 0.1710722 -0.13092846 0.09930378 0.078469604 0.020859633 -0.18971021 0.059304923
-0.05131423 -0.15026863 -0.14739563 0.04843652 -0.021911286 0.107680045 -0.09194672 -0.035069823
-0.1018459 0.015317041 -0.0943844 -0.110899836 0.067635275 0.030226018 -0.10345889 0.04578756
0.14090177 0.18100771 -0.04560039 0.15005517 -0.03523295 0.06257984 -0.17104685 0.11383741
0.084630154 0.07890872 -0.13486539 -0.0148252165 -0.059296053 0.013757835 0.08522404 0.011337773
-0.18197581 0.030525118 0.17282225 0.026104584 0.13112795 0.108639605 0.08966762 0.09490639
0.11484515 -0.06730505 -0.113425136 0.018100383 -0.10822811 -0.097158596 0.15392108 0.18492752
0.117498115 0.15678899 0.094208546 -0.08380869 -0.15089104 -0.12090643 0.04174441 0.082000814
-0.14920664 -0.017203426 0.098248124 0.0975038 0.13250746 0.16619729 0.07875694 -0.1682675
0.02882085 0.03762391 0.18271874 0.0032095218 -0.14129478 -0.17678192 0.00018816793 -0.12795451
0.01689314 0.1034484 -0.07249121 0.0026947644 -0.14297824 -0.0014461338 0.16279764 -0.043304957
0.06853678 -0.088604115 0.091509834 -0.03833843 0.11630659 0.01069218 -0.14351143 -0.15289062
0.06442254 -0.09209792 -0.121210836 0.05026753 0.008187396 0.15764046 -0.14194259 0.059356418
0.040550098 -0.0712077 -0.16865757 0.121404886 -0.15934855 0.121799774 -0.12167967 0.020034587
-0.0731542 0.08156366 -0.14838324 -0.05322772 0.010997434 0.12512942 -0.09191463 -0.1334882
0.14692326 0.11113507 -0.1059606 -0.14651726 -0.102681726 -0.11601491 -0.12547503 0.13296413
-0.095282435 0.0079499325 -0.1768902 0.06281542 -0.02035758 -0.030611694 -0.03917982 0.10972138
-0.0682936 -0.022953013 -0.13682476 0.13321033 -0.055704594 0.08376096 0.017634986 0.121171035
-0.14925061 0.117993854 0.122278415 -0.10443415 0.054220367 -0.045660876 0.11760437 -0.008128074
-0.1094025 -0.04285904 0.12216928 -0.15177083 -0.12637511 -0.038627647 -0.07972381 0.09076265
0.059932996 0.16897652 0.13690728 -0.07901907 0.08932005 0.111073755 -0.018414909 0.1776433
-0.12909351 0.04452073 0.06874891 0.1243797 0.1578172 0.033795904 0.06393147 -0.09105047
0.118530564 -0.048579674 -0.016825883 -0.15029606 -0.054369383 -0.0923819 -0.16927595 0.12505934
-0.05925901 0.04406502 0.008822737 -0.056565482 0.061006166 -0.062794685 -0.071235135 0.16728431
-0.10693553 0.113227464 -0.12955654 -0.04735739 -0.073596925 -0.17122543 -0.09320567 -0.09689443
0.14698012 0.060939413 0.067424074 0.065532416 0.12269994 0.0109964255 0.059739694 -0.08272646
0.107691474 -0.1561102 -0.117208846 -0.093225434 0.14838117 0.18769674 0.07848807 -0.16425084
0.17410477 -0.09846711 0.1561368 -0.015806984 0.041696277 -0.109775506 -0.037540406 -0.20221505
0.035685003 -0.16010162 0.049636107 -0.11937899 0.12053758 -0.16505168 0.07870623 -0.051562965
00000000: ef22 40bd 50db fd3d 2747 043e 73af 9cbd
00000010: 8732 3dbe 84fc 14be 6b06 74bd 17bb 04be
00000020: 65d1 8f3d 86ff 633d bbb0 003d 1734 213e
00000030: 3d1f 8d3b cb3d 41bd d650 383e a2f6 d6bd
00000040: ab8c f03c a0e5 1bbe c13c 333e 4cd8 3ebc
00000050: b539 5d3b 86ba f4bd c5c9 88bc 25c3 b13d
00000060: 375d d03d 8d2d 2f3e 1c12 06be c85f cb3d
00000070: acb4 a03d d2e1 aa3c 6543 42be b8e9 723d
00000080: df2e 52bd 05e0 19be e1ee 16be 5f65 463d
00000090: 4c7f b3bc 5b87 dc3d 904e bcbd 60a5 0fbd
000000a0: 9594 d0bd 54f4 7a3c 9c4c c1bd 741f e3bd
000000b0: 5d84 8a3d 8e9c f73c 41e2 d3bd bd8b 3b3d
000000c0: 8e48 103e 165a 393e 79c7 3abd 10a8 193e
000000d0: 6d50 10bd dc29 803d e826 2fbe 9723 e93d
000000e0: 9352 ad3d e59a a13d 271a 0abe 77e5 72bc
000000f0: 6be0 72bd 8b68 613c f189 ae3d 11c2 393c
00000100: de57 3abe d00f fa3c 51f8 303e 48d9 d53c
00000110: 6846 063e 717e de3d a8a3 b73d 485e c23d
00000120: ef33 eb3d 3bd7 89bd 704b e8bd 4147 943c
00000130: b3a6 ddbd 16fb c6bd 7d9d 1d3e a45d 3d3e
00000140: daa2 f03d 4b8d 203e 69f0 c03d e4a3 abbd
00000150: 2e83 1abe ca9d f7bd 30fc 2a3d 0bf0 a73d
00000160: a0c9 18be 33ee 8cbc 5036 c93d 13b0 c73d
00000170: 09b0 073e 9f2f 2a3e 524b a13d 514e 2cbe
00000180: b419 ec3c 871b 1a3d 9f1a 3b3e d756 523b
00000190: 94af 10be 5206 35be f24e 4539 8206 03be
000001a0: 7b63 8a3c c1dc d33d 4676 94bd a59a 303b
000001b0: e368 12be 338c bdba 6db4 263e 8a60 31bd
000001c0: 035d 8c3d 1376 b5bd 8269 bb3d c208 1dbd
000001d0: 2632 ee3d 412e 2f3c a9f4 12be 5c8f 1cbe
000001e0: f7ef 833d d69d bcbd 633d f8bd 53e5 4d3d
000001f0: 6e24 063c 806c 213e 6659 11be b71f 733d
00000200: dc17 263d 58d5 91bd 92b4 2cbe 20a3 f83d
00000210: 442c 23be 2972 f93d 3133 f9bd 931f a43c
00000220: dfd1 95bd d90a a73d c7f1 17be 4f05 5abd
00000230: 952e 343c ed21 003e bd3d bcbd 21b1 08be
00000240: 0d73 163e c99a e33d df01 d9bd 9f08 16be
00000250: cc4a d2bd 3a99 edbd 877c 00be c027 083e
00000260: 7023 c3bd 6f40 023c b422 35be 5fa5 803d
00000270: f1c4 a6bc 60c5 fabc 057b 20bd 9ab5 e03d
00000280: 84dd 8bbd f507 bcbc ca1b 0cbe 4a68 083e
00000290: 802a 64bd de8a ab3d 3f77 903c 8528 f83d
000002a0: 27d5 18be c3a6 f13d 1b6d fa3d 92e1 d5bd
000002b0: 2d16 5e3d e606 3bbd 8fda f03d 9d2b 05bc
000002c0: 6b0e e0bd f68c 2fbd e333 fa3d d069 1bbe
000002d0: 7a68 01be 0638 1ebd 3d46 a3bd c5e1 b93d
000002e0: 4d7c 753d 2e08 2d3e 6c31 0c3e c0d4 a1bd
000002f0: 6eed b63d a37a e33d ddda 96bc 20e8 353e
00000300: 1731 04be 5e5b 363d 3bcc 8c3d c9ba fe3d
00000310: d59a 213e 936d 0a3d 81ee 823d ab78 babd
00000320: 27c0 f23d 7bfb 46bd 6fd6 89bc 36e7 19be
00000330: 6eb2 5ebd b932 bdbd ad56 2dbe 8e0f 003e
00000340: 93b9 72bd 867d 343d 3e8d 103c 35b1 67bd
00000350: 9ae1 793d 809a 80bd bae3 91bd 944c 2b3e
00000360: 0401 dbbd cde3 e73d 78aa 04be d3f9 41bd
00000370: fcb9 96bd b855 2fbe 9de2 bebd 9670 c6bd
00000380: f581 163e 9b9b 793d a215 8a3d dc35 863d
00000390: 1b4a fb3d 5a2a 343c 9cb1 743d 7e6c a9bd
000003a0: 598d dc3d 5adb 1fbe 310b f0bd faec bebd
000003b0: 3cf1 173e 9333 403e 5abe a03d 5f31 28be
000003c0: 8548 323e 20a9 c9bd 53e2 1f3e a67d 81bc
000003d0: b7c9 2a3d fbd1 e0bd f8c3 19bd 7611 4fbe
000003e0: 702a 123d aef1 23be 3b4f 4b3d f97c f4bd
000003f0: 68dc f63d 4f03 29be bb30 a13d b033 53bd

_transform._transforms.1.transform_net.initial_layer.bias f4 [64]
0.22244823 -0.10283871 -0.16283919 0.15142639 -0.016459184 0.12061227 -0.010544582 -0.0030926657
-0.19544722 -0.050952915 0.11600541 0.064841166 0.13337094 -0.094782285 -0.17074443 0.0445794
0.16933498 0.17743927 0.07478836 -0.11240952 -0.054068845 0.039435796 0.052260578 0.034828
0.02431487 -0.046433005 -0.14128374 -0.0036965394 0.07175805 -0.06488622 -0.07502069 -0.1157671
-0.0044270093 0.07763985 -0.08640858 -0.19232568 0.13019732 0.1039739 -0.0038769105 0.08393739
-0.2288574 -0.12670672 0.02186872 0.18062419 0.17855594 -0.017984089 -0.07535675 -0.16979687
0.13735111 0.05652373 0.042829722 0.12024629 -0.006818537 0.07092303 0.15341294 0.01186031
0.01545831 -0.1191369 -0.12275339 0.02917323 -0.11897281 0.15639073 -0.14989547 0.10072991
00000000: 78c9 633e 1a9d d2bd 51bf 26be 850f 1b3e
00000010: 69d5 86bc 9103 f73d 2fc3 2cbc 52ae 4abb
00000020: 5123 48be 01b4 50bd 3f94 ed3d 72cb 843d
00000030: 6492 083e 371d c2bd a1d7 2ebe e498 363d
00000040: 2666 2d3e a4b2 353e a42a 993d f636 e6bd
00000050: 4b77 5dbd 6e87 213d 300f 563d cea7 0e3d
00000060: fa2f c73c 8930 3ebd afac 10be a441 72bb
00000070: e2f5 923d 11e3 84bd 73a4 99bd 4d17 edbd
00000080: 7210 91bb a401 9f3d fbf6 b0bd 06f1 44be
00000090: 7252 053e 45f0 d43d c413 7ebb 5ee7 ab3d
000000a0: 9859 6abe 68bf 01be 0826 b33c 8cf5 383e
000000b0: 5ed7 363e 5e53 93bc a454 9abd 3bdf 2dbe
000000c0: c5a5 0c3e 6d85 673d 386e 2f3d b043 f63d
000000d0: 096e dfbb 1840 913d 4818 1d3e bf51 423c
000000e0: da44 7d3c 0cfe f3bd 2166 fbbd b3fc ee3c
000000f0: 04a8 f3bd e424 203e 337e 19be 7c4b ce3d

_transform._transforms.1.transform_net.blocks.0.context_layer.weight f4 [64, 32]
0.07947809 0.116708376 -0.09724485 0.028414628 -0.14074527 -0.015393519 -0.14434807 0.11621905
-0.03921344 0.009130237 -0.0988539 -0.15134466 0.022240013 -0.04159727 0.12837318 -0.032604963
0.06112241 -0.1494475 -0.08974569 0.16078728 0.063724995 0.09489608 -0.109905295 -0.06945107
0.014923315 0.1572514 -0.022772329 -0.16333422 0.11605956 -0.16824818 0.10870778 0.15158325
0.107114136 -0.0489558 0.17653532 -0.062740095 0.14983891 -0.116548546 -0.06611494 -0.13168187
0.15016592 -0.15063639 -0.0671329 0.095304534 -0.17638816 -0.11952781 0.110704154 0.16647232
0.115280285 -0.15867716 0.106704816 -0.17663528 -0.055381704 0.023908239 -0.09033162 0.12079847
0.03635991 -0.12658533 0.10175061 0.005297882 0.069453925 0.06860238 -0.17002855 0.1122065
-0.09857505 0.058615223 -0.105056524 0.036740113 0.2324249 0.09993243 -0.10605578 0.032166973
-0.041865584 0.08353904 0.132214 0.07863952 0.12015892 -0.0019229691 0.097602874 0.060429014
0.12633976 -0.057209753 0.17172056 -0.037523746 0.21336553 -0.19323735 0.14584416 -0.04568648
-0.14436986 -0.012343063 0.016983729 -0.15316124 -0.16826774 -0.20277724 -0.02077459 0.1449672
-0.025803609 0.08576929 -0.15143414 0.17082956 0.024867702 0.060652673 0.060938224 -0.11018034
-0.04930178 -0.08625002 -0.098752216 -0.032876994 0.14495695 -0.1400445 -0.14649943 0.015153026
-0.011323902 -0.16455533 0.12508191 0.15946707 -0.027636642 0.05160759 -0.16125302 0.00790086
0.16637851 -0.093418516 -0.08639159 -0.13654178 0.07100564 0.03024951 0.13798395 0.09711358
0.14490966 -0.03246251 -0.096315034 0.056189004 -0.16189484 -0.07663062 -0.033019796 0.062384147
0.1042392 -0.103705846 -0.12385343 -0.1364412 0.16845207 0.0470475 -0.072801314 0.11651618
0.099747516 -0.083729126 0.020018978 0.028395917 -0.009772443 0.030928114 0.065777265 0.12292317
-0.100620426 -0.16874576 -0.13011682 0.14692388 -0.06944936 0.11708869 0.039873004 -0.058924865
-0.054953642 0.09886428 -0.054718327 -0.08556075 0.040127937 -0.12645185 0.15253203 -0.044544403
-0.13773122 0.06877288 -8.118181e-05 0.15310393 0.020365244 -0.064772755 -0.13658984 0.034757636
-0.011232686 -0.009406625 0.14279439 0.14478898 0.01852675 0.17535067 0.06596621 0.044262037
-0.06390511 -0.13797447 -0.012556902 0.07832184 -0.09226658 -0.17166844 -0.15405658 0.14997025
-0.023525782 -0.16081434 0.044461433 -0.026790578 -0.033896722 0.01998651 -0.09355545 0.0018933323
-0.0017181523 -0.063349366 -0.10907035 0.17903802 0.19059204 0.06564449 0.18091916 0.13366246
-0.14872687 0.14087807 0.015762648 0.043560717 -0.12350781 0.027492542 0.13448705 0.059206728
0.043610193 0.1757507 0.052025232 -0.10847551 0.0075717587 -0.1327016 -0.17254634 0.17240642
-0.15660551 -0.1337659 -0.14187627 -0.07914636 -0.12526627 -0.035479363 0.04080823 0.10805913
-0.07124463 -0.060863238 -0.030991746 0.026515296 -0.032071516 0.1549228 0.1192912 -0.057149548
0.017899945 0.06318666 0.12875268 -0.03654923 0.12868302 0.05378241 -0.06336528 -0.15252055
0.010114925 0.008689703 -0.033590313 -0.15881452 0.1040135 0.0842549 -0.0003963334 -0.14380436
00000000: 69c5 a23d cd04 ef3d 4f28 c7bd cbc5 e83c
00000010: 871f 10be 1935 7cbc fbcf 13be 4104 ee3d
00000020: 469e 20bd fd96 153c ea73 cabd 18fa 1abe
00000030: b030 b63c e661 2abd 4274 033e c88c 05bd
00000040: 7e5b 7a3d c408 19be 97cc b7bd 6ca5 243e
00000050: 4082 823d e058 c23d 0716 e1bd 5d3c 8ebd
00000060: eb80 743c 8306 213e 098d babc 1641 27be
00000070: a2b0 ed3d 4049 2cbe 2fa2 de3d a438 1b3e
00000080: a85e db3d e085 48bd adc5 343e e17d 80bd
00000090: 5f6f 193e 01b1 eebd 4567 87bd 9dd7 06be
000000a0: 18c5 193e 6d40 1abe f97c 89bd 062f c33d
000000b0: 199f 34be ffca f4bd dcb8 e23d b877 2a3e
000000c0: 1218 ec3d 447c 22be 0e88 da3d e1df 34be
000000d0: edd7 62bd 36db c33c c9ff b8bd 3065 f73d
000000e0: 21ee 143d 969f 01be a062 d03d db99 ad3b
000000f0: dc3d 8e3d 687f 8c3d f71b 2ebe 85cc e53d
00000100: b7e1 c9bd 8416 703d e027 d7bd cd7c 163d
00000110: cb00 6e3e 60a9 cc3d c633 d9bd 84c1 033d
00000120: 3f7b 2bbd 8416 ab3d 1b63 073e c20d a13d
00000130: e115 f63d 230c fcba 04e4 c73d 6a84 773d
00000140: 365f 013e c654 6abd 84d7 2f3e 80b2 19bd
00000150: 7e7c 5a3e 03e0 45be 2c58 153e bf21 3bbd
00000160: b1d5 13be 8f3a 4abc 7621 8b3c 4dd6 1cbe
00000170: 614e 2cbe d6a4 4fbe 792f aabc 4872 143e
00000180: 1762 d3bc cfa7 af3d 8d11 1bbe f2ed 2e3e
00000190: 5ab7 cb3c f06e 783d 5c9a 793d 3ba6 e1bd
000001a0: aaf0 49bd daa3 b0bd 9a3e cabd 07aa 06bd
000001b0: 986f 143e d367 0fbe f203 16be 6644 783c
000001c0: e387 39bc 3181 28be 7915 003e 564b 233e
000001d0: 3d66 e2bc 7b62 533d 831f 25be 9c72 013c
000001e0: 215f 2a3e 3552 bfbd 13ee b0bd 9cd1 0bbe
000001f0: 686b 913d d2cd f73c aa4b 0d3e 7ce3 c63d
00000200: 3363 143e 69f7 04bd d140 c5bd 7126 663d
00000210: c3c7 25be 84f0 9cbd c43f 07bd 8586 7f3d
00000220: 5d7b d53d bb63 d4bd dea6 fdbd 3eb7 0bbe
00000230: b37e 2c3e e1b4 403d db18 95bd 09a0 ee3d
00000240: 6d48 cc3d 2d7a abbd d7fe a33c 8e9e e83c
00000250: 991c 20bc f55c fd3c 3bb6 863d 25bf fb3d
00000260: 1512 cebd b0cb 2cbe 583d 05be 3773 163e
00000270: 773b 8ebd 32cc ef3d e051 233d 335b 71bd
00000280: 1217 61bd 5b79 ca3d 5320 60bd 793a afbd
00000290: 315d 243d 987c 01be 5b31 1c3e 3174 36bd
000002a0: 6a09 0dbe ccd8 8c3d 2740 aab8 47c7 1c3e
000002b0: 03d5 a63c 94a7 84bd 35de 0bbe 065e 0e3d
000002c0: 4d09 38bc 3f1e 1abc b138 123e 9043 143e
000002d0: 69c5 973c 208f 333e 4b19 873d 1c4c 353d
000002e0: afe0 82bd 2e49 0dbe 77bb 4dbc 3367 a03d
000002f0: 43f6 bcbd dac9 2fbe 02c1 1dbe cd91 193e
00000300: 24b9 c0bc 84ac 24be 311d 363d ea77 dbbc
00000310: 4ad7 0abd c0ba a33c 009a bfbd b129 f83a
00000320: a033 e1ba 50bd 81bd 4760 dfbd be55 373e
00000330: 8f2a 433e 9e70 863d df42 393e d0de 083e
00000340: db4b 18be 5742 103e ab20 813c b96c 323d
00000350: aaf1 fcbd 0a38 e13c f9b6 093e c182 723d
00000360: 9aa0 323d fef7 333e 6918 553d 6828 debd
00000370: 841c f83b eee2 07be fdaf 30be 4f8b 303e
00000380: 325d 20be eef9 08be 0348 11be 7d17 a2bd
00000390: cd45 00be cf52 11bd 8826 273d 1b4e dd3d
000003a0: b4e8 91bd bb4b 79bd 67e2 fdbc 9b36 d93c
000003b0: 6c5d 03bd 15a4 1e3e f24e f43d a515 6abd
000003c0: e8a2 923c 0268 813d bed7 033e a5b4 15bd
000003d0: 7bc5 033e f24a 5c3d a8c5 81bd 592e 1cbe
000003e0: 12b9 253c 425f 0e3c ff95 09bd 46a0 22be
000003f0: 0805 d53d d58d ac3d f8ca cfb9 7341 13be

_transform._transforms.1.transform_net.blocks.0.context_layer.bias f4 [64]
-0.11001337 0.12100864 0.0050986563 -0.15191156 0.12364011 0.09331058 -0.10599601 0.1759681
0.027087035 -0.033673044 0.09713973 -0.030517919 0.17535739 -0.09128309 0.14432773 0.18088083
0.11066754 0.12079444 0.076294735 0.10107367 0.19229048 0.13555968 0.12721498 0.18758087
-0.06307031 0.14685741 -0.09016077 -0.01971342 0.20680386 -0.1378648 0.18587098 -0.012285987
0.06996599 -0.077602245 -0.10226172 0.00050494814 0.020710789 0.19601361 0.058190193 0.20103303
0.11919653 -0.038965438 -0.12790382 0.009617863 0.03173076 0.041576035 0.07174936 -0.1320811
0.009778652 -0.053102046 0.076640025 0.17014456 -0.06204977 -0.0106618665 0.16576761 0.015254926
-0.15812068 0.011268002 -0.11000465 -0.086660914 -0.048737027 0.08162103 -0.02390337 -0.08160681
00000000: b14e e1bd 61d3 f73d a112 a73b b48e 1bbe
00000010: 0737 fd3d 9e19 bf3d 7014 d9bd fb30 343e
00000020: a1e5 dd3c bfec 09bd 32f1 c63d b700 fabc
00000030: e390 333e a1f2 babd a6ca 133e d338 393e
00000040: aaa5 e23d 1363 f73d 6a40 9c3d b6ff ce3d
00000050: cce7 443e 28d0 0a3e a544 023e 3315 403e
00000060: 022b 81bd ca61 163e 36a6 b8bd 0a7e a1bc
00000070: 64c4 533e 6e2c 0dbe f654 3e3e 2a4b 49bc
00000080: 544a 8f3d eded 9ebd 986e d1bd 7f5e 043a
00000090: aca9 a93c cbb7 483e d758 6e3d 9adb 4d3e
000000a0: 4f1d f43d 399a 1fbd 38f9 02be 3e94 1d3c
000000b0: 1df8 013d a24b 2a3d 54f1 923d 4540 07be
000000c0: a436 203c 8881 59bd 72f5 9c3d 603a 2e3e
000000d0: e627 7ebd 1caf 2ebc fcbe 293e ccef 793c
000000e0: 63ea 21be 6d9d 383c 1e4a e1bd 477b b1bd
000000f0: 7aa0 47bd ed28 a73d 00d1 c3bc 7921 a7bd

_transform._transforms.1.transform_net.blocks.0.linear_layers.0.weight f4 [64, 64]
0.01855507 0.084580965 -0.09469167 -0.09351909 0.102702044 -0.007423115 0.11761822 -0.07709749
0.028089179 -0.09186592 0.020136375 -0.00039062265 -0.09441347 0.082721084 -0.014885211 -0.02119687
0.14534982 0.014146645 -0.11455153 0.0050066235 0.070778236 0.10613157 -0.06108189 0.13510634
0.13880186 0.06273096 0.08049643 0.029443903 0.16737826 0.003007814 -0.10112392 -0.029502055
0.08103284 0.14754917 0.045721654 0.036794417 0.018108051 -0.008060383 -0.1468633 -0.029786816
-0.08855061 -0.08635533 -0.13065918 -0.040980082 0.0067217187 -0.02564588 0.07935037 0.055974845
0.014666672 0.13088508 -0.0059580393 0.19474132 0.14640951 0.15318368 0.062105082 0.020554645
-0.11948463 0.058541503 -0.047703195 0.05942862 -0.054651383 -0.12402246 0.01629096 0.07027222
0.043240823 -0.0082995165 0.007953094 -0.024416821 -0.113867655 0.00016440889 0.094076335 -0.05574072
0.0683746 0.107891664 -0.02616249 0.07817568 0.1236487 0.029186567 0.06078539 0.12179758
-0.088381246 0.11123263 0.047632046 0.09223918 -0.10812622 0.051800758 0.039444763 -0.018035166
0.11999151 -0.037419386 0.07776892 0.010067481 0.04605461 -0.1333502 0.11464597 0.08102351
0.07174139 0.07889916 -0.09638238 0.045957416 0.07884977 0.021330656 -0.02858583 -0.063849606
-0.10911772 -0.123962656 -0.0792563 0.02249445 0.10074282 -0.02452056 -0.106728524 0.014829273
0.10491172 -0.15179154 -0.13051547 0.06789198 0.08132702 -0.06171549 -0.090419315 0.055198185
-0.09967889 -0.053504962 -0.12386587 0.055878483 0.005284391 -0.014139528 -0.0126412455 -0.0644339
0.056340724 -0.1307397 0.020306012 -0.046430595 0.093766615 0.00017028574 0.034858946 0.07350303
0.0148098 -0.019380989 0.02800206 -0.086083874 -0.076777086 -0.048908174 -0.1188093 0.11139288
0.12855901 0.02768613 -0.048577044 -0.011633315 -0.112994224 -0.022426715 0.088785775 0.05782175
-0.08383603 -0.09048517 0.04554627 0.08813304 0.006045286 -0.0022171044 0.092937246 -0.01710885
0.035451375 0.04339161 0.08299473 0.04580659 0.08776412 -0.0708887 0.12334663 -0.0368372
-0.07181514 0.0010411607 0.059658356 0.030595366 0.07042129 -0.030026484 0.093929864 -0.075674385
-0.038349435 -0.049085382 -0.060402356 -0.046912514 0.13776068 -0.015875231 -0.03163927 0.12027985
-0.020926531 0.042059854 -0.09555718 0.036688797 0.04804872 0.15396987 -0.023235228 -0.113981724
-0.107797086 0.07326825 -0.021413982 0.054630235 -0.010540813 0.089254126 0.12056108 -0.067622304
-0.119374886 0.110864505 -0.08774856 -0.026857793 -0.056254193 0.08883831 -0.102890536 0.09989385
0.09356582 -0.09988688 0.08769816 -0.009258136 0.0999407 0.09388523 0.017661035 0.023027897
-0.09715772 -0.099040985 0.06497985 -0.081466556 -0.051720396 -0.06194143 0.088512465 0.09309043
0.043955043 -0.01746358 0.029412314 0.012662634 -0.0805486 -0.09937346 -0.093682334 -0.039032638
0.0137358755 -0.099935815 -0.038172692 -0.04211624 -0.08942163 0.06476106 -0.052491084 -0.10887399
-0.11281632 -0.11896354 -0.11714618 -0.011880562 0.0719962 -0.01825723 -0.09150481 -0.02895242
0.072695464 -0.022870839 0.10990554 0.0067683607 0.03001237 0.041826025 -0.020816326 0.0004426241
00000000: cd00 983c c938 ad3d b5ed c1bd f086 bfbd
00000010: 7355 d23d 9a3d f3bb d2e1 f03d 4ae5 9dbd
00000020: 471b e63c 3324 bcbd 0af5 a43c 7ccc ccb9
00000030: d95b c1bd ac69 a93d 1ae1 73bc 0fa5 adbc
00000040: 95d6 143e 54c7 673c fe99 eabd 9a0e a43b
00000050: 2ef4 903d 825b d93d 0131 7abd 5159 0a3e
00000060: 1322 0e3e 1779 803d 50db a43d 5734 f13c
00000070: 3565 2b3e bf1e 453b 0f1a cfbd 4bae f1bc
00000080: 8cf4 a53d 2117 173e a146 3b3d beb5 163d
00000090: 5657 943c b20f 04bc 5563 16be 7b03 f4bc
000000a0: 065a b5bd 10db b0bd 85cb 05be bbda 27bd
000000b0: dd41 dc3b 4f17 d2bc 7282 a23d e145 653d
000000c0: 7b4c 703c bd06 063e a83b c3bb 456a 473e
000000d0: 60ec 153e 2fdc 1c3e e661 7e3d 3762 a83c
000000e0: 5cb4 f4bd 37c9 6f3d 6d64 43bd 6d6b 733d
000000f0: 21da 5fbd 7dff fdbd 9f74 853c e2ea 8f3d
00000100: 4a1d 313d b2fa 07bc b24d 023c c905 c8bc
00000110: 7233 e9bd 2d65 2c39 18ab c03d 6250 64bd
00000120: fb07 8c3d 4ef6 dc3d b852 d6bc 921a a03d
00000130: 883b fd3d ab18 ef3c 1afa 783d 0271 f93d
00000140: 3a01 b5bd efcd e33d d219 433d e5e7 bc3d
00000150: 4871 ddbd 082d 543d d590 213d 7cbe 93bc
00000160: 1cbe f53d 1245 19bd 5045 9f3d 13f2 243c
00000170: c2a3 3c3d f48c 08be 82cb ea3d a7ef a53d
00000180: 26ed 923d e295 a13d 2064 c5bd d83d 3c3d
00000190: fd7b a13d a1bd ae3c d52c eabc 95c3 82bd
000001a0: 1c79 dfbd 22e0 fdbd 2151 a2bd 4846 b83c
000001b0: 4052 ce3d 57df c8bc 7c94 dabd 7bf6 723c
000001c0: f5db d63d 3e6f 1bbe d9a5 05be f30a 8b3d
000001d0: c88e a63d 62c9 7cbd c32d b9bd 7e17 623d
000001e0: 7224 ccbd 0528 5bbd 64ad fdbd d6e0 643d
000001f0: af28 ad3b 7ba9 67bc 3a1d 4fbc ecf5 83bd
00000200: 88c5 663d a1e0 05be cb58 a63c 022e 3ebd
00000210: b608 c03d bb8e 3239 41c8 0e3d c288 963d
00000220: cea4 723c e1c4 9ebc 9364 e53c be4c b0bd
00000230: 4e3d 9dbd f053 48bd 4a52 f3bd f321 e43d
00000240: f9a4 033e 06ce e23c b9f8 46bd a999 3ebc
00000250: 8469 e7bd 3bb8 b7bc 51d5 b53d 80d6 6c3d
00000260: 39b2 abbd 4a50 b9bd ba8e 3a3d 187f b43d
00000270: 8917 c63b d74c 11bb e255 be3d dc27 8cbc
00000280: 7635 113d 67bb 313d 24f9 a93d b19f 3b3d
00000290: adbd b33d 182e 91bd 289d fc3d 9be2 16bd
000002a0: d113 93bd 8e77 883a 525c 743d 22a3 fa3c
000002b0: 0a39 903d 1afa f5bc 4d5e c03d 2cfb 9abd
000002c0: 4c14 1dbd c10d 49bd 7668 77bd 5627 40bd
000002d0: 2311 0d3e c60c 82bc 2e98 01bd 4855 f63d
000002e0: 1e6e abbc f446 2c3d 7cb3 c3bd fe46 163d
000002f0: bcce 443d 47aa 1d3e ce57 bebc 406f e9bd
00000300: b8c4 dcbd aa0d 963d 606c afbc f4c3 5f3d
00000310: 60b3 2cbc deca b63d bae8 f63d 907d 8abd
00000320: d27a f4bd ee0c e33d 84b5 b3bd e004 dcbc
00000330: cc6a 66bd dcf0 b53d 46b8 d2bd 2695 cc3d
00000340: 709f bf3d 7e91 ccbd 189b b33d 70af 17bc
00000350: b6ad cc3d e646 c03d e0ad 903c 00a5 bc3c
00000360: a0fa c6bd 00d6 cabd 2814 853d f0d7 a6bd
00000370: c4d8 53bd 4cb6 7dbd 0646 b53d 32a6 be3d
00000380: 340a 343d c80f 8fbc 18f2 f03c f076 4f3c
00000390: aaf6 a4bd 5084 cbbd 86dc bfbd b0e0 1fbd
000003a0: 700c 613c 26ab ccbd f85a 1cbd 1482 2cbd
000003b0: b022 b7bd 72a1 843d e400 57bd 54f9 debd
000003c0: 3e0c e7bd 28a3 f3bd 56ea efbd b0a6 42bc
000003d0: be72 933d 3090 95bc e066 bbbd a02d edbc
000003e0: 5ce1 943d a05b bbbc 2816 e13d 20c9 dd3b
000003f0: 80dc f53c c451 2b3d 0087 aabc 0010 e839

_transform._transforms.1.transform_net.blocks.0.linear_layers.0.bias f4 [64]
-0.022636246 -0.05336644 0.093831696 -0.08926144 0.13268705 0.10111599 -0.009397456 0.16433433
-0.053385686 -0.11699119 -0.02698828 -0.01509831 0.089751095 -0.053345297 -0.008616004 0.047401175
-0.091164514 -0.07039336 0.080907986 0.12444551 0.04830791 0.11696267 0.15101346 -0.009436803
0.06007453 -0.08472714 -0.057922382 -0.12454152 0.14232676 0.026857378 -0.040848877 0.16091305
0.11708549 0.064209886 -0.04146755 0.2147678 0.09632894 0.14058635 0.0070659453 0.01322964
0.15500775 -0.12045237 0.084604986 -0.025518628 0.03627182 0.16972017 0.09358457 0.142457
0.10421156 0.099433675 0.057187315 0.06816098 0.00015904792 0.12527086 -0.055982802 0.0324266
-0.07755337 0.052830596 0.15257126 0.12699217 0.116082326 0.021761985 -0.039304607 0.07049088
00000000: a66f b9bc c596 5abd d52a c03d b4ce b6bd
00000010: 1ddf 073e e615 cf3d caf7 19bc 4247 283e
00000020: f3aa 5abd 1499 efbd 8616 ddbc e75e 77bc
00000030: 6ccf b73d 9980 5abd 242a 0dbc bc27 423d
00000040: 76b4 babd 652a 90bd 16b3 a53d 4add fe3d
00000050: 84de 453d 208a ef3d 46a3 1a3e d29c 1abc
00000060: b610 763d 6c85 adbd 0540 6dbd a00f ffbd
00000070: 1bbe 113e 0104 dc3c 2751 27bd 64c6 243e
00000080: 84ca ef3d 7980 833d e1d9 29bd 17ec 5b3e
00000090: 1b48 c53d def5 0f3e 7289 e73b 22c1 583c
000000a0: 5aba 1e3e bbaf f6bd 6145 ad3d 710c d1bc
000000b0: c391 143d 20cb 2d3e 44a9 bf3d 3fe0 113e
000000c0: df6c d53d e2a3 cb3d 3f3d 6a3d fc97 8b3d
000000d0: 1ac6 2639 0147 003e 394e 65bd c1d1 043d
000000e0: 4dd4 9ebd e564 583d a43b 1c3e 3c0a 023e
000000f0: 92bc ed3d 3146 b23c defd 20bd 865d 903d

_transform._transforms.1.transform_net.blocks.0.linear_layers.1.weight f4 [64, 64]
-0.014063628 0.011853569 0.036001638 0.0005622052 0.04015605 0.02656717 -0.0033861196 0.031233974
0.030830868 0.001243827 -0.04314239 -0.022993034 -0.00046679177 0.023645472 -0.0019212884 0.02188094
0.0016189971 -0.0067628054 0.0054565957 0.030268693 0.0005793197 0.030187497 0.034301538 0.0016977376
0.026368288 0.021544296 -0.015382822 0.0003512397 0.042483058 0.02953532 0.019250987 0.042037223
0.03125109 0.01663651 0.019220341 0.07762197 0.039063763 0.025455702 0.02300977 0.022657402
0.034678716 0.019877631 0.022407841 -0.0033521205 0.028944673 0.054559585 0.0363426 0.03655841
0.029025096 0.045970675 0.000993016 0.0044659055 0.028378554 0.027883949 0.021788938 -0.04025498
8.610502e-05 0.009457042 0.031059353 0.021899961 0.0605644 0.03375287 0.010512 0.01358517
0.023967754 0.00663236 -0.01743031 0.00049439515 -0.016181795 0.011208549 0.005836063 -0.0004104349
-0.02841839 -0.0184321 0.0029318137 0.047239494 0.039240953 -0.027619256 0.0007684408 0.0155893415
-0.007935812 -0.0033854025 -0.037520338 -0.015630702 0.028578863 0.0005247805 -0.006429505 0.00548672
-0.009290751 -0.017402595 0.019856429 -0.00031554463 -0.015137752 -0.011585547 -0.00538383 -0.0016072645
0.008396959 -0.041500367 -0.013818492 0.0023793152 -0.020935424 0.003848312 0.0040707123 -0.00038464303
-0.0067449426 -0.0020149145 -0.0065464326 0.030346863 0.0122932475 0.0094730435 -0.055755265 -0.008009446
-0.004607439 -0.006622817 0.038494922 0.03195232 -0.019601053 0.013708258 0.004449946 0.043893363
-0.023519984 0.0013996086 -0.0015971514 0.010936512 -0.011733937 -0.0029570009 -0.029491339 -0.014142087
0.04077952 0.0003560533 -0.020464968 -0.00079160027 -0.016771192 4.683423e-05 0.00242402 -0.00649496
-0.0054305033 0.006675137 0.014898572 0.033632573 0.02290798 -0.012002113 -0.0013179713 0.01224453
-0.0042674514 0.0001989066 -0.011604913 -0.019673424 0.02044987 -0.005512997 -0.01358036 0.017516606
-0.007880613 -0.008216043 0.013248496 -0.0007558171 -0.017133698 -0.0029007166 0.0010596379 -0.01921063
-0.0037772567 -0.030896338 -0.0025276276 -0.0578397 -0.019636681 -0.0059310556 0.013455615 0.0014277651
-0.011422421 -6.9045e-05 -0.005549521 0.015480101 0.0028531475 -0.02264435 -0.052459795 -0.010077979
-0.010228323 -0.030542864 0.02637964 0.007746858 -0.007330083 -0.004715785 -0.0037973297 0.0314977
-0.02060165 -0.006116885 -0.01096676 0.0028160322 -0.025494507 -0.004743046 -0.014285504 -0.0055239038
0.0020741485 0.0014800964 -0.011250507 0.00046629907 -0.0032246232 -0.009543089 0.008272127 -0.0052171
-0.008621424 0.009359557 -0.021968858 -0.0031314376 -0.008044452 -0.00400859 0.0005522228 -0.005357155
-0.0032902926 -0.011746461 -0.0072894613 -0.0048313434 -0.00030044053 -0.0041938936 -0.0053079296 0.0036404375
-0.006319053 -0.007868728 -0.0015221002 -0.000505772 -0.01559533 -0.008512129 0.0012959318 -0.013973573
-0.014968933 -0.006127217 0.0030052739 -0.019509697 -0.01047688 -0.0073570255 0.004451955 -0.0018516482
-0.0063998997 0.001013233 0.0020336467 -0.008770857 -0.0012340152 -0.0004887652 -0.025172256 -0.008482828
-0.0037828472 -0.015200866 0.0028463926 -0.016570983 -0.009525223 -0.009452679 -0.002299257 -0.0049752137
-0.0044603725 0.0003747868 -0.010257692 -0.00072258315 -0.018871855 -0.0013589725 -0.001267147 -0.0044775936
00000000: 226b 66bc 7935 423c 7476 133d f460 133a
00000010: ac7a 243d 65a3 d93c a9e9 5dbb 64de ff3c
00000020: 0491 fc3c e907 a33a 13b6 30bd e35b bcbc
00000030: bbbb f4b9 26b4 c13c bed3 fbba a83f b33c
00000040: 8734 d43a 869a ddbb 3ecd b23b 0df6 f73c
00000050: 7ddd 173a c54b f73c c57f 0c3d 9f86 de3a
00000060: 4f02 d83c aa7d b03c 3b08 7cbc 9826 b839
00000070: b702 2e3d 0ef4 f13c 3fb4 9d3c 392f 2c3d
00000080: 2501 003d 4a49 883c fa73 9d3c 44f8 9e3d
00000090: 5301 203d 7a88 d03c fc7e bc3c 049c b93c
000000a0: 450b 0e3d 6ad6 a23c a690 b73c 40af 5bbb
000000b0: 611d ed3c df79 5f3d fadb 143d 45be 153d
000000c0: 0ac6 ed3c bf4b 3c3d 1628 823a bb56 923b
000000d0: 247a e83c e16c e43c b77e b23c 68e2 24bd
000000e0: 4893 b438 b6f1 1a3c 2f70 fe3c 8c67 b33c
000000f0: 6012 783d 7340 0a3d 863a 2c3c 5594 5e3c
00000100: 0658 c43c 4554 d93b 02ca 8ebc 4c9a 013a
00000110: af8f 84bc 10a4 373c 723c bf3b a42f d7b9
00000120: afcd e8bc eafe 96bc ac23 403b 337e 413d
00000130: 1fbb 203d c741 e2bc 3071 493a 706a 7f3c
00000140: 3505 02bc a1dd 5dbb edae 19bd f50b 80bc
00000150: 381e ea3c 6c91 093a 99ae d2bb f1c9 b33b
00000160: 3c38 18bc e38f 8ebc f3a9 a23c af6f a5b9
00000170: 5504 78bc 4ed1 3dbc d76a b0bb d9aa d2ba
00000180: 6693 093c 4afc 29bd f566 62bc 49ee 1b3b
00000190: c480 abbc f633 7c3b 9c63 853b eaa9 c9b9
000001a0: ae04 ddbb a80c 04bb 7583 d6bb fc99 f83c
000001b0: 9e69 493c d334 1b3c a25f 64bd 0d3a 03bc
000001c0: 00fa 96bb 3704 d9bb daac 1d3d 70e0 023d
000001d0: 6392 a0bc 9a98 603c dad0 913b 87c9 333d
000001e0: fbac c0bc 1273 b73a 8257 d1ba 0e2f 333c
000001f0: b33f 40bc 3eca 41bb d297 f1bc 36b4 67bc
00000200: 6d08 273d aaac ba39 26a6 a7bc 6583 4fba
00000210: bd63 89bc df6f 4438 4fdc 1e3b acd3 d4bb
00000220: 5df2 b1bb 1cbb da3b 2419 743c 4fc2 093d
00000230: 84a9 bb3c 83a4 44bc c7bf acba 489d 483c
00000240: fad5 8bbb 9591 5039 8822 3ebc 292a a1bc
00000250: 7c86 a73c 5fa6 b4bb 2980 5ebc fc7e 8f3c
00000260: b01d 01bc 959c 06bc 3810 593c 0722 46ba
00000270: f85b 8cbc f319 3ebb 8ce3 8a3a 9c5f 9dbc
00000280: da8b 77bb 511a fdbc 8ea6 25bb 52e9 6cbd
00000290: 1bdd a0bc 4d59 c2bb f174 5c3c d923 bb3a
000002a0: 1b25 3bbc 41cc 90b8 c2d8 b5bb 40a0 7d3c
000002b0: dffb 3a3b a580 b9bc 15e0 56bd 1c1e 25bc
000002c0: b294 27bc 0735 fabc 1d1a d83c 5bd9 fd3b
000002d0: 3131 f0bb df86 9abb 9fdc 78bb bb03 013d
000002e0: cbc4 a8bc 2770 c8bb edad 33bc 2e8d 383b
000002f0: dbd9 d0bc 8e6b 9bbb bf0d 6abc dd01 b5bb
00000300: 70ee 073b cbff c13a 0c54 38bc 9a79 f439
00000310: 3354 53bb 9e5a 1cbc d187 073c 35f4 aabb
00000320: e040 0dbc d458 193c 09f8 b3bc ce38 4dbb
00000330: e1cc 03bc 7d5a 83bb 0bc3 103a 138b afbb
00000340: f3a1 57bb 3a74 40bc 6fdc eebb 3f50 9ebb
00000350: 7284 9db9 ee6c 89bb 24ee adbb 6894 6e3b
00000360: 0f10 cfbb d6eb 00bc 3581 c7ba c995 04ba
00000370: 8e83 7fbc 7576 0bbc 41dc a93a 6af1 64bc
00000380: 4140 75bc d2c6 c8bb 21f4 443b cdd2 9fbc
00000390: 38a7 2bbc 3413 f1bb b5e1 913b 01b3 f2ba
000003a0: 40b6 d1bb 75ce 843a ee46 053b a4b3 0fbc
000003b0: aebe a1ba 7a20 00ba 0c36 cebc 8ffb 0abc
000003c0: a5e9 77bb 0e0d 79bc 8b8a 3a3b dfbf 87bc
000003d0: ae0f 1cbc 69df 1abc 22af 16bb 1e07 a3bb
000003e0: 5128 92bb 087f c439 e10f 28bc bc6b 3dba
000003f0: 2699 9abc 8d1f b2ba 6616 a6ba c7b8 92bb

_transform._transforms.1.transform_net.blocks.0.linear_layers.1.bias f4 [64]
0.04552573 0.007793446 -0.023293309 -0.013438495 -0.0028349252 0.00012545672 0.036028553 0.030711066
-0.027380811 0.028467465 0.072125115 -0.0018035288 0.0211997 -0.04669257 -9.775233e-05 0.020732647
0.028525745 0.015648078 0.015439516 -0.031550616 0.01847916 -0.005668024 -0.014010119 -0.016524145
0.016404035 0.023772292 -0.02071911 -0.0402568 -0.041943178 0.013042908 -0.0055070133 0.047220103
-0.017413817 -0.05022098 0.022054201 -0.03631574 -0.023385549 0.034500413 0.019830978 0.043671086
-0.07215949 -0.0070800884 -0.028692832 0.037653103 0.041895736 0.019703126 -0.0127461 -0.006025633
0.07813417 -0.017014967 0.002700095 -0.016399713 0.0010024132 -0.029664585 0.036705688 -0.0012495379
0.016578168 -0.037439596 -0.0011848758 0.00786297 0.03191384 0.026138037 -0.029838039 -0.0050975475
00000000: 3079 3a3d 2a60 ff3b 9cd1 bebc 222d 5cbc
00000010: 27ca 39bb 088d 0339 ad92 133d c695 fb3c
00000020: b94d e0bc 9a34 e93c 55b6 933d 6264 ecba
00000030: feaa ad3c b540 3fbd 6200 cdb8 83d7 a93c
00000040: d3ae e93c 6630 803c 06f6 7c3c 383b 01bd
00000050: 9b61 973c d5ba b9bb b38a 65bc a55d 87bc
00000060: c161 863c 1cbe c23c 1fbb a9bc 50e4 24bd
00000070: 9ccc 2bbd ecb1 553c 2d74 b4bb de69 413d
00000080: 6ca7 8ebc 84b4 4dbd 03ab b43c d0bf 14bd
00000090: 0d93 bfbc 4e50 0d3d 9374 a23c 74e0 323d
000000a0: 5bc8 93bd 1600 e8bb 3b0d ebbc 243a 1a3d
000000b0: dd9a 2b3d 7368 a13c 05d5 50bc ac72 c5bb
000000c0: cf04 a03d f962 8bbc 14f4 303b b158 86bc
000000d0: 6863 833a 2503 f3bc b458 163d 89c7 a3ba
000000e0: f0ce 873c 435a 19bd d64d 9bba b0d3 003c
000000f0: 16b8 023d 701f d63c e76e f4bc 5409 a7bb

_transform._transforms.1.transform_net.blocks.1.context_layer.weight f4 [64, 32]
0.087748095 0.15411672 0.14404728 -0.025480391 0.13339542 -0.088558584 -0.14454527 -0.023512706
0.16354987 0.11293283 -0.0016034413 0.007889516 0.067799695 0.031007681 0.18662903 0.15942475
0.17742185 -0.021130389 -0.06281062 -0.14650938 0.13984957 0.079480685 -0.17938815 0.1454228
-0.08869771 0.14923708 0.039660558 0.10908933 -0.047936603 -0.09990664 0.06797716 -0.14364024
0.04696481 0.103051394 0.064796194 0.17973088 0.023719184 0.06891873 0.12418779 -0.06724706
0.06764838 -0.11746923 0.09839232 0.05162359 0.13521011 0.12516573 0.1077122 -0.08939588
-0.06689729 0.12473533 0.12844081 -0.110700324 0.157692 -0.14882116 -0.012690406 0.005607019
-0.16920641 -0.080492966 -0.15573625 -0.028332978 0.10281756 0.1553763 0.17344987 -0.035994146
-0.020971484 -0.09118837 -0.072265185 0.11241988 0.07980843 -0.11502663 0.15031135 -0.123832375
0.07038278 -0.061985683 -0.124015495 -0.019717699 0.17483236 -0.107366055 0.050679836 -0.02258285
0.11839885 0.113240875 0.14871931 -0.15916538 -0.025385542 -0.1210312 0.07335589 -0.12439673
-0.09184589 -0.08481189 -0.07465818 0.0913306 0.12835573 0.108206674 0.069995105 0.050392736
0.03218734 0.053087812 0.15397856 -0.04577985 0.1792265 0.03691769 0.05578412 0.10021053
0.11863208 0.055774942 0.039621327 0.05985388 -0.069042586 -0.019294735 0.102176525 -0.09371148
-0.13164261 0.0892946 -0.15510067 0.022322584 0.07495681 -0.12869772 -0.12516704 0.016051432
0.07708292 -0.06963042 -0.1274147 -0.1412314 -0.183527 0.08214858 -0.105108 0.11668185
-0.16963124 0.081434436 -0.04389154 -0.025388362 -0.10562476 0.11214504 -0.041263007 -0.13566597
-0.05227671 -0.08938692 0.16226621 -0.095706396 -0.059272006 -0.008784837 -0.17640615 0.17296067
0.17898597 0.15487611 -0.045109116 0.050438352 -0.14131007 -0.14016551 -0.09197191 0.07201107
-0.06895832 0.14366944 0.10186646 -0.16751394 0.16087502 -0.14035471 0.15697394 -0.17112374
0.02719721 0.0032956004 -0.13075611 0.1033829 -0.07178163 -0.08535765 -0.05777551 0.11498916
0.12846674 0.16475195 0.16564232 0.04803047 -0.124411434 -0.12270773 0.12279187 0.109938525
-0.17448352 -0.086123295 0.0007663563 0.0693348 0.05641895 0.09036353 -0.014043073 0.04572723
-0.0073927026 -0.14310145 -0.023875657 0.11592984 0.12974346 -0.12673338 -0.0917087 -0.012537137
-0.034696225 0.06868167 -0.13962422 -0.15617758 -0.055730022 0.030812021 0.060592167 -0.09776849
-0.0032963692 0.0472974 0.034134988 -0.109591946 0.09911796 -0.017887903 -0.10051927 0.04051194
-0.14200981 0.11141317 -0.04567102 -0.054785095 0.06672534 0.04045306 0.0054160007 0.053841457
0.087368 0.13683976 -0.0363655 -0.14833847 -0.16948764 0.16281918 0.10071468 0.20110573
0.0981581 0.10523125 -0.026824316 0.06697814 -0.10229501 -0.08239434 0.09861704 -0.092450045
0.114409514 -0.12425889 0.06980894 -0.01911481 -0.026071124 0.16195425 0.030943515 0.060434
0.10261225 0.13914825 -0.07903931 0.03218473 0.14338775 -0.12789954 0.21888393 -0.12845014
0.17866594 0.024849279 0.13334687 -0.18733431 -0.043788962 -0.033310883 0.16427505 0.04617579
00000000: 46b5 b33d c6d0 1d3e 2181 133e 41bc d0bc
00000010: cf98 083e 345e b5bd ad03 14be b89d c0bc
00000020: 9e79 273e 5449 e73d 902a d2ba 0743 013c
00000030: 91da 8a3d d203 fe3c ae1b 3f3e 3e40 233e
00000040: 13ae 353e a319 adbc dba2 80bd 8e06 16be
00000050: ba34 0f3e c5c6 a23d 87b1 37be b7e9 143e
00000060: 25a7 b5bd 9bd1 183e 1c73 223d 3a6a df3d
00000070: 2c59 44bd da9b ccbd 9c37 8b3d 6d16 13be
00000080: 2c5e 403d 9c0c d33d deb3 843d 5f0b 383e
00000090: bc4e c23c 4325 8d3d 2b56 fe3d d4b8 89bd
000000a0: 3c8b 8a3d b593 f0bd ea81 c93d 4273 533d
000000b0: 8574 0a3e 722b 003e 3798 dc3d 3015 b7bd
000000c0: 7201 89bd 3d75 ff3d fd85 033e dab6 e2bd
000000d0: 037a 213e 9364 18be 6ceb 4fbc 16bb b73b
000000e0: 7244 2dbe 7fd9 a4bd 5379 1fbe 901a e8bc
000000f0: 0392 d23d f71a 1f3e d89c 313e 996e 13bd
00000100: 64cc abbc f8c0 babd c5ff 93bd 653c e63d
00000110: 9a72 a33d 1593 ebbd 38eb 193e d49b fdbd
00000120: d924 903d b3e4 7dbd d6fb fdbd 0387 a1bc
00000130: 4107 333e bce2 dbbd a995 4f3d abff b8bc
00000140: 197b f23d d5ea e73d e049 183e 40fc 22be
00000150: 57f5 cfbc 35df f7bd 9d3b 963d b6c3 febd
00000160: b319 bcbd dbb1 adbd 63e6 98bd 8a0b bb3d
00000170: af6f 033e 769b dd3d 9859 8f3d 9d68 4e3d
00000180: dfd6 033d 9b72 593d 8eac 1d3e a783 3bbd
00000190: 2787 373e 0137 173d e47d 643d 2e3b cd3d
000001a0: 60f5 f23d 4474 643d f949 223d 5829 753d
000001b0: 3366 8dbd fe0f 9ebc ed41 d13d ceeb bfbd
000001c0: 52cd 06be 16e0 b63d b6d2 1ebe dadd b63c
000001d0: f582 993d 56c9 03be ca2b 00be 4b7e 833c
000001e0: a6dd 9d3d 659a 8ebd 0079 02be f79e 10be
000001f0: 80ee 3bbe 843d a83d dd42 d7bd e5f6 ee3d
00000200: d0b3 2dbe 19c7 a63d 9ec7 33bd 41fb cfbc
00000210: cb51 d8bd 4cac e53d 6603 29bd 05ec 0abe
00000220: 1a20 56bd 7d10 b7bd 1d29 263e b701 c4bd
00000230: 34c7 72bd 47ee 0fbc d0a3 34be 9a1c 313e
00000240: 1948 373e d897 1e3e 56c4 38bd 7298 4e3d
00000250: 96b3 10be 8c87 0fbe c55b bcbd 8a7a 933d
00000260: 053a 8dbd 151e 133e 5d9f d03d c688 2bbe
00000270: 6cbc 243e 25b9 0fbe c7bd 203e 103b 2fbe
00000280: afcc de3c 00fb 573b eee4 05be 6aba d33d
00000290: 3f02 93bd fecf aebd 03a6 6cbd 707f eb3d
000002a0: c98c 033e bcb4 283e 249e 293e 99bb 443d
000002b0: 6ccb febd 314e fbbd 4e7a fb3d 7327 e13d
000002c0: cfab 32be 6961 b0bd 4de5 483a 67ff 8d3d
000002d0: 8f17 673d 8410 b93d eb14 66bc 7a4c 3b3d
000002e0: 7c3e f2bb 3089 12be e296 c3bc a06c ed3d
000002f0: 78db 043e 65c6 01be c5d1 bbbd 9068 4dbc
00000300: a11d 0ebd faa8 8c3d a7f9 0ebe 04ed 1fbe
00000310: 2a45 64bd 7e69 fc3c 7e2f 783d d93a c8bd
00000320: e607 58bb ebba 413d 21d1 0b3d be71 e0bd
00000330: 5bfe ca3d a789 92bc 0cdd cdbd d9ef 253d
00000340: 056b 11be 972c e43d 8911 3bbd 5666 60bd
00000350: 4ca7 883d 1cb2 253d b578 b13b dc88 5c3d
00000360: feed b23d b91f 0c3e fef3 14bd 0ae6 17be
00000370: 2b8e 2dbe 12ba 263e 8043 ce3d a9ee 4d3e
00000380: 1d07 c93d 7b83 d73d abbe dbbc d62b 893d
00000390: 0c80 d1bd 5dbe a8bd bbf7 c93d 7356 bdbd
000003a0: 894f ea3d 727b febd fdf7 8e3d a996 9cbc
000003b0: 1c93 d5bc 56d7 253e 417d fd3c a489 773d
000003c0: 5f26 d23d e17c 0e3e 5ddf a1bd 23d4 033d
000003d0: 3dd4 123e 19f8 02be 1c23 603e 6f88 03be
000003e0: 34f4 363e b790 cb3c 158c 083e 91d4 3fbe
000003f0: 0e5c 33bd fe70 08bd b837 283e d322 3d3d

_transform._transforms.1.transform_net.blocks.1.context_layer.bias f4 [64]
-0.049295012 0.016234925 -0.04228357 0.03917494 0.033948813 0.02146909 -0.040008012 -0.013287931
-0.0065817353 0.056391865 0.1681625 -0.106818 0.03014464 -0.09627486 0.16821194 0.038811818
-0.16760254 -0.056169722 -0.13307375 -0.0932912 -0.1078035 -0.025803281 0.10021802 0.049051937
0.030573715 -0.069209 0.05189862 0.038543843 0.06209369 0.15027702 -0.07535792 -0.025229009
0.03906204 0.088211685 0.1764764 -0.158802 0.056624983 0.028018702 -0.080796026 0.050786946
0.010741089 -0.115529895 -0.08466181 -0.099440545 0.14888671 0.02121356 -0.06750626 0.11232782
0.18973814 0.050762568 0.06166334 0.03276323 0.0048935832 0.058213644 -0.047751065 -0.18821785
-0.0065462072 0.029347286 0.11360366 0.07633991 0.20551538 -0.14506553 0.047229335 -0.12553203
00000000: 91e9 49bd 1bff 843c 8931 2dbd e775 203d
00000010: e90d 0b3d f2df af3c 71df 23bd 9fb5 59bc
00000020: 99ab d7bb 28fb 663d ca32 2c3e 65c3 dabd
00000030: e4f1 f63c c12b c5bd c03f 2c3e 24f9 1e3d
00000040: 00a0 2bbe 3912 66bd 7c44 08be 750f bfbd
00000050: 15c8 dcbd 6761 d3bc 1b3f cd3d afea 483d
00000060: ba75 fa3c 73bd 8dbd a693 543d 26e0 1d3d
00000070: f455 7e3d 38e2 193e 4155 9abd 11ad cebc
00000080: 85ff 1f3d 54a8 b43d 3bb6 343e fe9c 22be
00000090: 99ef 673d 7a87 e53c 6378 a5bd f905 503d
000000a0: 64fb 2f3c f09a ecbd 2c63 adbd 7ca7 cbbd
000000b0: c275 183e 0fc8 ad3c b940 8abd 210c e63d
000000c0: b74a 423e 69ec 4f3d b392 7c3d bd32 063d
000000d0: 5a5a a03b 6e71 6e3d 9f96 43bd 2ebc 40be
000000e0: 9181 d6bb b869 f03c 09a9 e83d 1958 9c3d
000000f0: a072 523e 0f8c 14be 8c73 413d 788b 00be

_transform._transforms.1.transform_net.blocks.1.linear_layers.0.weight f4 [64, 64]
0.06528968 -0.047424693 -0.13179474 0.057386443 0.11463476 0.086998455 -0.032509893 0.14374048
0.014798829 -0.08225307 0.09027656 -0.06910724 0.016616762 0.028250406 0.10036553 -0.121418595
-0.07522665 0.008144476 0.14379212 -0.07683469 0.027283909 0.01809321 0.043666642 -0.007926859
0.09305491 -0.039876908 -0.07916704 0.046701424 -0.14257483 -0.050356068 -0.116732314 -0.06259182
0.019746948 0.08409438 0.05626369 -0.11459947 -0.054731056 0.007072282 0.05558819 0.04615317
-0.10443519 -0.0297962 -0.09694223 0.104004964 0.030073488 -0.14736399 -0.015596626 -0.04941692
-0.035200715 0.06788466 0.030505266 -0.084008686 0.010920631 -0.09139843 0.09649526 0.047051333
0.06926568 0.030371249 -0.063585944 -0.021734528 0.11831092 0.03582603 0.060836453 0.006534261
0.09318254 -0.028130885 0.08902049 0.17905419 0.12777027 -0.028147765 0.07044905 0.026687704
-0.04189141 0.042019337 0.22502005 0.10759004 -0.028315468 0.086987056 -0.08896211 0.0076514618
0.18272668 -0.03774668 -0.05455578 0.034954205 0.034079444 0.02275569 -0.009589182 0.12684129
-0.08023372 0.004226251 -0.105868496 -0.008483677 0.0826272 0.06414547 -0.101869926 0.012832269
-0.043230858 0.078230135 0.08360875 -0.08784037 0.025865166 0.19699912 0.15240599 -0.032928355
-0.10265162 -0.053599346 0.04234953 0.1418342 0.24468954 0.02538412 -0.017724236 0.05503888
0.005875911 -0.13393763 0.08089856 0.094869114 -0.0019951547 0.15833236 -0.04485762 0.016620314
-0.12620193 -0.03299821 0.08196328 -0.030026315 0.18075074 0.11027218 -0.10234623 0.03583942
0.03681009 -0.07194818 0.016997928 -0.01844974 0.072034635 0.049572516 0.08067407 0.057868782
0.0061879433 0.104434155 0.00030101143 -0.030612115 0.046869412 -0.056340363 -0.07854079 0.113789365
0.08692278 0.034511354 0.021510601 -0.07799046 -0.054781 -0.093488924 -0.054349195 0.06351238
0.13690408 -0.117121324 0.012580622 0.08101822 -0.07872053 0.08352281 0.034204125 0.055456426
-0.017385544 0.08844861 0.025903879 0.034554463 -0.03279379 0.0950267 -0.010791802 0.1661875
0.03523219 -0.06591323 -0.07327368 0.105234325 -0.017256139 -0.08496783 -0.047354143 0.05202567
-0.07415098 0.07335767 -0.018224532 0.13629183 0.030353658 0.006664076 -0.05701752 0.010808409
-0.074371055 -0.06929909 -0.054795563 0.0229615 0.17221859 0.086417295 -0.049584508 -0.061459366
-0.020354193 0.036695164 0.053160746 0.10368593 0.02945549 -0.012033154 -0.034557693 0.10896526
0.07515213 -0.02789138 -0.10918316 0.1439068 -0.052937012 -0.083704144 -0.035538062 0.027841555
0.13788049 -0.06671136 0.016940579 -0.09442635 -0.012425013 0.117202245 0.039380033 -0.010384712
0.045351673 0.021221124 0.19187012 -0.064960174 0.15587051 0.03955476 0.01720886 0.13281602
-0.14074019 0.07699692 -0.09926469 0.12872988 0.09166831 0.079807885 -0.06571205 0.0023453215
-0.11008957 0.017463163 -0.06375061 0.1285189 0.0019373118 0.008129065 -0.063099585 -0.14630397
-0.05710059 0.07342549 -0.054493 0.024990033 0.14629695 0.14660639 -0.010484326 0.028445082
-0.13093868 -0.051372923 -0.026564488 0.10527555 -0.027236417 -0.11026607 0.02544257 -0.028014677
00000000: 99b6 853d 6540 42bd 33f5 06be 0c0e 6b3d
00000010: a1c5 ea3d 3f2c b23d 1829 05bd b430 133e
00000020: ca76 723c 4c74 a8bd ebe2 b83d 1988 8dbd
00000030: e01f 883c 656d e73c 718c cd3d 50aa f8bd
00000040: 6e10 9abd 6970 053c 3e3e 133e 825b 9dbd
00000050: 8182 df3c 3638 943c cbdb 323d a8df 01bc
00000060: 9393 be3d f855 23bd 5422 a2bd fe49 3f3d
00000070: 23ff 11be 2a42 4ebd 5a11 efbd 2430 80bd
00000080: 5ac4 a13c ad39 ac3d c174 663d 20b3 eabd
00000090: ac2d 60bd 9abe e73b 71b0 633d 1b0b 3d3d
000000a0: 1ee2 d5bd 2917 f4bc a689 c6bd 8e00 d53d
000000b0: ad5c f63c 96e6 16be fe88 7fbc 6569 4abd
000000c0: a02e 10bd 1d07 8b3d 2ee6 f93c bf0c acbd
000000d0: 72ec 323c 1a2f bbbd 4f9f c53d e6b8 403d
000000e0: 2adb 8d3d 20cd f83c 5939 82bd 9c0c b2bc
000000f0: ff4c f23d 51be 123d a52f 793d 5b1d d63b
00000100: 7dd6 be3d be72 e6bc 6050 b63d fb59 373e
00000110: 36d6 023e 2496 e6bc 9747 903d 2ca0 da3c
00000120: 5496 2bbd 781c 2c3d a86b 663e 2b58 dc3d
00000130: d7f5 e7bc 4526 b23d c431 b6bd 1db9 fa3b
00000140: b41c 3b3e 439c 1abd e275 5fbd 242c 0f3d
00000150: e396 0b3d 246a ba3c f21b 1dbc afe2 013e
00000160: 9451 a4bd 5d7c 8a3b 95d1 d8bd 1fff 0abc
00000170: 7338 a93d b35e 833d 2ea1 d0bd 703e 523c
00000180: d712 31bd 1f37 a03d 103b ab3d a7e5 b3bd
00000190: 2fe3 d33c 23ba 493e 5110 1c3e e2df 06bd
000001a0: 033b d2bd fd8a 5bbd b376 2d3d fc3c 113e
000001b0: e58f 7a3e 5cf2 cf3c 6b32 91bc 7370 613d
000001c0: b78a c03b f226 09be 25ae a53d bd4a c23d
000001d0: 24c1 02bb e121 223e a0bc 37bd 5327 883c
000001e0: 143b 01be 2229 07bd 5ddc a73d bff9 f5bc
000001f0: b916 393e 61d6 e13d e69a d1bd 5bcc 123d
00000200: 2dc6 163d 9159 93bd 3d3f 8b3c e923 97bc
00000210: e586 933d 8d0c 4b3d 7238 a53d d107 6d3d
00000220: 3bc4 ca3b 93e1 d53d 12d1 9d39 42c6 fabc
00000230: 24fa 3f3d 27c5 66bd fed9 a0bd 660a e93d
00000240: 9204 b23d c75b 0d3d 0037 b03c 76b9 9fbd
00000250: 0b62 60bd 1f77 bfbd 439d 5ebd c712 823d
00000260: 9530 0c3e 4edd efbd f41e 4e3c e1ec a53d
00000270: 3b38 a1bd 020e ab3d a019 0c3d 4726 633d
00000280: 216c 8ebc 8b24 b53d 5f34 d43c fb88 0d3d
00000290: c852 06bd 5c9d c23d 19d0 30bc 0e2d 2a3e
000002a0: a14f 103d 84fd 86bd 8310 96bd 1885 d73d
000002b0: bf5c 8dbc 9d03 aebd 6bf6 41bd de18 553d
000002c0: 78dc 97bd 8c3c 963d 9d4b 95bc 1690 0b3e
000002d0: 3ca8 f83c 525e da3b 348b 69bd c115 313c
000002e0: da4f 98bd aeec 8dbd 5071 60bd c119 bc3c
000002f0: 125a 303e 8dfb b03d 2019 4bbd d1bc 7bbd
00000300: d6bd a6bc ab4d 163d 15bf 593d 4a59 d43d
00000310: a44c f13c b526 45bc 5e8c 0dbd 2e29 df3d
00000320: 5ce9 993d 777c e4bc 6c9b dfbd 4e5c 133e
00000330: 7bd4 58bd 146d abbd 5c90 11bd f913 e43c
00000340: 8b30 0d3e f79f 88bd f8c6 8a3c 9a62 c1bd
00000350: 4892 4bbc bb07 f03d f54c 213d a424 2abc
00000360: adc2 393d ecd7 ad3c 9a79 443e d709 85bd
00000370: 859c 1f3e 2c04 223d 98f9 8c3c ec00 083e
00000380: 321e 10be 90b0 9d3d 494b cbbd c4d1 033e
00000390: 98bc bb3d 5172 a33d 0a94 86bd f7b3 193b
000003a0: a476 e1bd e80e 8f3c ae8f 82bd 759a 033e
000003b0: 66ed fd3a c52f 053c 5b3a 81bd b5d0 15be
000003c0: 4fe2 69bd 1a60 963d 0d34 5fbd e6b7 cc3c
000003d0: dece 153e fc1f 163e 73c6 2bbc a905 e93c
000003e0: ca14 06be 6a6c 52bd c59d d9bc b59a d73d
000003f0: e81e dfbc 2dd3 e1bd f06c d03c 097f e5bc

_transform._transforms.1.transform_net.blocks.1.linear_layers.0.bias f4 [64]
0.027602898 0.02127446 0.17328586 -0.06275 0.19853547 -0.05227044 -0.096283674 0.19542097
-0.09598083 0.162958 0.14448747 0.11155882 -0.021830013 -0.072453335 -0.052637585 0.089570604
-0.07592325 -0.0008697372 0.18025218 -0.015206314 0.06734566 -0.10947803 0.11396785 0.1067107
-0.055946216 0.16458954 -0.00902349 0.0610741 -0.018328026 0.13393699 -0.0003031935 -0.004399605
0.11601124 -0.054804437 0.029769378 0.12388977 0.042938206 0.078244425 0.15531087 -6.977613e-05
-0.06775019 -0.099714145 0.07173085 -0.07739002 0.003896947 -0.041735902 -0.082091704 0.13998951
0.042212598 -0.086853355 0.11369979 -0.013998691 -0.07046414 -0.005753187 0.010127603 0.07190384
0.09314424 0.035417523 0.020395126 -0.023283925 0.11785569 -0.057890147 0.08429863 0.21657817
00000000: 791f e23c c747 ae3c d971 313e 1283 80bd
00000010: e24c 4b3e 8719 56bd 6030 c5bd 6f1c 483e
00000020: 9991 c4bd 76de 263e 86f4 133e f378 e43d
00000030: dbd4 b2bc 6a62 94bd 829a 57bd cb70 b73d
00000040: a67d 9bbd 13ff 63ba 0794 383e e723 79bc
00000050: 85ec 893d 0436 e0bd fa67 e93d 248b da3d
00000060: dc27 65bd 298a 283e 43d7 13bc d628 7a3d
00000070: a824 96bc c726 093e f1f5 9eb9 902a 90bb
00000080: 4d97 ed3d 9e7a 60bd e9de f33c ebb9 fd3d
00000090: f9df 2f3d 9d3e a03d d009 1f3e c654 92b8
000000a0: 9dc0 8abd ee36 ccbd a0e7 923d a97e 9ebd
000000b0: ec63 7f3b 44f3 2abd b21f a8bd 6959 0f3e
000000c0: 1ee7 2c3d 2ce0 b1bd 6fdb e83d c45a 65bc
000000d0: 814f 90bd 3b85 bcbb 3fee 253c 5242 933d
000000e0: 68c2 be3d f711 113d ae13 a73c eebd bebc
000000f0: 535e f13d 381e 6dbd c3a4 ac3d abc6 5d3e
