canvi/arch/weights/iwbo,0.0001,10.pth (torch, 613149 bytes, 94 tensors)

_transform._transforms.1.transform_net.initial_layer.weight f4 [64, 33]
0	0xbd2c9e2a	-0.042143025
1	0x3de6a0fc	0.11261174
2	0x3e3623ca	0.1778709
3	0xbd97b81d	-0.07408164
4	0xbe391bde	-0.18077037
5	0xbe020e20	-0.12700701
6	0xbdc3e541	-0.09565211
7	0xbdf0f963	-0.11766317
8	0x3d7d3932	0.061822124
9	0x3d47b738	0.048758715
10	0x3cd52ff5	0.026023844
11	0x3e2cd753	0.16879015
12	0xbb61a826	-0.00344325
13	0xbd5565ff	-0.052099224
14	0x3e220441	0.15821935
15	0xbe045833	-0.1292427
16	0x3cea4733	0.028598404
17	0xbe1d0654	-0.15334445
18	0x3e198abd	0.1499433
19	0x3bb3d50a	0.0054880427
20	0xbca33257	-0.019921465
21	0xbdfdb1ef	-0.12387454
22	0x3d0cfdaf	0.03442162
23	0x3d72fb81	0.059321884
24	0x3d8056b1	0.06266535
25	0x3e3211f1	0.17389657
26	0xbdc71c7a	-0.09722228
27	0x3dda24a1	0.10651518
28	0x3dd28e83	0.10281088
29	0x3c778b7d	0.01510894
30	0xbe53f8dd	-0.20700403
31	0x3d46a4de	0.048497073
32	0xbd9deb89	-0.077109404
33	0xbdf94806	-0.121719405
34	0xbddd661d	-0.10810492
35	0x3cd29224	0.02570445
36	0xbd8196a6	-0.06327562
37	0x3db3783a	0.08763166
38	0xbdd69ed3	-0.10479512
39	0xbca54475	-0.020174244
40	0xbde4bf58	-0.111693084
41	0xbbc29992	-0.005938717
42	0xbda17857	-0.07884281
43	0xbd6c0d9e	-0.057630174
44	0x3d948893	0.07252612
45	0xba4fa880	-0.0007921532
46	0xbd4e5655	-0.0503753
47	0x3dc65c31	0.09685553
48	0x3e0c868d	0.13723202
49	0x3e318af1	0.17338158
50	0xbd7a40a7	-0.061096814
51	0x3e248124	0.16064888
52	0xbd28ede0	-0.04124248
53	0x3d863b23	0.06554248
54	0xbe1b8fc9	-0.15191568
55	0x3da20383	0.07910826
56	0x3e0822d0	0.1329453
57	0x3db3a1f7	0.08771127
58	0xbdfb8d35	-0.122827925
59	0xbd47a060	-0.04873693
60	0xbd3d7fde	-0.04626452
61	0xbc9ecdfe	-0.019385334
62	0x3da69e4c	0.081356615
63	0xbbad8e25	-0.005296486
64	0xbe3a3aa9	-0.1818644
65	0x3d66189b	0.05617581
66	0x3e1568ae	0.14590713
67	0x3c8b234c	0.016984604
68	0x3de6d18c	0.11270437
69	0x3dddd5ef	0.1083182
70	0x3e02fda8	0.12792075
71	0x3dcd8692	0.10035433
72	0x3e066463	0.13124232
73	0xbd835ae9	-0.06413824
74	0xbde84366	-0.1134098
75	0x3c3bf2af	0.0114714345
76	0xbdfc7854	-0.12327638
77	0xbe1aafb3	-0.15106086
78	0x3e1cfa21	0.15329792
79	0x3e341463	0.17585902
80	0x3e103542	0.14082816
81	0x3e17949d	0.14802785
82	0x3d7a28f8	0.061074227
83	0xbd548f91	-0.051894728
84	0xbe208f83	-0.15679745
85	0xbe1210b8	-0.1426419
86	0x3d2d26d5	0.04227336
87	0x3da8b977	0.082384996
88	0xbe387bee	-0.18016025
89	0x3ca38f26	0.01996572
90	0x3da55e27	0.08074599
91	0x3da309d6	0.079608604
92	0x3db36770	0.087599635
93	0x3dfc7be8	0.12328321
94	0x3db72350	0.08942282
95	0xbe10d2d8	-0.1414293
96	0x3d6db2e5	0.058031935
97	0x3d62efbc	0.05540441
98	0x3e360244	0.17774302
99	0xbcd27b15	-0.025693456
100	0xbe30ca71	-0.17264725
101	0xbe1767c9	-0.14785685
102	0xbd1238f5	-0.03569885
103	0xbdc579ae	-0.09642349
104	0xbc0e2c5f	-0.008677571
105	0x3d92d362	0.07169224
106	0xbd15ed18	-0.036603063
107	0xbae6e75a	-0.0017616556
108	0xbe22ca30	-0.15897441
109	0x3c93d4ee	0.018045869
110	0x3e3d4695	0.18483956
111	0xbd2a6fb3	-0.04161043
112	0x3e05c301	0.1306267
113	0xbde81e9d	-0.11333964
114	0x3da06ce1	0.07833267
115	0xbd2aed80	-0.041730404
116	0x3de15ba9	0.11003811
117	0x3d03858e	0.03210979
118	0xbe2776e0	-0.16353941
119	0xbdf702ca	-0.12061079
120	0x3d8f59ac	0.069995254
121	0xbe0241aa	-0.12720361
122	0xbdb531d1	-0.08847392
123	0xbbf09c9e	-0.007342889
124	0xbb9ab94a	-0.004721795
125	0x3e1d4e28	0.15361845
126	0xbe19264e	-0.14956018
127	0x3d67931e	0.056536786
128	0x3d817b12	0.06322302
129	0xbdad7d39	-0.0847115
130	0xbe3842cd	-0.17994232
131	0x3df8835c	0.1213443
132	0xbe242d1e	-0.16032836
133	0x3dc8a2f8	0.09796709
134	0xbd9bff52	-0.07617058
135	0x3c66d7c0	0.014089525
136	0xbdc3e1b3	-0.09564533
137	0x3dbdc116	0.09265344
138	0xbe4397f6	-0.19100937
139	0xbd40a480	-0.04703188
140	0xba84b3e9	-0.0010124418
141	0x3e00f46d	0.12593241
142	0xbdce1d1a	-0.100641444
143	0xbdbd73be	-0.09250592
144	0x3e0fe4a2	0.1405206
145	0x3dc4769f	0.09592938
146	0xbe1a5495	-0.15071328
147	0xbe0eac91	-0.13933016
148	0xbda98ebe	-0.08279179
149	0xbe0ecb50	-0.13944745
150	0xbe06758b	-0.13130777
151	0x3e044198	0.12915647
152	0xbdf6b347	-0.12045913
153	0x3caed7c1	0.021343114
154	0xbe138769	-0.14407124
155	0x3d42e2c6	0.04757955
156	0xbd2377f2	-0.03990931
157	0xbc998c5a	-0.018743683
158	0x3c0db857	0.008649907
159	0x3e0b2b17	0.13590656
160	0xbd798453	-0.06091721
161	0xbd3bf972	-0.045892186
162	0xbe245f24	-0.16051918
163	0x3ddfe5ba	0.10932489
164	0xbd88e94b	-0.06685122
165	0x3d7214d1	0.059101883
166	0xbd1f3251	-0.038866345
167	0x3e3b6178	0.182989
168	0xbe30c520	-0.17262697
169	0x3e2afd87	0.16698276
170	0x3e0d8560	0.1382041
171	0xbe1655d2	-0.14681175
172	0x3da1910e	0.07888995
173	0xbd39c631	-0.045355026
174	0x3dd2f28c	0.103001684
175	0xbcd124b9	-0.025530206
176	0xbdbfdb8a	-0.09368046
177	0xbd230efd	-0.039809216
178	0x3e0c3c97	0.13694988
179	0xbe525f70	-0.20544219
180	0xbe1095ec	-0.1411969
181	0xbd586c1f	-0.052837487
182	0xbdcc8e10	-0.09988034
183	0x3dca9ec9	0.09893567
184	0x3d475c3e	0.048671953
185	0x3e4b0f27	0.19829999
186	0x3e2e2bd2	0.17008904
187	0xbde74594	-0.11292568
188	0x3dfa0dfc	0.122096986
189	0x3d83eb71	0.06441391
190	0xbcee9e5e	-0.02912825
191	0x3e56fc29	0.20994629
192	0xbe09272b	-0.13393848
193	0x3d6638fc	0.05620669
194	0x3dc39fed	0.09551988
195	0x3df2b8ab	0.11851629
196	0x3e14ddc4	0.14537722
197	0x3c8dddd6	0.017317694
198	0x3d860e0e	0.065456495
199	0xbd49d500	-0.0492754
200	0x3da8ed44	0.0824838
201	0xbce395bd	-0.027781362
202	0xbccf3470	-0.025293559
203	0xbe08fdec	-0.13378114
204	0xbd10b4ab	-0.03532855
205	0xbdd4eb9e	-0.10396503
206	0xbe1c4526	-0.15260753
207	0x3de74316	0.112920925
208	0xbd8763bf	-0.06610822
209	0xba43e40f	-0.0007472643
210	0xbc183597	-0.009290121
211	0xbd98588c	-0.07438764
212	0x3de2f1f8	0.11081308
213	0xbd7814c8	-0.060566694
214	0xbdbf80f7	-0.0935077
215	0x3e41fc32	0.18943861
216	0xbe01ba7a	-0.12668791
217	0x3e1aa61c	0.15102428
218	0xbe2acc12	-0.16679409
219	0xbd9bb5a6	-0.07603006
220	0xbd2211c8	-0.03956774
221	0xbe4cf11a	-0.20013848
222	0xbd846076	-0.06463711
223	0xbdc7c7e3	-0.09754922
224	0x3ddd881b	0.10816976
225	0x3d41bcd2	0.047299214
226	0x3da1a21a	0.078922465
227	0x3d8063a6	0.062690064
228	0x3e1724bc	0.14760107
229	0x3d0eb583	0.03484107
230	0x3d724b49	0.05915383
231	0xbda99fa7	-0.082824044
232	0x3db5d6dc	0.08878872
233	0xbdf7c8ac	-0.12098822
234	0xbdf9d48d	-0.12198744
235	0xbdcc27c8	-0.09968525
236	0x3e02e935	0.12784274
237	0x3e1a66c8	0.1507827
238	0x3dd82469	0.1055382
239	0xbe3486cf	-0.1762955
240	0x3e2b1007	0.16705333
241	0xbdd579eb	-0.10423645
242	0x3e3e6b88	0.18595707
243	0xbce93a78	-0.028470263
244	0x3d0a290d	0.033730555
245	0xbe2d17a1	-0.16903545
246	0xbcd2c39f	-0.025728045
247	0xbe3cb214	-0.18427306
248	0x3c1820f7	0.009285203
249	0xbe21c8a8	-0.157992
250	0x3d0f9a41	0.035059217
251	0xbde505cf	-0.111827485
252	0x3e080eb9	0.13286866
253	0xbe1a81cb	-0.15088575
254	0x3d9642c0	0.0733695
255	0xbd6ae743	-0.057349455

_transform._transforms.1.transform_net.initial_layer.bias f4 [64]
0	0x3e49ffe4	0.19726521
1	0xbde81d2f	-0.11333691
2	0xbe274e81	-0.1633854
3	0x3dfba3b0	0.1228708
4	0xbc518bb0	-0.012789652
5	0x3dc7b2b0	0.09750879
6	0xbbb4ea3b	-0.0055210865
7	0xbd2d1d37	-0.04226419
8	0xbe3dfaee	-0.18552753
9	0xbda9f401	-0.08298493
10	0x3db93c41	0.09044696
11	0x3da5136f	0.08060347
12	0x3e255b01	0.16147996
13	0xbde67b41	-0.112539776
14	0xbe17614b	-0.14783208
15	0x3cc2292a	0.02370127
16	0x3e3ec0bc	0.1862821
17	0x3e101a4e	0.14072534
18	0x3df14bef	0.11782061
19	0xbdcbb077	-0.099457674
20	0xbd48c60f	-0.04901701
21	0x3c98265f	0.018572984
22	0x3d305f0b	0.04305939
23	0x3d090f33	0.03346176
24	0x3c524183	0.012833002
25	0xbbed8eac	-0.007249674
26	0xbe1d62dd	-0.15369745
27	0xbc933a37	-0.017972095
28	0x3cffb486	0.03121401
29	0xbd8e81b6	-0.06958334
30	0xbd8750be	-0.06607197
31	0xbdc7e8a5	-0.0976117
32	0xbcd6c25d	-0.026215727
33	0x3d73cc9b	0.0595213
34	0xbd8c3af0	-0.06847179
35	0xbe3a29ed	-0.18180056
36	0x3dd0e534	0.10199967
37	0x3e036ec5	0.12835224
38	0x3bf5d7cb	0.007502531
39	0x3cbdae2a	0.023154337
40	0xbe64f312	-0.22358349
41	0xbe06304e	-0.13104364
42	0xbc894199	-0.016754912
43	0x3e13743b	0.14399807
44	0x3e355350	0.17707562
45	0x3cc8e4c2	0.024523143
46	0xbd7b1430	-0.06129855
47	0xbe075b8f	-0.1321852
48	0x3dcdc798	0.10047835
49	0x3db4a133	0.08819809
50	0x3cc0842b	0.023500523
51	0x3e115b47	0.14194976
52	0xbd16cacb	-0.036814492
53	0x3da3cc86	0.07997994
54	0x3e22342c	0.15840214
55	0x3d03fac0	0.032221556
56	0x3c2c060d	0.0104994895
57	0xbdddef19	-0.1083662
58	0xbddaebc5	-0.10689501
59	0x3b67de4c	0.0035380302
60	0xbdd5dd38	-0.10442585
61	0x3e43cedc	0.1912188
62	0xbe30f08b	-0.1727926
63	0x3d961d64	0.073298246

_transform._transforms.1.transform_net.blocks.0.context_layer.weight f4 [64, 32]
0	0x3db0f0e1	0.08639694
1	0x3df61752	0.12016167
2	0xbe00dfe0	-0.12585402
3	0x3bacd691	0.0052746017
4	0xbe009ae7	-0.1255909
5	0xbcc8e69d	-0.024524027
6	0xbe166222	-0.14685872
7	0x3e06ca12	0.13163021
8	0xbcd4e300	-0.025987148
9	0x3c2ec787	0.010667688
10	0xbddf4513	-0.10901847
11	0xbe43e79a	-0.19131318
12	0x3be4b226	0.0069792448
13	0xbcee313b	-0.02907621
14	0x3e24fe8e	0.1611273
15	0xbc6c861b	-0.01443627
16	0x3cdd5ba6	0.02702124
17	0xbdecd076	-0.11563198
18	0xbe060cdb	-0.13090841
19	0x3e153048	0.14569199
20	0x3db25e3f	0.08709382
21	0x3d9afc1e	0.07567619
22	0xbd65f676	-0.056143247
23	0xbd46dbaf	-0.04854935
24	0x3c94f51f	0.01818329
25	0x3e1ba21f	0.15198563
26	0xbcb9bd58	-0.022673294
27	0xbe4e081b	-0.2012028
28	0x3dbed6ef	0.09318339
29	0xbe3710a6	-0.17877445
30	0x3d8c7b31	0.068594344
31	0x3e47aed2	0.19500282
32	0x3e0d1f0b	0.13781373
33	0xbd8a9d94	-0.06768337
34	0x3e0d4db0	0.13799167
35	0xbd99de0c	-0.07513055
36	0x3e0b9d8a	0.13634315
37	0xbdf2a44d	-0.11847744
38	0xbd33a699	-0.04386005
39	0xbe087269	-0.13324894
40	0x3e2d8de4	0.16948658
41	0xbdfb1efc	-0.12261769
42	0xbd19d790	-0.037559092
43	0x3d9689f6	0.07350533
44	0xbe1efc4e	-0.15525934
45	0xbdcd70b8	-0.10031265
46	0x3e08eaec	0.13370866
47	0x3e1e9736	0.1548737
48	0x3dc762bc	0.09735629
49	0xbe0f6ec0	-0.14007092
50	0x3df0688b	0.1173869
51	0xbe4acf6c	-0.19805688
52	0xbd0e0424	-0.034671918
53	0x3c29eca3	0.01037136
54	0xbd875d07	-0.066095404
55	0x3e20b3bc	0.15693563
56	0x3d39e475	0.04538389
57	0xbe0a502e	-0.13507149
58	0x3dab2494	0.08356586
59	0xbc9b5905	-0.018963346
60	0x3d837578	0.0641889
61	0x3d16e678	0.036840886
62	0xbe365cc7	-0.17808829
63	0x3e1002fc	0.14063638
64	0xbe0178c1	-0.1264372
65	0x3d5bacbd	0.053631533
66	0xbd783af3	-0.060603093
67	0x3d21c67c	0.03949593
68	0x3e2cf870	0.16891646
69	0x3d90438d	0.07044134
70	0xbdbb632b	-0.09149774
71	0x3d46a0c4	0.04849316
72	0xbd0de18f	-0.034638938
73	0x3d34ed4c	0.044171616
74	0x3e483e1b	0.19554941
75	0x3d8612ce	0.065465555
76	0x3ddc459c	0.107554644
77	0xbd851d21	-0.064996965
78	0x3e104aff	0.14091109
79	0x3e15580b	0.14584367
80	0x3d9ed6b7	0.07755797
81	0xbd1e8150	-0.03869754
82	0x3e37c825	0.17947443
83	0x3c1aa2c4	0.00943822
84	0x3e225e63	0.15856318
85	0xbe102ec2	-0.14080337
86	0x3da4fe0d	0.08056269
87	0xbc912209	-0.017716425
88	0xbe064e0f	-0.13115714
89	0x3d5a7e71	0.05334324
90	0x3d558ee0	0.05213821
91	0xbe38569d	-0.1800179
92	0xbe3c0fc9	-0.18365397
93	0xbe4ed0df	-0.20196865
94	0xbd90f63a	-0.07078214
95	0x3e2c8ed8	0.16851366
96	0xbd438c58	-0.047741264
97	0x3dbc8caa	0.09206517
98	0xbe2c32d8	-0.1681627
99	0x3e4ffa85	0.2031041
100	0x3cb0f3b7	0.021600587
101	0x3d8c8fb5	0.068633474
102	0x3d96c036	0.0736088
103	0xbdd0861a	-0.10181828
104	0xbd33fdd2	-0.043943234
105	0xbd949a56	-0.07256
106	0xbdac4ad1	-0.084127076
107	0xbd61dc36	-0.05514165
108	0x3e29ad7d	0.16570087
109	0xbddd98b8	-0.108201444
110	0xbe0cafb0	-0.13738894
111	0x3c9f4219	0.019440698
112	0xbd222fd1	-0.039596383
113	0xbe08e3ac	-0.133681
114	0x3dd33447	0.103127055
115	0x3e348f7e	0.17632863
116	0x39aadede	0.00032590976
117	0xbbef085e	-0.0072946986
118	0xbdf5b4f0	-0.11997402
119	0xbc993c61	-0.018705549
120	0x3e368879	0.17825498
121	0xbdaa89be	-0.083270535
122	0xbdc738a4	-0.097276
123	0xbe1d34f2	-0.15352228
124	0x3d97c780	0.074110985
125	0x3ce904bb	0.028444638
126	0x3df17618	0.11790103
127	0x3e03a898	0.12857282
128	0x3e2cbaf1	0.16868187
129	0xbd6d56fd	-0.057944287
130	0xbdc3a186	-0.095522925
131	0x3d93928b	0.07205685
132	0xbe37884e	-0.1792309
133	0xbdca0dfd	-0.09865949
134	0x3bf89930	0.0075866207
135	0x3d99bfe5	0.07507304
136	0x3e01d87e	0.12680241
137	0xbdd8c80d	-0.10585032
138	0xbe0fd3c7	-0.1404563
139	0xbe272db3	-0.16326027
140	0x3e2c8397	0.16847073
141	0x3d742e9a	0.059614755
142	0xbd43d101	-0.047806744
143	0x3e0f366e	0.13985607
144	0x3d9df836	0.07713358
145	0xbd70fbde	-0.05883395
146	0x3c3d36b3	0.011548686
147	0x3d8d4b4d	0.06899128
148	0xbc8a8c20	-0.01691252
149	0xbc27112c	-0.010196965
150	0x3d8642e6	0.065557286
151	0x3e1c2635	0.1524895
152	0xbddd98c0	-0.108201504
153	0xbe292294	-0.16517097
154	0xbe3641cf	-0.17798541
155	0x3dfb9202	0.12283708
156	0xbd8db94c	-0.06920108
157	0x3e06ba80	0.13157082
158	0x3ca0472a	0.019565184
159	0xbd083e21	-0.033262376
160	0xbdf3ccca	-0.11904295
161	0x3e2556cd	0.16146393
162	0xbd6b841e	-0.057499044
163	0xbced6ea6	-0.028983425
164	0x3d4e1f3e	0.050322764
165	0xbe1d1ea5	-0.15343721
166	0x3e1b2626	0.15151271
167	0xbd0fecfa	-0.035138108
168	0xbe286f45	-0.16448696
169	0x3d244381	0.04010344
170	0x3caf35f7	0.021388037
171	0x3e2a02f2	0.16602686
172	0x3c8a7317	0.016900582
173	0xbddc85ca	-0.10767706
174	0xbe28863b	-0.16457455
175	0x3c7d81c9	0.015472838
176	0xbc66dfba	-0.0140914265
177	0xbaeb0310	-0.001792999
178	0x3e0d416c	0.13794488
179	0x3e3417b4	0.17587167
180	0x3d51fb27	0.05126491
181	0x3e15d4ad	0.1463191
182	0x3dabd5f0	0.08390415
183	0xbca36730	-0.019946665
184	0xbd9fdea5	-0.07806138
185	0xbdf7dbdc	-0.12102482
186	0xbbb34ca0	-0.005471781
187	0x3dd32464	0.10309675
188	0xbd585a2d	-0.052820373
189	0xbe290d1b	-0.16508906
190	0xbe1279db	-0.14304297
191	0x3dffddfc	0.12493512
192	0xbd278f81	-0.04090834
193	0xbde67369	-0.112524815
194	0x37f2a870	2.8927083e-05
195	0xbcca199d	-0.024670416
196	0xbce64499	-0.028108882
197	0xba9202d6	-0.0011139761
198	0xbda56bc7	-0.080771975
199	0xbc818900	-0.015812397
200	0x3ba3a133	0.0049935817
201	0xbce6f2cb	-0.028191945
202	0xbda4d521	-0.080484636
203	0x3dd4c9e3	0.10390069
204	0x3e59ddf2	0.21276072
205	0x3d27c901	0.040963177
206	0x3e36b29f	0.17841576
207	0x3e0ade34	0.13561326
208	0xbe3d3131	-0.18475796
209	0x3e1c019d	0.1523499
210	0xbd67c6b1	-0.05658597
211	0x3d494cf7	0.049145665
212	0xbd986e61	-0.07442928
213	0xbc8bde5d	-0.017073805
214	0x3e5274c1	0.2055235
215	0x3c94e1be	0.018174049
216	0x3d4ad548	0.049519807
217	0x3e53b654	0.20675021
218	0x3d76282e	0.060096912
219	0xbe0557b2	-0.13021734
220	0x3c374d84	0.011187915
221	0xbe33c651	-0.1755612
222	0xbe5f18cc	-0.21786803
223	0x3e491711	0.19637705
224	0xbe3a0622	-0.18166402
225	0xbdb5836e	-0.08862959
226	0xbe0ae3b0	-0.13563418
227	0xbd80f941	-0.062975414
228	0xbdca9b9e	-0.09892963
229	0xbd14010b	-0.036133807
230	0x3d7f25c4	0.062291875
231	0x3de088f4	0.10963622
232	0xbda89d29	-0.08233101
233	0xbd99280e	-0.07478343
234	0xbc41a5d6	-0.0118193235
235	0x3c38029d	0.011231092
236	0xbd39cd5e	-0.04536187
237	0x3e064faa	0.13116327
238	0x3df440e1	0.11926437
239	0xbd4fcf56	-0.05073484
240	0x3b721ff3	0.0036945313
241	0x3d7cf767	0.06175938
242	0x3e137689	0.14400686
243	0xbd1463af	-0.03622788
244	0x3e1e1a17	0.1543964
245	0x3d564232	0.052309223
246	0xbd978f5c	-0.074003905
247	0xbe28907e	-0.1646137
248	0x3c806910	0.015675098
249	0x3d01d029	0.031692658
250	0xbd0ad0c9	-0.03389052
251	0xbe188a81	-0.14896585
252	0x3de6d7cd	0.112716295
253	0x3db076ba	0.08616395
254	0xbbc4b684	-0.006003203
255	0xbe19170d	-0.149502

_transform._transforms.1.transform_net.blocks.0.context_layer.bias f4 [64]
0	0xbdaf36ff	-0.085554115
1	0x3e005f9a	0.12536469
2	0xbc507ffb	-0.012725825
3	0xbdd952ba	-0.10611482
4	0x3dbcce2f	0.09219014
5	0x3dde8e50	0.10866988
6	0xbde1859d	-0.11011813
7	0x3e279c53	0.16368227
8	0x3cc2669f	0.023730574
9	0xbd931ed7	-0.071836166
10	0x3dc31322	0.09525134
11	0xbaaa3fc4	-0.0012988974
12	0x3e816c64	0.25278008
13	0xbd7a70eb	-0.061142843
14	0x3e3c25cf	0.18373798
15	0x3e2003ea	0.15626493
16	0x3e16d52c	0.14729756
17	0x3e0621ec	0.13098878
18	0x3df15bbe	0.117850766
19	0x3db8f1f1	0.09030522
20	0x3e413bdb	0.1887049
21	0x3e46cee9	0.19414867
22	0x3dd9bc0e	0.10631572
23	0x3e3ffd01	0.18748857
24	0xbd8da9e5	-0.069171704
25	0x3e448bbd	0.19193931
26	0xbd9ebcab	-0.07750829
27	0x3c3b4e26	0.011432206
28	0x3e8564c8	0.26053452
29	0xbe09badb	-0.13450186
30	0x3e538ba0	0.20658731
31	0xbc27c67d	-0.010240194
32	0x3dde29fd	0.108478524
33	0xbd86ed40	-0.065882206
34	0xbd83ef74	-0.064421564
35	0x3ba983a1	0.005173162
36	0x3d97aad9	0.074056335
37	0x3e62e308	0.22156918
38	0x3d5cadb6	0.0538766
39	0x3e21737c	0.1576671
40	0x3e0bb1b5	0.13642009
41	0xbd21f4e9	-0.039540205
42	0xbd8e5153	-0.06949105
43	0xbcd22e45	-0.025656829
44	0x3a7ee446	0.00097233464
45	0x3dcfba07	0.10142904
46	0x3dc55bdc	0.096366614
47	0xbda44d76	-0.08022587
48	0xbc1b5699	-0.009481096
49	0xbd8b1a3c	-0.06792113
50	0x3d9f3140	0.077730656
51	0x3e2426f9	0.16030492
52	0xbd156e2d	-0.036482025
53	0xbbff6f07	-0.007795218
54	0x3e512bd3	0.20426874
55	0x3d052b72	0.032512136
56	0xbe287aee	-0.16453144
57	0x3c02ab35	0.007975389
58	0xbe10ede2	-0.14153245
59	0xbd92ecb9	-0.071740575
60	0xbd6136b1	-0.0549838
61	0x3e21b666	0.15792236
62	0xbb5c96ad	-0.0033659146
63	0xbdbc8708	-0.09205443

_transform._transforms.1.transform_net.blocks.0.linear_layers.0.weight f4 [64, 64]
0	0x3c8d7f91	0.017272742
1	0x3d7897ba	0.060691573
2	0xbd8ccb33	-0.06874695
3	0xbda38305	-0.07983974
4	0x3d6f6c29	0.05845276
5	0x3d304e2b	0.043043297
6	0x3dd25555	0.10270182
7	0xbd1b6fe1	-0.037948493
8	0x3d31e2e9	0.04342929
9	0xbd81f62c	-0.06345782
10	0x3d864612	0.065563336
11	0xbcf3b734	-0.029750444
12	0xbdb989df	-0.090595
13	0x3e04187e	0.12899968
14	0x3b743423	0.0037262521
15	0xbd815893	-0.06315722
16	0x3c96ed15	0.018423596
17	0x3d0aaebc	0.033858046
18	0xbe198935	-0.14993747
19	0x3d982585	0.07429031
20	0x3d94c01c	0.072632045
21	0x3e09f1f4	0.13471204
22	0xbd31ceb2	-0.04341001
23	0x3e0b716a	0.13617483
24	0x3e2097a9	0.15682854
25	0x3d85d417	0.065345936
26	0x3d4d7f07	0.05016997
27	0x3daae596	0.08344571
28	0x3e2acd5b	0.166799
29	0xbc2fcf46	-0.01073057
30	0xbda0dec7	-0.078549914
31	0xbd4dd6e9	-0.050253782
32	0x3e31d2d6	0.17365584
33	0x3e27d0cc	0.16388243
34	0x3d680fcb	0.056655686
35	0x3d913580	0.070902824
36	0x3d14b415	0.036304552
37	0xbda67492	-0.08127703
38	0xbdfa4d31	-0.12221754
39	0xbce17d80	-0.027525663
40	0xbd115b3d	-0.035487402
41	0xbd7e0a5d	-0.062021602
42	0xbdd163a8	-0.10224086
43	0xbd85bee7	-0.06530552
44	0xbdbbb189	-0.091647215
45	0xbd45f1b4	-0.04832621
46	0x3e06f4a1	0.13179256
47	0x3d4c4ccb	0.049877923
48	0x3d80827b	0.06274887
49	0x3dc1cdcd	0.094630815
50	0x3c88c965	0.016697595
51	0x3d9b01e4	0.0756872
52	0x3e2f4628	0.17116606
53	0x3e06a0ca	0.13147274
54	0x3d163147	0.03666809
55	0x3d11fe68	0.03564301
56	0xbd3a7170	-0.04551834
57	0x3dbf346b	0.0933617
58	0xbd91664c	-0.0709959
59	0x3d8508bf	0.06495809
60	0xbd73053d	-0.059331167
61	0xbe6efd0e	-0.2333872
62	0x3d144c35	0.03620549
63	0x3d83324a	0.06406076
64	0x3cf4c7a1	0.029880347
65	0x3d08d62d	0.03340738
66	0x3c4bd8ea	0.012441853
67	0xbb9fd99f	-0.0048782374
68	0xbe16edd0	-0.14739156
69	0x3d926b81	0.07149411
70	0x3d176c70	0.03696865
71	0xbd1c2133	-0.0381176
72	0x3d8ab88f	0.06773483
73	0x3dbc635d	0.091986395
74	0xbd8b1936	-0.06791918
75	0x3dacd8a8	0.084397614
76	0x3df89598	0.12137908
77	0x3d1fe921	0.03904069
78	0x3db96fec	0.090545505
79	0x3dd4d19d	0.10391543
80	0xbe44b75e	-0.19210574
81	0x3ddec216	0.10876863
82	0x3cb393c4	0.021921046
83	0x3dfc7ed1	0.12328876
84	0xbde6a2d6	-0.11261527
85	0x3d9856f3	0.07438459
86	0x3d4b9fc9	0.04971293
87	0xbc71dbc5	-0.01476187
88	0x3e3ec8c4	0.18631274
89	0xbd353124	-0.044236317
90	0x3e0a57aa	0.13510004
91	0x3d40f455	0.047108013
92	0x3d953ea0	0.072873354
93	0xbe348505	-0.17628868
94	0x3e02e204	0.1278153
95	0x3d89e4dd	0.06733105
96	0x3e03a40e	0.1285555
97	0x3e04b754	0.12960559
98	0xbde839a4	-0.11339119
99	0x3d906167	0.07049828
100	0x3d946675	0.07246105
101	0xbc92c969	-0.017918305
102	0xbd41a887	-0.04727986
103	0xbd4c045c	-0.049808845
104	0xbda9d493	-0.082924984
105	0xbd92d63f	-0.071697704
106	0xbd61a357	-0.055087414
107	0x3c9a6489	0.018846767
108	0x3c9402a9	0.018067675
109	0xbd6cda33	-0.05782528
110	0xbd6bbd76	-0.05755373
111	0xbcc418e2	-0.023937646
112	0x3e0ad1d0	0.135566
113	0xbe0cdafb	-0.1375541
114	0xbdda8d1d	-0.106714465
115	0x3d2defb5	0.04246493
116	0x3e0f69df	0.1400523
117	0xbd2a0e19	-0.04151735
118	0xbe1942c1	-0.14966871
119	0x3d42f909	0.04760078
120	0xbcf712ed	-0.030160392
121	0xbd1ecb8d	-0.03876834
122	0xbe0ff6e4	-0.14059025
123	0x3dbf2e42	0.09334995
124	0xbbd2d633	-0.006434226
125	0xbdf73ee6	-0.12072544
126	0x3a0f9a56	0.0005478015
127	0xbd341d52	-0.043973275
128	0x3ccfa590	0.025347501
129	0xbd9c6758	-0.07636899
130	0xbc040fd3	-0.008060413
131	0xbd68d4a2	-0.056843407
132	0x3d1bc213	0.03802688
133	0x3d351f93	0.044219565
134	0x3c743ecd	0.014907551
135	0x3d836939	0.06416554
136	0xbb31f0ce	-0.0027151587
137	0xbd66ecdd	-0.056378234
138	0xbdabd526	-0.08390264
139	0xbdaa6e47	-0.08321815
140	0xbdb9e8ed	-0.0907763
141	0xbd60a900	-0.05484867
142	0xbdec32e6	-0.115331456
143	0x3db2f019	0.08737201
144	0x3cfa5986	0.030560266
145	0x3bfd6b99	0.007733774
146	0xbde9d790	-0.114180684
147	0xbc3e0f1c	-0.011600282
148	0xbdf11873	-0.117722414
149	0xbc48afb3	-0.012248921
150	0x3dcdee3f	0.100552075
151	0x3d3b4e4c	0.045728967
152	0xbd03084b	-0.03199033
153	0xbde043ef	-0.10950457
154	0x3df0c2aa	0.11755879
155	0x3dd45b5d	0.10368989
156	0x3cc4fc97	0.024046225
157	0xbd92bf6a	-0.071654156
158	0x3da92055	0.0825812
159	0xbccb1245	-0.024788985
160	0x3d4677e1	0.04845417
161	0x3dba40e9	0.09094412
162	0x3d2e0893	0.042488646
163	0x3d382abc	0.04496263
164	0x3d2fe0db	0.04293905
165	0xbdfed6cb	-0.12443312
166	0x3d80df3c	0.062925786
167	0xbd922d17	-0.071375065
168	0xbd9c0f4d	-0.07620106
169	0x3d256cc0	0.040386915
170	0x3d53ba3d	0.051691283
171	0x3bae1e64	0.0053136814
172	0xbd5caa2a	-0.05387322
173	0xbd66beac	-0.056334183
174	0x3de96d6d	0.113978244
175	0xbdfd4bea	-0.12367995
176	0xbcf3a938	-0.029743776
177	0xbce2dea0	-0.027694046
178	0xbd50c21a	-0.05096636
179	0xbd820881	-0.06349278
180	0x3e36a3b7	0.1783589
181	0xbb9d5432	-0.0048012966
182	0xbd65889e	-0.05603849
183	0x3dd443c1	0.103644855
184	0x3c915013	0.017738378
185	0x3d4048e5	0.046944518
186	0xbddff6dd	-0.10935757
187	0x3d8a2070	0.06744468
188	0xbca026ae	-0.019549694
189	0x3c93c5af	0.018038599
190	0xbcd2ad6d	-0.025717461
191	0xbdd00eee	-0.101590976
192	0xbdb06184	-0.0861235
193	0x3da4ec3a	0.08052869
194	0xbbfc10b7	-0.0076924223
195	0x3da3efdc	0.08004734
196	0x3bb5ffe7	0.0055541876
197	0x3ddb7acb	0.1071678
198	0x3e0447d3	0.12918024
199	0xbd2fe2b0	-0.042940795
200	0xbde46b93	-0.11153331
201	0x3e046780	0.12930107
202	0xbda40695	-0.08009068
203	0xbbd3ee22	-0.0064675966
204	0xbd0c3e9b	-0.034239393
205	0x3dd5eec0	0.104459286
206	0xbdcc36ec	-0.09971413
207	0x3dc148bb	0.094377
208	0x3de69e6c	0.11260685
209	0xbd9f0b78	-0.07765859
210	0x3dbaa9e8	0.09114438
211	0xbb07a1ea	-0.0020695874
212	0x3dcae963	0.09907796
213	0x3df8ebbc	0.12154338
214	0x3d31fa16	0.04345139
215	0x3d46ff69	0.04858342
216	0xbd97ebb8	-0.07418007
217	0xbdb567a6	-0.0885766
218	0x3db5d9f3	0.08879461
219	0xbd6b9f8f	-0.057525214
220	0xbd0b665e	-0.03403317
221	0xbd4e7385	-0.050403137
222	0x3dd96e21	0.106167085
223	0x3dcd89f7	0.1003608
224	0x3d70c415	0.05878075
225	0x3af5e659	0.0018760666
226	0x3d549ade	0.051905505
227	0x3ceaefb8	0.02867876
228	0xbd772fd3	-0.060348343
229	0xbdd4e192	-0.103945866
230	0xbdafd5b6	-0.08585684
231	0xbc95b79d	-0.01827603
232	0x3d28c650	0.04120475
233	0xbdb8b581	-0.09018994
234	0xbce0b231	-0.027428718
235	0xbd20b6d4	-0.03923686
236	0xbdc0c9a6	-0.094134614
237	0x3da69de3	0.08135583
238	0xbce03807	-0.027370466
239	0xbdccf98d	-0.100085355
240	0xbdb75127	-0.089510255
241	0xbde8713c	-0.11349723
242	0xbdbfcdc7	-0.09365421
243	0xbc1ea0b8	-0.009681873
244	0x3db8784f	0.09007322
245	0xbcad2907	-0.021137727
246	0xbdadb0df	-0.08481001
247	0xbced2da0	-0.02895242
248	0x3dca14ad	0.09867225
249	0xbc5790c7	-0.013157076
250	0x3df14151	0.11780036
251	0x3cda2650	0.026629597
252	0x3d28d39e	0.04121744
253	0x3d1adb14	0.037806585
254	0xbb5244de	-0.0032084505
255	0x3cc53fe2	0.024078313

_transform._transforms.1.transform_net.blocks.0.linear_layers.0.bias f4 [64]
0	0xbdb185da	-0.08668108
1	0xbdb479ac	-0.088122696
2	0x3ce82360	0.02833718
3	0xbd7c4aec	-0.06159489
4	0x3d4aa058	0.049469322
5	0x3d81c3ac	0.063361496
6	0xbd0f8eb2	-0.035048194
7	0x3dc3cf7a	0.095610574
8	0xbdf16194	-0.1178619
9	0xbe08334a	-0.13300815
10	0xbd1264a5	-0.035740513
11	0xbd7e16f5	-0.062033612
12	0x3d3488e0	0.044075847
13	0xbdbbde4d	-0.0917326
14	0xbbf8d561	-0.007593796
15	0xba66983c	-0.00087964884
16	0xbda410d9	-0.08011026
17	0xbd509f6a	-0.05093328
18	0x3d9901ae	0.074710235
19	0x3d6e1254	0.058122948
20	0x3c42f21a	0.011898542
21	0x3d53a4a5	0.05167069
22	0x3dc4c150	0.09607184
23	0x3d5d9559	0.054097507
24	0x3c94e818	0.018177077
25	0xbdef6b7b	-0.11690422
26	0xbc87a3d9	-0.01655762
27	0xbe02c1dc	-0.12769264
28	0x3db7d02e	0.08975254
29	0xbd238a94	-0.03992708
30	0xbdad08a2	-0.08448912
31	0x3d2b58fa	0.0418329
32	0x3d64d816	0.055870138
33	0x3c174e31	0.009234951
34	0xbd8da0ab	-0.069154106
35	0x3e1f6ab7	0.15568052
36	0xba44e8b6	-0.0007511483
37	0x3d91c1a6	0.07117014
38	0xbc82fa24	-0.015988417
39	0x3d3cf608	0.04613307
40	0x3dc5d952	0.09660591
41	0xbdf09950	-0.11747992
42	0x3d011ebd	0.031523455
43	0xbd81e559	-0.06342573
44	0xbc3a6557	-0.0113767
45	0x3d9f0fbf	0.07766675
46	0x3d031946	0.032006525
47	0x3d78f628	0.060781628
48	0x3d2c21fc	0.042024598
49	0x3da190ff	0.07888984
50	0x3d0085af	0.03137749
51	0x3c250739	0.010072523
52	0xbd0b07f4	-0.03394313
53	0x3d9e643c	0.07733962
54	0xbd9b02ae	-0.075688705
55	0xbcff0ccd	-0.031134034
56	0xbdc7d639	-0.097576566
57	0x3de118b8	0.10991043
58	0x3d99e464	0.07514265
59	0x3db66413	0.089058064
60	0x3d97fd30	0.074213386
61	0xbcaa216b	-0.020767888
62	0xbda2e6bc	-0.07954165
63	0x3e09bae5	0.13450201

_transform._transforms.1.transform_net.blocks.0.linear_layers.1.weight f4 [64, 64]
0	0xbcd22397	-0.025651736
1	0xbc4efc40	-0.012633383
2	0xbb85d963	-0.0040847524
3	0x3c1bbb2f	0.009505077
4	0x3bdd6b66	0.0067571877
5	0x3c618d4e	0.0137666
6	0xbc8c493c	-0.017124765
7	0x3ae60a11	0.0017550607
8	0x3b9f6251	0.004864015
9	0xbc5c5d93	-0.013450044
10	0x3b4ec154	0.0031548338
11	0xbcc437bc	-0.023952357
12	0xbc541718	-0.012944959
13	0xbcc4b4b0	-0.02401194
14	0x3aff32ac	0.0019470057
15	0xbbe9c81b	-0.00713445
16	0xbd487d74	-0.048947766
17	0xbcf0c5a7	-0.029391123
18	0x3c956bed	0.01823994
19	0x3be926a9	0.0071152044
20	0xbcd530f2	-0.026024316
21	0xbc2f8a08	-0.010714062
22	0x3bf0e9d3	0.007352093
23	0x3d38205a	0.044952728
24	0xbb5d6cd6	-0.0033786795
25	0xbccc0e47	-0.024909152
26	0x3d6788b0	0.05652684
27	0xbb38639a	-0.002813554
28	0xbab19474	-0.0013548271
29	0xb9bc8c80	-0.00035962835
30	0x3ba0649c	0.004894806
31	0xbb801135	-0.0039083012
32	0xbc6aeda2	-0.014338883
33	0xbcce8499	-0.025209712
34	0xbccb432d	-0.024812305
35	0x3c059877	0.008154026
36	0xbc5762d9	-0.013146126
37	0xba60dc09	-0.00085777097
38	0xbc20a328	-0.0098045245
39	0x3d69922f	0.057024177
40	0x3bbbc588	0.0057303347
41	0xbc872b62	-0.016500179
42	0xbc5d84a9	-0.013520398
43	0xbca3a439	-0.019975768
44	0x3ba1a7c8	0.004933331
45	0x3c82c60c	0.015963577
46	0xbbbfadd9	-0.0058495817
47	0xbaec5f90	-0.0018033851
48	0xbb9af705	-0.004729154
49	0x3d85e10e	0.065370664
50	0xbd22411e	-0.03961288
51	0xbc600c30	-0.013674781
52	0xbbdd87dd	-0.006760581
53	0xbb0b696f	-0.002127256
54	0xbc0244cc	-0.007950973
55	0xbcf49497	-0.02985601
56	0xbcb8e3f1	-0.022569628
57	0x3cee8e4c	0.029120587
58	0xb9b463c9	-0.0003440662
59	0xbc2772fb	-0.010220285
60	0x3d463722	0.048392422
61	0xbc1ebbaf	-0.009688302
62	0xbb2accae	-0.002606194
63	0x3d11896b	0.035531443
64	0x3cc26b84	0.023732908
65	0x3cb34637	0.021884067
66	0x3cba4a71	0.022740575
67	0x3bdbf450	0.006712474
68	0x3b827ccd	0.0039821626
69	0xbbc0e871	-0.005887084
70	0x3cab0a97	0.020879073
71	0x3c0cce3d	0.008594093
72	0x3c877ce0	0.016539037
73	0x3cb679ec	0.022274934
74	0x398d9f36	0.00027012237
75	0x3cd6670a	0.02617218
76	0x3c5f2dc4	0.013621751
77	0x3ce7ec75	0.028310994
78	0xba916df3	-0.001109539
79	0x3c55c7b6	0.013048103
80	0x3ce29d16	0.027662795
81	0x3b9ce72c	0.0047883
82	0x3c0e2ecd	0.00867815
83	0x3b1637a7	0.0022921355
84	0x3ccb7081	0.02483392
85	0x3c85e9af	0.01634678
86	0x3c453836	0.0120373275
87	0x3c3c37fc	0.011487957
88	0x3c824239	0.015900718
89	0x3d0ed925	0.034875054
90	0xbd114d64	-0.035474196
91	0x3b3a643b	0.002844109
92	0x3cafafc7	0.021446122
93	0x3c610e38	0.0137363
94	0xbbba4472	-0.005684429
95	0x3c360b5c	0.011111107
96	0x3cc53e6f	0.024077622
97	0x3cecbdd6	0.028899115
98	0x3ccf6366	0.025315952
99	0x3c87dc0f	0.016584424
100	0x3cbd9321	0.023141446
101	0x3bf8b725	0.007590192
102	0x3c49d8aa	0.012319723
103	0x3c8a3332	0.016870115
104	0x3c0e4143	0.008682552
105	0x3cce4673	0.025180077
106	0x3c9cd49a	0.019144345
107	0x3cd7db11	0.026349576
108	0x3bf4ea7d	0.0074742422
109	0xbc7dcb64	-0.015490387
110	0x3c8c8fff	0.017158506
111	0x3c5e9adf	0.013586729
112	0x3c1986b5	0.009370496
113	0xbd5abe4d	-0.05340414
114	0x3d0b737a	0.034045674
115	0x3c76796c	0.015043598
116	0x3c99ba66	0.01876564
117	0x3b4e287e	0.003145724
118	0x3cc5a297	0.02412538
119	0x3cc2937a	0.023751963
120	0x3cdd68ed	0.027027572
121	0xbbad707e	-0.005292951
122	0x3c27381b	0.010206248
123	0x3c7c68e5	0.015405868
124	0xbb3b7a2f	-0.0028606763
125	0x3c8e3c66	0.017362785
126	0x3c7b4a6f	0.015337571
127	0xbb1da37a	-0.0024053738
128	0x3b8bcbb7	0.004266228
129	0xba97fac8	-0.0011595124
130	0xbc75ebf5	-0.01500987
131	0xbbef9b17	-0.0073121893
132	0xbc93fdae	-0.0180653
133	0xbcb0add9	-0.021567272
134	0x3c6547eb	0.013994197
135	0xbc988ca9	-0.01862176
136	0xbc77d8a0	-0.015127331
137	0xbc2186f6	-0.009858837
138	0xba993620	-0.0011689104
139	0xba225d21	-0.0006193687
140	0x3b5b134f	0.0033428257
141	0x3cab1a4b	0.02088656
142	0xba114b79	-0.00055425573
143	0xbc0a11ca	-0.008427093
144	0x3ca80d46	0.020514142
145	0x3c99ac95	0.018759051
146	0xbb8e3e84	-0.0043409485
147	0xbce8dcf4	-0.028425671
148	0x3be37aa0	0.0069421083
149	0xbc054c9b	-0.00813594
150	0xbc6f0a4c	-0.014589857
151	0xbca9c0a5	-0.020721743
152	0xbca05ec6	-0.019576441
153	0x3c5bdf18	0.013419889
154	0xbce17af0	-0.027524441
155	0x3b1d7004	0.0024023065
156	0x3b2548ca	0.0025220388
157	0xbc49e27b	-0.012322064
158	0xbca2c672	-0.019870017
159	0xbc4995fc	-0.0123038255
160	0x3b5b91b6	0.0033503599
161	0x3c8ac729	0.01694067
162	0xbb6c4fc3	-0.0036058284
163	0x3abf2bab	0.0014585158
164	0x3b8b06ab	0.0042427382
165	0xbc9fb4bf	-0.019495366
166	0xbc44f74e	-0.012021853
167	0xbc84c7fb	-0.01620864
168	0xbca09fb9	-0.019607412
169	0x3b1646c5	0.0022930366
170	0xbb05839a	-0.002037263
171	0x3b813675	0.0039432594
172	0xbccb18d8	-0.02479212
173	0xbcc93a1c	-0.024563842
174	0x3bcf7feb	0.0063323877
175	0xbc4364ee	-0.011925919
176	0xbcb0173d	-0.021495456
177	0xbd478650	-0.048712075
178	0x3d18d48c	0.037312075
179	0xbc47bc98	-0.01219096
180	0xbbcc1e2b	-0.0062291822
181	0xbc9d8774	-0.019229628
182	0xbc61c286	-0.013779288
183	0xbaf01b9f	-0.0018318779
184	0x3c440d69	0.011966088
185	0xbcff9331	-0.031198116
186	0xbca47dcd	-0.020079518
187	0xbbc0b0d9	-0.005880457
188	0xbcf6384b	-0.03005614
189	0xbc0e9d3b	-0.008704479
190	0xbcc85b5d	-0.024457628
191	0x3b3a5185	0.0028429937
192	0x3d21ee2c	0.03953378
193	0x3cb99cec	0.022657834
194	0x3ca84573	0.020540928
195	0xbc8acd4d	-0.016943598
196	0x3cb05a77	0.021527512
197	0x3abb072c	0.0014269105
198	0x3cf39611	0.029734643
199	0x3c0c8124	0.008575711
200	0x3c0ab7f8	0.008466713
201	0x3ce5955c	0.028025322
202	0x3bc098e2	0.0058776
203	0x3d257ce8	0.040402323
204	0x3c990d8f	0.018683223
205	0x3c5fe88d	0.013666284
206	0xbb125216	-0.002232676
207	0x3c94a78e	0.018146303
208	0x3d888c27	0.06667357
209	0x3d80eedb	0.06295558
210	0xbcb46ec2	-0.02202547
211	0xbb763d8f	-0.0037573313
212	0x3d1169e8	0.03550139
213	0x3cbb9b0a	0.022901077
214	0xbc335e66	-0.010947799
215	0xbd278a7e	-0.04090356
216	0x3c58d53d	0.013234434
217	0x3d062133	0.032746505
218	0xbd2cc746	-0.04218223
219	0x3b2d2f81	0.002642602
220	0xbc6d18de	-0.014471261
221	0x3c0517a7	0.008123315
222	0x3d077c6d	0.033077646
223	0x3c3864ba	0.011254484
224	0x3cc9dd17	0.024641557
225	0x3c58fed7	0.013244352
226	0x3cec4721	0.02884251
227	0xbd25cbe3	-0.040477645
228	0x3c8271cd	0.015923405
229	0x3cb8fa21	0.022580208
230	0x3cd0615a	0.025437046
231	0xbd5967bd	-0.05307745
232	0xbaf781f2	-0.0018883331
233	0x3cd4bda4	0.025969334
234	0x3c9884f8	0.018618092
235	0x3d039325	0.03212275
236	0x3c9f6025	0.019455025
237	0x3cbefbce	0.02331343
238	0xbc2ab528	-0.010419168
239	0x3c11e81a	0.008905435
240	0x3c9dbd81	0.019255402
241	0xbd489326	-0.048968457
242	0x3d06690d	0.032815028
243	0x3d3005bb	0.042974215
244	0x3c5c04ec	0.013428908
245	0x3c624705	0.013810878
246	0x3cb3a6f4	0.021930195
247	0x3d1e2db5	0.03861781
248	0x3ccf62d8	0.025315687
249	0xbd387bc5	-0.04503991
250	0x3ba63afa	0.0050729485
251	0x3c9703c7	0.018434418
252	0xbd35ef42	-0.044417627
253	0x3cc58ea5	0.02411587
254	0x3cf4efc7	0.029899491
255	0xbd1c55f4	-0.03816791

_transform._transforms.1.transform_net.blocks.0.linear_layers.1.bias f4 [64]
0	0x3d06040a	0.032718696
1	0xba3d4715	-0.000722037
2	0xbccdaa29	-0.025105553
3	0xbd198c9f	-0.037487622
4	0xbb624a51	-0.003452916
5	0xbcc0da87	-0.023541702
6	0x3ce25ebe	0.027633067
7	0xbbe0e5d3	-0.0068633347
8	0xbcc5e8f7	-0.024158938
9	0x3b34b828	0.0027575586
10	0x3d6e39dc	0.058160648
11	0x3cb47b97	0.022031588
12	0x3d81e2db	0.06342097
13	0xbd95c96a	-0.07313807
14	0x3c894cd2	0.016760264
15	0x3c3b384a	0.011426995
16	0x3d33c231	0.043886367
17	0xbbf1de1d	-0.0073812143
18	0x3d91c7a2	0.07118155
19	0xbc88b561	-0.01668805
20	0x3c97ddab	0.018538317
21	0xbcc978e7	-0.024593784
22	0xbc5a5c7e	-0.013327716
23	0xbc90697b	-0.017628422
24	0x3c6a0582	0.01428354
25	0x3d8ada89	0.067799635
26	0xbc853708	-0.016261593
27	0xbd66130f	-0.05617052
28	0xbd9f44e6	-0.07776813
29	0x3c0d7112	0.008632915
30	0x3b7617d6	0.0037550828
31	0x3d48647d	0.048923958
32	0xbd36aa32	-0.044595905
33	0xbd572b44	-0.052531496
34	0x3d42bf4d	0.04754572
35	0xbce688a8	-0.028141335
36	0xbd44d09e	-0.048050515
37	0x3d10d3b4	0.035358146
38	0x3cd51b70	0.02601406
39	0x3b852d1d	0.004064216
40	0xbd888b69	-0.066672154
41	0xbc840935	-0.016117672
42	0xbd594421	-0.05304349
43	0x3bfdfc4f	0.007751025
44	0x3d0dc36f	0.034610208
45	0x3d72fdd0	0.059324086
46	0x3ad49901	0.0016219915
47	0x3cb126bc	0.021624915
48	0x3d2aaa9d	0.041666616
49	0x3c3f8118	0.011688493
50	0xbc6b78db	-0.014372076
51	0x3c2ada5c	0.0104280375
52	0xbcc39327	-0.023873879
53	0xbcb8f176	-0.022576075
54	0x3d3bebdb	0.045879226
55	0x3c9b2291	0.018937381
56	0x3c41da0a	0.01183177
57	0xbccbb96a	-0.024868686
58	0x3cafc3d0	0.021455675
59	0xbc724359	-0.014786565
60	0x3d2efb4e	0.04272013
61	0x3d340501	0.043950085
62	0xbd3a3ff9	-0.045471165
63	0xbc9f80ab	-0.019470533

_transform._transforms.1.transform_net.blocks.1.context_layer.weight f4 [64, 32]
0	0x3dae1469	0.08499987
1	0x3e3e8c51	0.18608214
2	0x3dd50429	0.10401184
3	0xbd66717c	-0.05626057
4	0x3e2b370a	0.16720214
5	0xbdd77265	-0.10519866
6	0xbe18cac6	-0.14921102
7	0xbc6f9245	-0.014622276
8	0x3e34ab29	0.17643417
9	0x3df6f4a9	0.12058384
10	0xba377a9a	-0.0006999165
11	0xbcc41324	-0.023934908
12	0x3d641245	0.055681486
13	0x3cd0b142	0.025475148
14	0x3e3900e8	0.18066752
15	0x3e243980	0.1603756
16	0x3e170ca7	0.1475092
17	0xbc47b2a1	-0.012188585
18	0xbdadc03d	-0.08483932
19	0xbe314ef7	-0.17315279
20	0x3e221f9f	0.15832375
21	0x3dadd2dd	0.084874846
22	0xbe0f2f39	-0.13982858
23	0x3e11df01	0.14245225
24	0xbd9fa19c	-0.077944964
25	0x3e1a85b8	0.15090072
26	0x3d263c31	0.040584747
27	0x3dae95ee	0.085246906
28	0xbd98ac50	-0.07454741
29	0xbe0fc122	-0.14038518
30	0x3d21537c	0.039386258
31	0xbdf5fb91	-0.12010873
32	0x3d5d6a0b	0.05405621
33	0x3dc65ab0	0.09685266
34	0x3b5295d1	0.0032132755
35	0x3e2468c8	0.16055596
36	0x3d1f5754	0.038901642
37	0x3d46e2e1	0.048556212
38	0x3e24d2ca	0.16096035
39	0xbd725045	-0.059158582
40	0x3dab3709	0.083601065
41	0xbdb98072	-0.09057702
42	0x3e182207	0.1485673
43	0x3d1f38b1	0.038872425
44	0x3e2149cd	0.15750809
45	0x3dfa3d29	0.122186966
46	0x3dfd068d	0.12354765
47	0xbdd68fbe	-0.104766354
48	0xbdc7adca	-0.097499445
49	0x3e264b8b	0.16239755
50	0x3e13eacf	0.14445041
51	0xbdd0c29a	-0.10193367
52	0x3e36d834	0.17855912
53	0xbe394834	-0.1809395
54	0x3c98d0fa	0.018654335
55	0x3ca9b1e3	0.020714706
56	0xbe134972	-0.14383486
57	0xbd82cd34	-0.06386796
58	0xbe1bcc71	-0.15214707
59	0xbd74086d	-0.059578348
60	0x3dae22a0	0.08502698
61	0x3df47bba	0.119376615
62	0x3e1d93d6	0.15388426
63	0xbbe9e005	-0.007137301
64	0xbd824e30	-0.06362569
65	0xbd6aafda	-0.05729661
66	0xbd44e153	-0.04806645
67	0x3dddab67	0.10823708
68	0x3d92f0c4	0.07174829
69	0xbe1bcb4f	-0.15214275
70	0x3e1a0afa	0.1504325
71	0xbdc7ae86	-0.097500846
72	0x3d50530c	0.05086045
73	0xbdaa3d44	-0.08312467
74	0xbd96e703	-0.07368281
75	0xbce570ab	-0.028007826
76	0x3e138751	0.14407088
77	0xbe1d9933	-0.15390472
78	0x3d96437b	0.0733709
79	0x3c48bb8b	0.012251745
80	0x3dc0f4ee	0.09421717
81	0x3deceb5f	0.11568331
82	0x3e28ba2f	0.16477273
83	0xbe1fc1b1	-0.15601231
84	0xbd4a7487	-0.049427535
85	0xbda609aa	-0.08107312
86	0x3d830efe	0.06399344
87	0xbe003b9a	-0.12522736
88	0xbdac2a7d	-0.084065415
89	0xbd2a270f	-0.041541155
90	0xbd7f204d	-0.062286664
91	0x3da2349c	0.07920191
92	0x3de80a60	0.11330104
93	0x3dce0550	0.10059607
94	0x3d31da69	0.043421183
95	0x3d75d9ad	0.060022045
96	0x3bc63dd1	0.0060498496
97	0x3d722a9f	0.059122678
98	0x3e1a8a97	0.1509193
99	0x3a91dd37	0.0011128549
100	0x3e249ab1	0.16074635
101	0x3cb2fcab	0.021848997
102	0x3da9fdbc	0.08300349
103	0x3dd77198	0.10519713
104	0x3e006686	0.1253911
105	0x3d823f6f	0.06359755
106	0x3d1a1523	0.037617814
107	0x3ce4df38	0.02793847
108	0xbd68cd5b	-0.056836467
109	0xbc31d1b4	-0.01085322
110	0x3dfb6866	0.12275772
111	0xbd777688	-0.060415775
112	0xbe1ad827	-0.15121518
113	0x3e0a09e9	0.13480343
114	0xbe53c04d	-0.20678826
115	0x3d1ea4a5	0.038731236
116	0x3dc693ee	0.09696184
117	0xbe3a4e00	-0.18193817
118	0xbdd2de98	-0.10296363
119	0xbc9a94da	-0.018869806
120	0x3d8f7a63	0.07005765
121	0xbd6bfd41	-0.05761457
122	0xbe1026f3	-0.14077358
123	0xbe19f229	-0.15033783
124	0xbe314bc7	-0.17314063
125	0x3dc514a4	0.096230775
126	0xbe0dc30c	-0.13843936
127	0x3e0fe909	0.1405374
128	0xbe36701b	-0.17816202
129	0x3ded8def	0.11599337
130	0xbd924f1c	-0.07143995
131	0xbd5fe5b9	-0.05466244
132	0xbdaad8ee	-0.08342157
133	0x3db30555	0.087412514
134	0xbc840274	-0.016114451
135	0xbdf741c1	-0.120730884
136	0xbd16b1e7	-0.036790755
137	0xbd912ea6	-0.070889756
138	0x3e5662fe	0.209362
139	0xbdd771e3	-0.10519769
140	0xbd80c952	-0.06288399
141	0xbd03c13c	-0.032166705
142	0xbe2eef09	-0.17083372
143	0x3e314f57	0.17315422
144	0x3e10d83c	0.14144987
145	0x3e2f17ea	0.17098966
146	0xbcece124	-0.02891595
147	0x3d58bcc0	0.05291438
148	0xbe01bf0f	-0.1267054
149	0xbe157d8e	-0.14598677
150	0xbd8ccb47	-0.068747096
151	0x3da25388	0.079260886
152	0xbd389b88	-0.0450702
153	0x3e373848	0.17892563
154	0x3dd9764f	0.10618269
155	0xbe417b2f	-0.18894647
156	0x3e17b19e	0.1481385
157	0xbe314e95	-0.17315133
158	0x3dfc8e99	0.12331886
159	0xbe21a5eb	-0.15785949
160	0xbd1fb067	-0.03898659
161	0x3d952d2f	0.07284009
162	0xbdfcd104	-0.12344554
163	0x3e2129d5	0.15738614
164	0xbd78e4ca	-0.060765065
165	0xbde35800	-0.11100769
166	0xbd532a67	-0.05155411
167	0x3e00718a	0.12543312
168	0x3dd83780	0.10557461
169	0x3e020156	0.12695822
170	0x3e378e17	0.17925297
171	0x3d83fff5	0.06445304
172	0xbe060fee	-0.13092014
173	0xbe30fbb7	-0.17283522
174	0x3dae4f2b	0.08511194
175	0x3dc2dfc0	0.09515333
176	0xbe2ca34b	-0.16859166
177	0xbdb643d6	-0.088996574
178	0xbba7fb60	-0.005126402
179	0x3dc2cea7	0.09512072
180	0x3da919af	0.08256852
181	0x3d83f184	0.0644255
182	0x3b809994	0.003924558
183	0xbcfc341a	-0.030786563
184	0xbcf82709	-0.03029205
185	0xbe0512e1	-0.12995483
186	0xbcea9b3b	-0.028638473
187	0x3e1b48fb	0.15164559
188	0x3e30b610	0.17256951
189	0xbdedf8ce	-0.11619721
190	0xbda7936d	-0.08182416
191	0xbd33ca8a	-0.04389433
192	0xbd318a1b	-0.0433446
193	0x3e02c6f7	0.12771212
194	0xbe5a2648	-0.21303666
195	0xbe33440c	-0.17506427
196	0xbd2ac4c7	-0.041691568
197	0x3a789401	0.00094825035
198	0x3d9cbf02	0.07653619
199	0xbe033c2b	-0.12815921
200	0x3baecd75	0.005334551
201	0x3de8d81f	0.11369347
202	0x3db00a7d	0.085957505
203	0xbe4bfb23	-0.1992002
204	0x3e01447d	0.12623782
205	0xbd18ebc7	-0.03733423
206	0xbdc72632	-0.09724082
207	0x3d1ab15e	0.037766807
208	0xbe547f71	-0.2075174
209	0x3e004e95	0.12529977
210	0xbddba1f1	-0.10724247
211	0xbd50bede	-0.050963275
212	0x3e037c93	0.1284049
213	0xbaf51126	-0.0018697127
214	0x3dc5cedd	0.09658597
215	0x3b6831e7	0.0035430135
216	0x3de21b89	0.11040408
217	0x3e2d0218	0.1689533
218	0xbc8f256f	-0.017473904
219	0xbe37dfb9	-0.17956437
220	0xbe3e115d	-0.18561311
221	0x3dc04366	0.09387855
222	0x3d199e82	0.03750468
223	0x3e73c129	0.23804154
224	0x3d8e6b69	0.069540806
225	0x3e226d2a	0.15861955
226	0xbc38d371	-0.01128088
227	0x3dab5ea8	0.083676636
228	0xbda7a515	-0.08185784
229	0xbdef7202	-0.11691667
230	0x3df64eea	0.120267704
231	0xbd8f5ba2	-0.069998994
232	0x3db3fd5d	0.087885596
233	0xbe1345fa	-0.14382163
234	0x3dcad75d	0.099043585
235	0xbcf61f69	-0.030044274
236	0xbd26f3a8	-0.040759712
237	0x3dcd5294	0.10025516
238	0x3c9a018a	0.018799562
239	0x3d930dfe	0.07180403
240	0x3dada52d	0.084787704
241	0x3e0ddf04	0.13854605
242	0xbd6b8597	-0.057500448
243	0x3ca3ca00	0.019993782
244	0x3e2eb846	0.17062482
245	0xbde1a89d	-0.110184886
246	0x3e460a62	0.19339898
247	0xbe0cb374	-0.13740331
248	0x3e419f04	0.18908316
249	0x3d609994	0.054833964
250	0x3e089a69	0.13340153
251	0xbe379d9d	-0.17931218
252	0xbd1b77a7	-0.037955906
253	0xbd08ecc0	-0.033428907
254	0x3e23cd72	0.1599634
255	0x3d1a4cba	0.03767083

_transform._transforms.1.transform_net.blocks.1.context_layer.bias f4 [64]
0	0xbd2df16b	-0.042466562
1	0x3c9a0d65	0.018805215
2	0xbd2618d9	-0.04055104
3	0x3d6e6a4d	0.058206845
4	0x3d1c336c	0.038134977
5	0x3cd491ce	0.025948431
6	0xbd3d28f8	-0.04618165
7	0xbd311b4e	-0.04323893
8	0xbc29f7d0	-0.0103740245
9	0x3d03f46c	0.03221552
10	0x3e23422e	0.15943214
11	0xbd90e470	-0.07074821
12	0x3dc97900	0.09837532
13	0xbd90208a	-0.07037456
14	0x3e55d7fa	0.2088317
15	0x3cb59bd9	0.02216904
16	0xbe11e83f	-0.14248751
17	0xbd42b78a	-0.047538318
18	0xbdbc8ef4	-0.09206954
19	0xbda00368	-0.0781315
20	0xbdc438a0	-0.09581113
21	0x3d11fa50	0.035639107
22	0x3db8dd1a	0.09026547
23	0x3d3cbd62	0.046079047
24	0x3cfcc101	0.03085375
25	0xbccf02a9	-0.025269823
26	0x3d15f602	0.036611564
27	0x3d864111	0.06555379
28	0x3e07af81	0.13250543
29	0x3e1de95d	0.15421052
30	0xbd64949e	-0.055805795
31	0xbd03a59b	-0.032140356
32	0x3d4b4cba	0.04963372
33	0x3dfcca63	0.1234329
34	0x3e5c7e95	0.21532662
35	0xbe109214	-0.14118224
36	0x3db9942c	0.09061465
37	0x3d8588e8	0.065202534
38	0xbd9d82e9	-0.07690985
39	0x3ca50a57	0.020146532
40	0x3d3bf8c4	0.04589154
41	0xbdc3c0e2	-0.09558274
42	0xbcf9c82a	-0.030490953
43	0xbdf521c6	-0.119693324
44	0x3e02c452	0.12770203
45	0x3d98a876	0.074540064
46	0xbd249895	-0.040184576
47	0x3e22a8f2	0.1588476
48	0x3e24146e	0.16023418
49	0x3d34cfc4	0.044143453
50	0x3d6eabce	0.058269314
51	0x3caf9833	0.021434879
52	0x3d115680	0.035482883
53	0x3d0608ca	0.032723226
54	0xbc0863a4	-0.008324537
55	0xbe217600	-0.1576767
56	0xb8ca1eac	-9.637824e-05
57	0x3d1200a9	0.03564516
58	0x3ddd5253	0.10806718
59	0x3dccb664	0.09995726
60	0x3e4ce937	0.2001084
61	0xbdbb1d08	-0.09136397
62	0x3d3f71c7	0.046739366
63	0xbde04ecd	-0.1095253

_transform._transforms.1.transform_net.blocks.1.linear_layers.0.weight f4 [64, 64]
0	0x3d33f1d5	0.0439318
1	0x3cacabe7	0.021078063
2	0xbde1d59c	-0.11027071
3	0x3db052d7	0.086095504
4	0x3d7d3342	0.06181646
5	0x3e135b45	0.14390285
6	0xbd0d1b1a	-0.034449674
7	0x3e0d03ea	0.13771024
8	0x3c893995	0.01675109
9	0xbdcdae1d	-0.10042975
10	0xbd1b99b9	-0.0379884
11	0xbd43748f	-0.04771858
12	0x3babc0ec	0.005241504
13	0x3d33a07c	0.04385422
14	0x3dda6dfe	0.106655106
15	0xbe0261c5	-0.12732609
16	0xbdf8a00a	-0.121399
17	0x3cc7f92c	0.024410807
18	0x3dae18ee	0.08500849
19	0xbd6b10cc	-0.057389066
20	0x3d592c6d	0.053020883
21	0x3d4751eb	0.048662107
22	0x3da16560	0.07880664
23	0x3c73f5e2	0.014890166
24	0x3e3729b8	0.17887008
25	0xbcd6f6f9	-0.026240813
26	0x3bde6a81	0.0067875986
27	0x3da53527	0.08066779
28	0xbdaee945	-0.085405864
29	0xbdf3511d	-0.118807055
30	0xbddc1db4	-0.10747853
31	0xbd32b7d4	-0.043632343
32	0x3d5e5652	0.05428154
33	0x3e14b1a4	0.1452089
34	0x3d238d18	0.03992948
35	0xbdb04adf	-0.086080305
36	0xbd39357e	-0.04521703
37	0xbd482017	-0.04885873
38	0x3cefcc80	0.029272318
39	0x3d0ede7d	0.03488015
40	0xbdb82f55	-0.08993403
41	0x3b42abe4	0.0029704506
42	0xbdb696ca	-0.089154795
43	0x3defce5c	0.11709282
44	0xbdeb39eb	-0.11485656
45	0xbe281665	-0.16414793
46	0x3d2e7ef3	0.042601537
47	0xbd8e9920	-0.069628
48	0xbc365564	-0.011128757
49	0x3d617cb7	0.055050578
50	0x3d93eedd	0.07223294
51	0xbdc0d371	-0.09415329
52	0x3dd5c000	0.10437012
53	0xbd760496	-0.060062967
54	0x3d468ad6	0.048472248
55	0x3d067c16	0.03283318
56	0x3e092e85	0.13396652
57	0x3d37ce03	0.044874202
58	0xbdba725c	-0.091038436
59	0x3d359791	0.044333998
60	0x3d455014	0.04817207
61	0xbe029f51	-0.12756087
62	0x3da98e3b	0.082790814
63	0x3d6924a4	0.05691971
64	0x3cbfb24d	0.02340045
65	0xbbe1068e	-0.0068672365
66	0x3d23a78f	0.03995472
67	0x3e060c54	0.1309064
68	0x3d14f872	0.03636975
69	0xbdc116e5	-0.09428195
70	0x3d973d29	0.07384712
71	0x3c736959	0.01485666
72	0xbd538606	-0.051641487
73	0x3b8d6e53	0.00431613
74	0x3de09b6e	0.10967146
75	0x3d581399	0.052753065
76	0xbd83419e	-0.06409
77	0x3dc745e7	0.0973013
78	0xbdaedc41	-0.08538104
79	0xbbb8801f	-0.0056305076
80	0x3d1c06ff	0.03809261
81	0xbd68d7c5	-0.0568464
82	0xbdfa96e7	-0.122358136
83	0x3d5039b4	0.05083628
84	0x3d489c66	0.04897728
85	0x3ce9c889	0.028538005
86	0xbc99d28a	-0.01877715
87	0x3dcfed10	0.10152638
88	0xbdadb7e4	-0.0848234
89	0x3baed7f1	0.005335801
90	0xbcd2f2fe	-0.025750633
91	0xbb264abb	-0.0025374133
92	0x3d909944	0.07060483
93	0xbd271786	-0.040793918
94	0xbdbd086d	-0.09230123
95	0x3c31eca1	0.010859639
96	0xbd956efd	-0.0729656
97	0x3db0812b	0.08618387
98	0x3d103909	0.035210643
99	0xbd6b4565	-0.057439227
100	0xbd38b6ef	-0.045096334
101	0x3dac58a7	0.084153466
102	0x3da9351b	0.08262082
103	0xbe07ca94	-0.13260871
104	0xbda0558f	-0.07828819
105	0xbcf54162	-0.029938404
106	0x3d4b1240	0.04957795
107	0x3d3d7756	0.046256386
108	0x3dd855dd	0.10563252
109	0xbc9131cf	-0.017723946
110	0x3d0e84b9	0.034794543
111	0x3bc258b5	0.005930985
112	0xbc96f6bf	-0.018428205
113	0xbdea6b60	-0.114462614
114	0x3d95e304	0.073186904
115	0x3cf59d33	0.029982185
116	0xbb86fcfe	-0.0041195145
117	0x3e1a848e	0.15089628
118	0xbd7d598d	-0.06185298
119	0xbca9be2c	-0.020720564
120	0xbde4b029	-0.111664124
121	0xbb272d5f	-0.002550922
122	0x3daffb28	0.08592826
123	0xbd2cec92	-0.0422178
124	0x3dadfdb6	0.08495657
125	0xbd5f7a67	-0.05456009
126	0xbdb04c3a	-0.08608289
127	0x3c9a2c9b	0.018820098
128	0x3d2aaf17	0.041670885
129	0xbd7eedd1	-0.06223852
130	0x3ce3b868	0.027797893
131	0xbd3096a1	-0.0431124
132	0x3db85803	0.09001162
133	0x3d0bb617	0.0341092
134	0x3e0282d1	0.12745215
135	0x3cbb319d	0.022850806
136	0x3c37e70a	0.011224518
137	0x3e0b4985	0.13602264
138	0xbd40b282	-0.04704524
139	0xbc4136b6	-0.011792829
140	0x3d79c843	0.060982
141	0xbd9367f5	-0.071975626
142	0xbd6d70f0	-0.057969034
143	0x3dc16028	0.094421685
144	0x3e0ef388	0.13960087
145	0x3d15a643	0.036535513
146	0x3cc22593	0.023699557
147	0xbdb515e2	-0.088420644
148	0xbc11bfcf	-0.008895828
149	0xbdbcd2e0	-0.09219909
150	0xbd3b0a41	-0.045664076
151	0x3d46b2aa	0.04851023
152	0x3ded50b2	0.11587657
153	0xbd906b4a	-0.07051714
154	0x3d484266	0.048891447
155	0x3da343ed	0.0797194
156	0xbdc782e7	-0.097417645
157	0x3dec2df0	0.115321994
158	0x3d5a4b9c	0.053294763
159	0x3dcde664	0.10053709
160	0xbd15edb9	-0.036603663
161	0x3d94ebd2	0.07271542
162	0x3d284844	0.041084543
163	0x3d00c7fe	0.031440727
164	0xbd31d636	-0.043417178
165	0x3df78ecd	0.12087784
166	0xbca9669b	-0.020678809
167	0x3e07451c	0.13209957
168	0x3c8c9b75	0.017163971
169	0xbd3a0512	-0.04541499
170	0xbdc7c713	-0.09754767
171	0x3dc96975	0.098345675
172	0xbc4d7aec	-0.012541514
173	0xbd1c2245	-0.03811862
174	0xbd339f19	-0.0438529
175	0x3da75537	0.0817055
176	0xbdb9f76c	-0.09080395
177	0x3e07350d	0.13203831
178	0xbc7457d2	-0.014913516
179	0x3e46ea7d	0.19425388
180	0xbccf2ae1	-0.025289001
181	0xbcd8e068	-0.026474193
182	0xbc0972f7	-0.008389226
183	0x3d060ea0	0.03272879
184	0xbd97f4dd	-0.07419751
185	0xbd9f4c85	-0.07778267
186	0xbd20bb18	-0.039240927
187	0x3d2992de	0.04139983
188	0x3e49d262	0.19709161
189	0x3dede59b	0.116160594
190	0xbcf45fb3	-0.02983079
191	0xbd70dd83	-0.058805
192	0xbc93a4f8	-0.018023
193	0x3c754a55	0.014971335
194	0x3d9dba61	0.077015646
195	0x3de967b8	0.11396736
196	0x3cdedd57	0.027205152
197	0x3d701eae	0.05862301
198	0xbd5e53c6	-0.05427911
199	0x3e094405	0.13404854
200	0x3de39503	0.11112406
201	0x398eb149	0.00027216438
202	0xbddf6739	-0.1090836
203	0x3e12ee7c	0.14348787
204	0xbd8b9414	-0.06815353
205	0xbda58e0e	-0.080837354
206	0xbd3d9678	-0.046286076
207	0xbb4ac854	-0.0030942159
208	0x3d272fc2	0.04081703
209	0xbd885b3b	-0.06658026
210	0x39c48d90	0.00037489505
211	0xbd6a8f9c	-0.057265863
212	0x3c1963ba	0.009362156
213	0x3e1423f5	0.14466842
214	0x3d25460f	0.040350016
215	0xbceb7e70	-0.028746814
216	0x3d8b67a3	0.068068765
217	0x3cba3d5e	0.02273434
218	0x3e1ab97d	0.1510982
219	0xbd053712	-0.032523222
220	0x3e1dc9b7	0.1540898
221	0x3d80277a	0.062575296
222	0xbadc7e5e	-0.0016822328
223	0x3dc72f95	0.097258724
224	0xbd244c28	-0.04011169
225	0x3dabc842	0.083878055
226	0xbdcfebf3	-0.101524256
227	0x3e0f6741	0.14004232
228	0x3de02f33	0.109465025
229	0xbc846a6e	-0.01616403
230	0xbd1d1b3c	-0.03835605
231	0xba9288bf	-0.001117967
232	0xbda37d5c	-0.07982895
233	0x3cd4b5bf	0.02596557
234	0xbd5eadd8	-0.05436501
235	0x3deb7082	0.114960685
236	0xbdacf679	-0.084454484
237	0xbcbf5e82	-0.023360495
238	0xbd602f5c	-0.054732665
239	0xbdf55b15	-0.11980263
240	0xba1f4699	-0.00060758885
241	0x3c8f7aba	0.017514575
242	0xbd3aeab3	-0.045633983
243	0xbdbc4310	-0.09192479
244	0x3e424d8e	0.18974897
245	0x3de5b86f	0.112168185
246	0xbc759bf8	-0.014990799
247	0x3d216e91	0.039412085
248	0xbd34f668	-0.044180304
249	0xbcfbf4a9	-0.030756311
250	0xbd301183	-0.04298545
251	0x3dc722a5	0.09723405
252	0xbcf725b8	-0.030169353
253	0xbe438bae	-0.19096252
254	0x3d0fe2f4	0.03512855
255	0xbd3ca9bd	-0.046060313
