canvi/population/arch1/trained_encoder.pth (torch, 40783 bytes, 8 tensors)

enc.0.weight f4 [64, 15]
000000 3a f1 83 be ab 82 55 bd 6b 2e 66 be b3 e0 ee bc
       -0.2576998 -0.052126568 -0.22478645 -0.02915988
000010 ce 10 b2 3c 3d 3c dc ba e5 03 0d 3e 18 46 8a 3e
       0.021736529 -0.001680262 0.13771017 0.27006602
000020 43 cf 19 3e 7d f7 3c 3e c4 ab a4 3d b5 9b eb 3d
       0.1502047 0.18453784 0.08040574 0.11504308
000030 01 28 98 3e 16 ab cc 3d d9 a8 6b be fe 93 a8 be
       0.2971802 0.099935696 -0.23013629 -0.3292541
000040 f9 ae d2 3d 75 99 06 be 19 85 ac 3c 4d 58 62 be
       0.1028728 -0.13144477 0.02105956 -0.22103997
000050 d2 5a 42 bd 49 e3 65 3e 58 5f 32 3e 26 52 fe 3d
       -0.047449894 0.22449984 0.17419183 0.12418012
000060 13 40 70 3e 6f 52 ec 3d ec f9 7a 3e 94 9f da bd
       0.23461942 0.115391605 0.245094 -0.10674968
000070 10 87 87 be 98 2b 7c 3d d0 ca 40 be f4 63 65 bc
       -0.26470232 0.06156501 -0.18827367 -0.014000881
000080 b3 5d c6 bd 29 11 2c bd 0e d8 51 be 46 fe b9 3d
       -0.096858405 -0.042008553 -0.20492575 0.09081702
000090 94 84 41 be a7 70 05 3d 76 9c 09 be 9e 97 70 be
       -0.18898231 0.032578137 -0.13438591 -0.23495337
0000a0 a1 dd fb 3c f7 7e 80 bc 5f 5d 6e 3e 40 68 6e 3e
       0.03074533 -0.015685542 0.23277806 0.23281956
0000b0 f0 78 34 be 87 78 89 3e d1 f0 03 be a5 e2 1c 3e
       -0.17624259 0.26849768 -0.12884833 0.15320833
0000c0 af b2 34 be 49 24 25 3c 8c cb a2 3d 0a 8d 77 3e
       -0.17646287 0.010079452 0.0794898 0.24174896
0000d0 4d 70 52 3e e9 61 49 3e 8f d7 10 3c 4a b3 3e 3e
       0.20550652 0.19666256 0.008840456 0.18623081
0000e0 55 77 d2 3d 6c 4e f2 bd e5 b0 7f 3e fe 48 73 bc
       0.10276667 -0.11831364 0.24969824 -0.014848946
0000f0 2a 80 1f 3e b3 36 5f 3d b4 cf 5d 3e c5 7d cd 3d
       0.15576234 0.054495525 0.21661264 0.10033754
000100 ab 7c a1 3d 3e 72 1f be e4 9b 3e be 18 af 52 be
       0.07885107 -0.15570924 -0.18614155 -0.20574605
000110 c6 6f 8b 3d 8d 50 e5 bc ba 94 3b be 11 48 93 3d
       0.068084285 -0.027992511 -0.18318453 0.0719148
000120 f0 30 26 3e 21 e8 54 3e 0b 9f 63 be 71 a3 87 3e
       0.16229606 0.20791675 -0.22228639 0.26491883
000130 c1 7a 2f 3e 9a 87 5d be 37 8b 2c 3e 26 1d e5 3d
       0.1713667 -0.21633759 0.16849981 0.111872
000140 8d 05 5f 3e 50 d1 a6 bd cd c8 6c be 7f 7a 3f 3e
       0.21779461 -0.08145392 -0.23123474 0.18699072
000150 0d b1 80 3c 3b 04 81 be 14 66 39 be b8 27 10 3e
       0.015709424 -0.2519854 -0.18105346 0.14077652
000160 e6 14 47 3e 95 6d 87 3e 0a 08 e6 3c 7b 47 8e 3c
       0.19441566 0.26450792 0.028080005 0.017368069
000170 b9 32 bd 3c 4a a3 e1 bd 46 02 83 3e 7e 0e 4f be
       0.023095476 -0.11017473 0.25587672 -0.20220372
000180 24 7a 69 bd 59 3f 34 3e 15 2b 46 3e 72 1e 63 be
       -0.057001248 0.1760229 0.19352372 -0.22179583
000190 da c4 fd bc c8 2c 75 be 58 16 39 be 7f da 29 3a
       -0.030977655 -0.23942864 -0.1807493 0.0006479397
0001a0 dc 4b 1e 3e 0d 62 e9 3d a0 46 8a 3c c3 1f ed 3d
       0.15458626 0.11395655 0.01687938 0.11578324
0001b0 9f 04 27 be 2a 1b 50 be bf 00 1e 3e 31 39 38 3e
       -0.16310357 -0.20322862 0.15429972 0.17990567
0001c0 2d 49 de 3c d5 8c 28 bd 84 3a 43 be c8 6a 22 be
       0.027134502 -0.041149933 -0.1906529 -0.15861046
0001d0 81 04 09 be 12 95 93 bd 7d 31 83 3e 4c c4 14 bd
       -0.13380624 -0.07206167 0.25623694 -0.036320016
0001e0 07 dc 8b be 0c 72 6e 3d f5 cf 8a bd a3 1e f9 3d
       -0.27316305 0.058214232 -0.06777946 0.121640466
0001f0 aa b6 d5 bc 60 f4 59 3e 6d 8f 22 3d 5c 1c 3f bd
       -0.026088078 0.21284628 0.039687563 -0.046657905
000200 ad 2e 80 be 5f d5 34 3e ba a7 0e be 5f a9 95 be
       -0.2503561 0.1765952 -0.1393117 -0.29230782
000210 9d 48 76 bb 99 e6 95 bd 61 14 8b bd b5 a2 2b be
       -0.0037579902 -0.07319374 -0.06790996 -0.16761287
000220 5c d2 83 be 31 98 1a 3e c7 6a c2 bd 67 d0 2f bd
       -0.2574643 0.15097119 -0.094930224 -0.042923357
000230 56 48 29 3e d0 cd 30 be ea 9b da 3d 13 6d 7e 3e
       0.165315 -0.17266011 0.106742695 0.24846296
000240 02 1e 22 bd d8 90 53 be f0 23 49 be 7c 8e 66 bd
       -0.0395794 -0.20660722 -0.19642615 -0.056288227
000250 0d 7c 62 be a9 ed 84 bd ef 69 4a be 0e 8f 53 be
       -0.22117634 -0.064906426 -0.19766973 -0.2066004
000260 fc 67 ee bd bb d5 03 be 57 26 98 3c 16 05 62 3d
       -0.11640927 -0.128745 0.01857297 0.05518063
000270 d4 e5 57 bd e5 40 66 bd 46 7b 39 bd 49 c8 fa bc
       -0.052709416 -0.056214232 -0.04528358 -0.030613082
000280 d2 13 39 be f5 95 3e 3e 44 f7 01 be 7d 71 40 3e
       -0.18073967 0.18611892 -0.1269198 0.18793292
000290 b6 06 8f be 47 3d c5 3d 4c c6 66 bc 6e 3b 2b be
       -0.27934808 0.09630828 -0.014085364 -0.1672189
0002a0 8b 28 3d be b2 c1 b6 bc 1f 10 44 bd 64 ce 51 3e
       -0.18472497 -0.022309158 -0.047866937 0.20488888
0002b0 b7 93 fa bc 5d e7 0b bd cf 40 5a 3d a7 ee 44 be
       -0.030588014 -0.034156192 0.053284463 -0.19231664
0002c0 a4 f1 5d be d5 da d2 bd 24 b5 85 3d 23 58 3e 3e
       -0.2167421 -0.10295645 0.065286905 0.18588309
0002d0 c9 d3 0b 3e ea 44 c3 bd 4f 75 43 3e 90 96 5d 3e
       0.13655008 -0.09534629 0.19087718 0.21639466
0002e0 60 0a 2e bd 53 49 11 bd 83 2b 23 be 46 c3 d2 bd
       -0.042490363 -0.035470318 -0.15934567 -0.10291152
0002f0 f6 6f 56 3e f3 c4 45 3c 8c 4d 19 be 26 ee 5d 3d
       0.20941147 0.012070882 -0.14970988 0.054182194
000300 f2 8a 19 be 53 b9 9f 3c 6a 68 49 3e 3f 01 94 be
       -0.1499441 0.01949755 0.19668737 -0.289072
000310 41 5a 5d be 06 04 a1 bd ba 87 1c 3b 1a f0 75 3d
       -0.2161646 -0.078620955 0.002388461 0.06004343
000320 cc 59 79 3c 64 a1 5c be 58 e0 52 be c8 66 c8 3d
       0.015219163 -0.2154594 -0.20593393 0.09785229
000330 f3 18 3c be 40 57 ec bd 9e a9 83 3e c9 ca 1e be
       -0.18368892 -0.11540079 0.25715345 -0.15507044
000340 37 2f 34 be ab 6c 04 3e 1a 7f 7f be 8f d1 70 be
       -0.17596136 0.12932079 -0.24950829 -0.2351744
000350 ae 76 b4 3d 4d 14 29 be 12 6b 0d be f9 1f 6e be
       0.08811699 -0.1651165 -0.13810375 -0.23254384
000360 2e 4b 7c 3e 8a 4f 25 3d 0b d1 8d bd 22 01 ed bd
       0.24638054 0.040359057 -0.069246374 -0.11572482
000370 c2 f4 0a be e4 f8 15 38 80 18 8d 3e 0e b7 89 3d
       -0.1356993 3.5756166e-05 0.27557755 0.06724368
000380 36 1a 4a be 54 97 99 3e 72 a0 1b 3e 8f e4 60 3a
       -0.19736561 0.29998267 0.15197924 0.000857898
000390 60 38 a3 bd 0c 56 dd 3d 4c d3 27 be 98 6f 3b 3e
       -0.07969737 0.10807428 -0.16389197 0.18304288
0003a0 c2 52 df bd d6 da e3 3d c2 b0 46 be 2a e8 cf bd
       -0.10904457 0.11125724 -0.19403365 -0.10151704
0003b0 bc f0 05 bd 47 3a be 3b 0d 5e 00 be ea 3f 15 3e
       -0.032700285 0.005805287 -0.12535878 0.14575163
0003c0 0a 54 c9 3d 5d 5c bf 3c d7 fc 9c 3e b2 0b c6 bd
       0.09830482 0.023359472 0.30661651 -0.096701995
0003d0 1b 26 19 be f3 cc c4 3d d8 e0 34 3e 9e 62 69 3c
       -0.14955942 0.096094035 0.17663896 0.014244704
0003e0 ac da 43 bd 73 2a e9 bd 24 d1 c1 3c 88 85 38 3e
       -0.047815964 -0.1138505 0.023659296 0.18019688
0003f0 2b 5d e8 bd 0a 27 3c 3d 60 83 e8 3d 4f 1f 20 3e
       -0.113458954 0.045935668 0.11353183 0.15636943

enc.0.bias f4 [64]
000000 44 df 43 bd a5 88 e2 3d cb 09 1c bd 00 f2 dc 3c
       -0.047820345 0.11061219 -0.038095277 0.026970863
000010 b4 bb 53 be 12 4f 70 ba 82 b5 87 be 5b 6e 2d be
       -0.20677072 -0.0009167056 -0.26505667 -0.16936629
000020 b2 51 12 3e 02 c1 1d be 7c 41 9a 3e 97 c5 82 be
       0.14288977 -0.15405658 0.30128086 -0.25541374
000030 5a e7 bc 3d 92 e4 c3 3d 48 e8 0a 3d 23 b4 01 3e
       0.09223814 0.09565081 0.033912927 0.12666373
000040 14 f8 28 3e b5 32 84 bc 86 b8 a8 bc e8 4a 92 be
       0.16500884 -0.01613746 -0.0205958 -0.28572774
000050 a0 1b 08 3e ea 4d 1b 3e e9 48 4e 3c c8 f1 a6 3c
       0.13291788 0.1516644 0.012590625 0.020378962
000060 86 ef a8 3e 4e a1 3d be a7 3f 39 be 5d bc 35 3e
       0.32995242 -0.18518564 -0.18090688 0.17747636
000070 7b 01 0a be d2 69 20 be 8a 44 68 be 80 9a f3 3c
       -0.13477127 -0.15665367 -0.22682396 0.029736757
000080 12 b6 5d 3d 97 a1 7e be 8d 97 d3 bd 65 82 06 bd
       0.054128714 -0.24866329 -0.103316404 -0.032839198
000090 4b e6 d8 bd 26 2a 39 3c c4 96 98 bd 82 79 18 be
       -0.105908 0.011301553 -0.07450631 -0.14890102
0000a0 9e a1 67 be 22 bc 41 be 22 5d ff 3d e2 59 cc 3d
       -0.22620246 -0.18919423 0.124689355 0.09978081
0000b0 b6 7b 58 be 61 f9 8a bc 2c 50 a2 3e 69 cf 89 3d
       -0.21140942 -0.016964616 0.3170179 0.067290135
0000c0 ce 1f 52 be c4 04 85 3e 49 aa 7c 3e 65 3d 21 be
       -0.20519945 0.25980198 0.24674334 -0.15746076
0000d0 a5 3f 0e 3e 61 8b 36 3e 31 1f 5c 3d 8f 35 60 be
       0.13891466 0.17826606 0.053740684 -0.21895431
0000e0 ca 48 65 3e ac 42 d0 3d d2 ec f8 bc 16 76 8f 3e
       0.22391048 0.10168967 -0.030386362 0.2801978
0000f0 21 14 82 be 6f 2f 16 3d 65 cc 89 3c a3 e1 03 3e
       -0.25405982 0.03666633 0.016821096 0.12879042

enc.2.weight f4 [64, 64]
000000 46 3b fe bd 4a 79 1f be f2 66 f0 3d d6 4a be bd
       -0.12413649 -0.15573612 0.11738385 -0.092916176
000010 45 77 1c bc f5 d0 c0 3d 1f d3 99 bd 63 11 dc bd
       -0.00954992 0.094148554 -0.07510971 -0.10745504
000020 9c 6b 08 be e6 e9 bf bd 1a f7 06 be 84 17 f0 bc
       -0.133223 -0.093707845 -0.131802 -0.029308088
000030 33 04 9f bc 74 f9 52 bd 62 9f 0a 3d 60 96 07 be
       -0.019411182 -0.05150743 0.033843406 -0.13240957
000040 2d 8b a8 3c ad 42 b7 3d 2f a7 39 bd af ac d2 bc
       0.020574177 0.08948264 -0.045325454 -0.025717108
000050 b9 03 ec bd 06 51 0c bd bf 61 11 be e2 9f a9 bd
       -0.115241475 -0.034256957 -0.14197443 -0.08282448
000060 43 43 de bd 20 7e ed 3d ea c2 bb 3d 2b 92 51 bc
       -0.10852673 0.11596322 0.09168036 -0.012791197
000070 30 41 cd 3c 45 f5 d4 bd 11 f3 ac 3d e4 c0 37 bd
       0.025055498 -0.10398344 0.08444799 -0.04486169
000080 38 05 fb 3c 88 2e 29 bc bd 72 b3 3b 07 c9 c8 bd
       0.030642137 -0.010326035 0.0054763244 -0.09803968
000090 2a 9d d9 3d cc 65 ce bc 64 17 1b bd 1f 0a a9 3c
       0.1062568 -0.025195025 -0.037864104 0.020634709
0000a0 50 08 91 3d 7c 89 b6 3d 7f a3 97 bd b0 98 c4 bd
       0.070816636 0.08912942 -0.07404231 -0.09599435
0000b0 2b 8b 29 3c 05 67 e0 3d 19 ae bb 3c 78 55 c8 bd
       0.010348122 0.109571494 0.022910165 -0.09781927
0000c0 1b da b1 bd c1 51 f7 bd 14 2e 32 bd 03 d7 80 3d
       -0.086841784 -0.1207614 -0.043500975 0.0629101
0000d0 9b fc 0d bd 3c 75 a7 3d 58 02 00 be 0a 17 82 3d
       -0.03466473 0.081766576 -0.12500894 0.063520506
0000e0 5b dd 0b bd fa c2 12 bd da 9a af 3d c8 fe dd 3c
       -0.034146648 -0.035830475 0.085744575 0.027099028
0000f0 01 47 8f 3d 1b bb a3 3d 8c ca 92 3c 02 88 8f 3d
       0.06995965 0.07994672 0.017918848 0.07008363
000100 ce 1c 28 be 53 0b a4 3c 12 d2 9c 3d 71 57 60 bd
       -0.16417238 0.020024931 0.07657255 -0.05477089
000110 91 4f 58 3e fe 62 5c bd 41 b2 10 3c c8 2f 74 3c
       0.21124102 -0.053805344 0.008831562 0.01490397
000120 44 d3 cd bd 62 10 be bd 8a 65 29 bd 03 90 7b 3d
       -0.10050061 -0.092804685 -0.0413566 0.061416637
000130 84 d6 af bd 46 d6 6a 3d 0c 55 fc 3d 18 37 24 3c
       -0.085858375 0.057333253 0.12320909 0.010022901
000140 c5 b3 2c 3d 3b d3 49 bd 1e f0 a6 bd f9 95 25 3d
       0.04216363 -0.04927371 -0.081512675 0.04042623
000150 77 71 9e bb 83 cb c1 3d a0 db 0d bd 0a 89 09 be
       -0.0048353034 0.09462645 -0.03463328 -0.13431183
000160 6a ce d4 3d d1 ed 9d 3d ac f2 c3 bd 18 e8 73 3d
       0.10390933 0.077113755 -0.0956777 0.059547514
000170 b2 1f ef bb 7c fa 88 b9 3a d1 f9 bd 28 a1 b3 3d
       -0.0072974795 -0.00026126567 -0.1219811 0.087709725
000180 74 30 c7 3d 6f b7 1d bd 33 98 0f be 5b 9a 31 3c
       0.097260386 -0.038505014 -0.14022903 0.010840024
000190 25 51 51 bd dc 81 da bd 12 42 14 bd eb 13 d0 bd
       -0.051102776 -0.106693 -0.036195822 -0.10160049
0001a0 b8 bc a2 bd 5a 7f 90 bd b8 45 87 3d ba 2f 12 be
       -0.079461515 -0.070555404 0.06605095 -0.14276019
0001b0 73 ac 87 bd 90 a4 e9 3d 91 a6 06 bc e5 5c 8d 3c
       -0.06624689 0.11408341 -0.008218423 0.01725621
0001c0 fe 4b 4c 3d 6c 46 1a bd ae 59 8e 3d 82 04 f8 bd
       0.04987716 -0.037664816 0.06950699 -0.12110235
0001d0 0c 59 09 be 60 d6 db bd 73 1b a0 3c 4b fd fa bc
       -0.13412875 -0.10734248 0.019544339 -0.030638358
0001e0 38 5c ed bd b3 1e 81 bc e9 84 31 bd 4d a6 ff 3c
       -0.11589855 -0.015761709 -0.043339644 0.031207228
0001f0 11 3d 9f bc 77 12 ca 3d 0d 00 9d 3d 3c 81 18 bd
       -0.019438298 0.09866803 0.07666025 -0.037232623
000200 a0 c4 32 be 5b b9 49 bd b4 fd 3b bd 0d 34 33 be
       -0.17457819 -0.049249034 -0.045896247 -0.17500325
000210 ec a4 04 3e 05 a4 dd bd 22 da e6 3d 6c f2 29 be
       0.12953538 -0.108223 0.11272074 -0.16596383
000220 5f 9d ba 3d df 12 90 bd 3c 82 36 3d 29 92 94 bd
       0.091120474 -0.070348494 0.044557795 -0.0725444
000230 26 c6 a7 3d 6f 3a 28 be 1a 2c 2d 3c dc a0 07 bd
       0.08192091 -0.1642854 0.010569597 -0.03311239
000240 88 be 47 3d a0 e6 ba bc b5 2b 51 bd da 04 f0 bd
       0.04876569 -0.022815049 -0.051067073 -0.11719675
000250 70 ea 85 bd 69 57 69 3c 56 35 44 3d eb aa 31 be
       -0.06538856 0.014242032 0.047902428 -0.17350356
000260 72 1e ae 3d e8 61 f3 bc 86 06 92 3c 00 4b 48 bd
       0.08501901 -0.029709771 0.017825376 -0.04889965
000270 25 9b 5e bd 9e f0 ec bd 2f d5 ce 3c 56 b1 0c bd
       -0.054347176 -0.115693316 0.025248138 -0.03434881
000280 a4 e6 a0 3c 61 d5 ef 3d a3 db 1d 3c 20 4f bf 3d
       0.019641228 0.11710621 0.009634885 0.09341264
000290 aa 8a b4 bc c8 66 74 bd 3f ec b4 bd a6 af a9 3d
       -0.022038776 -0.059668332 -0.08834123 0.082854554
0002a0 fc ab 98 bd 71 a7 82 bc f8 0f 1a be f9 2d 20 be
       -0.074546784 -0.015948983 -0.15045154 -0.15642537
0002b0 77 a2 c0 3d 01 1e 47 bc 91 2f dc bd 1c 38 bc bc
       0.09405988 -0.01215315 -0.1075126 -0.022975974
0002c0 c7 29 29 bc 7d 37 06 be 3b f6 84 bd 98 45 94 3b
       -0.010324902 -0.13107105 -0.06492277 0.004524898
0002d0 58 89 3d bd 90 45 bb 3b 5a bd a9 bd 52 ef 82 bd
       -0.04627356 0.0057150796 -0.08288069 -0.06393303
0002e0 80 12 95 bd 11 c6 07 bd d3 62 1f bd 43 fc be bb
       -0.07278919 -0.033147875 -0.038912605 -0.005828412
0002f0 25 a1 2a bd db 4a 05 3d 92 7d cb bc 70 45 9b 3c
       -0.041657586 0.03254209 -0.02484015 0.018954009
000300 97 6e 5f 3c a6 75 06 be 67 9a b6 bd fc 70 9e 3d
       0.0136372065 -0.13130817 -0.08916169 0.07736394
000310 60 fc 80 3b 3b c1 d6 3d 11 bd d6 bd 03 5c 21 bd
       0.0039363354 0.104860745 -0.1048528 -0.03939439
000320 0d 5d 8b bd 01 6a 3e bd e7 d3 00 be 9a ba 37 bd
       -0.068048574 -0.046487812 -0.12580834 -0.04485569
000330 27 63 c0 3d e8 8c 0f bb 42 bc 77 bd f5 09 9b 3c
       0.09393912 -0.0021904055 -0.06048227 0.018925646
000340 53 d0 73 bb fb cb 90 3d e7 04 30 be a6 20 b9 3c
       -0.0037203028 0.07070156 -0.1718937 0.022598576
000350 6c 10 0e be f9 2c 89 3c 3b 73 c1 bc d7 46 a5 3d
       -0.13873452 0.016745077 -0.023614516 0.08070152
000360 02 47 98 3c 3d 75 21 3d b7 95 9d 3d 90 f0 89 bd
       0.018588547 0.039418448 0.076945715 -0.06735337
000370 35 19 e0 bd 1d 2e 5b bd 8d 7b 11 3c c7 93 06 3d
       -0.10942308 -0.053510774 0.008879554 0.032855775
000380 d3 8c 32 be d4 a4 cf 3d df 10 5b bd 35 ee 0b bb
       -0.17436533 0.1013886 -0.053482886 -0.00213517
000390 82 72 ba 3c 70 0e a7 bd 58 24 42 bd f9 01 66 bd
       0.02275968 -0.081570506 -0.04739794 -0.056154225
0003a0 db 10 65 3d e5 2e 92 3c 79 6c a3 3d 40 21 58 3d
       0.055924278 0.017844627 0.07979674 0.052766085
0003b0 e8 4d 23 3d 60 66 ca 3d d1 7f cc bd 88 90 39 be
       0.03986922 0.09882808 -0.099853165 -0.1812154
0003c0 c7 4c 85 bd 0b b8 41 bc b7 9b b7 3d f6 bb 30 3d
       -0.06508785 -0.011823664 0.08965247 0.043148004
0003d0 1a dc 36 bd e2 a6 e9 bd fa 64 56 bd d4 d6 85 bb
       -0.0446435 -0.114087835 -0.052342393 -0.0040844474
0003e0 36 79 bb bd bd 25 57 3d 67 44 84 bd c8 f4 89 bd
       -0.091539785 0.052526224 -0.06458359 -0.067361414
0003f0 ab f2 9e 3d e8 0a e9 bd 6d be 93 bd 08 39 d5 3d
       0.07761129 -0.11379033 -0.07214055 0.104112685

enc.2.bias f4 [64]
000000 7a 06 45 3d 92 27 00 bd 71 26 91 bd f8 eb f7 bd
       0.04810188 -0.031287737 -0.0708741 -0.12105554
000010 85 29 13 be 6b e0 cf 3d fe e8 1a 3e 51 f6 44 bd
       -0.14371307 0.10150226 0.15127942 -0.048086468
000020 1f 59 b5 3d 01 7b dc 3d 1a 9a c4 bd ca 26 0b 3e
       0.08854889 0.10765649 -0.09599705 0.13589016
000030 3c 4c 0e be f7 b7 0f bd 6b 79 34 bd b6 b5 06 3e
       -0.13896269 -0.035087552 -0.044061106 0.13155255
000040 d1 b9 04 3e ec 90 b3 3d 82 af d0 3d 5a 9d 49 3e
       0.12961508 0.08767876 0.101897255 0.19688931
000050 e4 a9 a2 bd 02 2e 28 bd 4b 0e db bd 06 32 c1 3d
       -0.0794256 -0.0410595 -0.106960855 0.09433369
000060 39 bd db bd 1d a3 7b 3c 36 30 74 3d 20 1e 37 3e
       -0.10729451 0.015358713 0.05961629 0.17882586
000070 1f e8 dd 3d 04 98 c4 3c f0 ed 1e 3d 6b b6 e2 3d
       0.10835289 0.023998268 0.038801134 0.1106995
000080 26 52 0c be a4 b8 97 3d 19 7e e9 bc 44 25 83 3d
       -0.13703212 0.07408264 -0.02850251 0.06403592
000090 03 93 30 3e 8b 99 e9 bd f9 e5 2d 3e d6 57 24 3e
       0.1724358 -0.11406239 0.16982259 0.16049132
0000a0 73 f3 10 3d 36 35 e7 bc 9b a5 02 be 81 66 11 be
       0.03538842 -0.028223615 -0.12758486 -0.14199258
0000b0 df 4f 9b bd 70 41 24 bd 37 b7 84 3d a2 b1 14 bd
       -0.075835936 -0.04010147 0.06480258 -0.036302216
0000c0 23 ff 82 bd 1a cd d8 3d a6 83 fe 3d 05 3d 27 bc
       -0.0639632 0.10585995 0.12427454 -0.010207419
0000d0 99 df e8 3d 99 f0 fd bc fd fd 90 3d 38 19 1e 3e
       0.11370773 -0.030998515 0.070796944 0.15439308
0000e0 f6 36 1a 3e db 75 d8 bc e2 96 7c 3d 0e 27 93 bd
       0.15060028 -0.026423385 0.06166733 -0.071851835
0000f0 e9 17 f5 bd 96 50 02 be 5c a5 f9 3d a2 d3 ca 3d
       -0.11967451 -0.12726054 0.12189743 0.09903647

enc.4.weight f4 [64, 64]
000000 0a 5e 2b 3d 13 b7 0b bd 46 96 12 3e b8 6b b1 bd
       0.04183773 -0.03411014 0.14315137 -0.08663124
000010 34 2b ab 3d e1 ff 6a bd 4b 08 3e 3e 99 d0 dd 3c
       0.0835785 -0.05737293 0.18557851 0.027077006
000020 70 75 a0 3d 76 53 85 bd 91 37 c6 3d 84 f1 34 3e
       0.078348994 -0.065100595 0.09678567 0.17670256
000030 64 b1 ed bd c1 a8 f3 bb 63 5d 0b 3e fe c1 09 3e
       -0.116061 -0.0074358885 0.13609843 0.13452908
000040 3d 29 e7 3d d9 a8 8e bd 55 fc c4 3c 53 1a 14 3e
       0.112871625 -0.06965799 0.024046103 0.14463167
000050 37 1f e9 bd 29 5c 3e bd e5 4b 63 3c cd ac a3 bd
       -0.11382907 -0.04647461 0.013873075 -0.079919435
000060 c0 96 65 bd 37 b1 7d bc 91 c6 d1 3c c8 b2 73 bc
       -0.05605197 -0.015484146 0.02560738 -0.014874168
000070 e7 97 28 3d b5 0a 08 3d 6e 2d e1 3b 09 53 18 3e
       0.04116049 0.033213336 0.0068718707 0.14875425
000080 cf b2 b2 3b aa 3b 0a bd a7 71 e9 bd e7 e8 84 3d
       0.0054534446 -0.033748306 -0.113986306 0.06489735
000090 c4 51 84 bc b1 6b 3d 3d e9 b8 41 3d 1c 04 c6 bd
       -0.01615227 0.04624528 0.047295485 -0.096687526
0000a0 54 8f 2f bd 9b 22 c1 3c d4 6c 9f bb 49 b9 6f 3d
       -0.042861298 0.023576071 -0.0048652682 0.05852631
0000b0 1e 88 ff 3c cf 26 71 bd c9 1f 9e bd 34 c2 82 3d
       0.031192835 -0.0588749 -0.07720906 0.063846976
0000c0 76 25 ae 3d 3a fd a8 3d 6f 95 13 3d 58 b9 bf bd
       0.08503239 0.08251424 0.036031183 -0.093615234
0000d0 10 76 c4 3d 9a 36 be 3d 47 d8 51 3d 86 a6 b5 bd
       0.09592831 0.09287758 0.05123165 -0.088696525
0000e0 66 10 f9 bd c7 9d 51 3d b7 2c ff 3d ce 75 33 3a
       -0.12161331 0.05117586 0.124597006 0.00068458624
0000f0 2a 02 54 bc ad c5 fa bc 36 22 95 3d ea 47 0d 3d
       -0.012939969 -0.030611837 0.07281916 0.03449241
000100 06 db 6e 3d fb cb fe bc 1b fb 0b bc 9a e1 ab 3d
       0.058314346 -0.031103125 -0.008543755 0.083926395
000110 fe ed 84 3b 85 a2 82 3d 10 4a dd 3c c2 73 44 bd
       0.004056691 0.063786544 0.027012855 -0.047961958
000120 25 0b 98 3d e9 19 83 3d e4 df 85 3d fb 4b 40 3d
       0.07424001 0.06401426 0.065368444 0.04694746
000130 37 19 dd 3c e1 cc ba 3d d3 c8 9b 3d e5 af bd 3c
       0.026989562 0.09121109 0.076066636 0.023155162
000140 81 8a 57 3c 16 0a ab 3d 08 4c 86 bd 23 c4 1c be
       0.0131555805 0.08351533 -0.065574706 -0.15309195
000150 72 82 2f 3d b4 e0 d8 bd eb d2 9d 3d a6 5e 28 3d
       0.04284901 -0.10589734 0.07706245 0.04110589
000160 8f 62 ea bd ca 2e da bd de e3 94 bd 09 f1 ad bd
       -0.1144458 -0.106534556 -0.07270025 -0.084932394
000170 74 89 08 bd 8c 5b ef bd f6 bf 93 bc e6 0f 40 3c
       -0.03333421 -0.11687383 -0.01803587 0.0117225405
000180 28 82 6b 3d 9d 7d b2 3c 5a fa 65 3d 1b b6 d9 3a
       0.057497174 0.021788413 0.056146957 0.0016610058
000190 cb 86 2b bd ea ca a0 3c 0b ec c6 bd 05 a3 05 bd
       -0.041876595 0.019628007 -0.097129904 -0.03262617
0001a0 b8 be 0e be e1 7c b7 bd 89 0f 59 bd 3d 56 72 3d
       -0.13939941 -0.08959366 -0.05299333 0.059164274
0001b0 0e c0 82 bc 6f 94 bf bc 20 6f 25 bd 8f ae 69 bd
       -0.01596072 -0.023386208 -0.04038918 -0.057051238
0001c0 cc ce 6a 3c 2e a0 05 3d c1 0a 1c 3d de 9f 62 3d
       0.014331531 0.032623462 0.038096193 0.055328242
0001d0 c3 04 92 bd f6 1d d1 bc 67 73 96 bd ed bf 07 be
       -0.071298145 -0.025526982 -0.0734623 -0.13256808
0001e0 12 f1 f1 3c a1 4a 4f bd 57 a0 08 be 8a 41 9d 3d
       0.029533897 -0.05060828 -0.13342415 0.07678516
0001f0 a1 aa fa bc 24 77 28 bc d4 7d af bd 1e 57 62 bd
       -0.03059894 -0.010282312 -0.08568922 -0.055258863
000200 d2 ce 61 bd ed 69 23 3d df b7 a5 bb 0e c6 d9 bc
       -0.05512888 0.03989594 -0.0050573195 -0.026583698
000210 79 17 e6 3d 9e db 01 3e af 65 96 3d 4d c0 93 3a
       0.11234946 0.12681434 0.07343613 0.001127252
000220 10 ce 34 bd c1 2e f9 3d 09 70 6f bc c6 cc 5b bd
       -0.04414183 0.12167121 -0.014614114 -0.053662084
000230 c2 dc 19 3e cc aa 18 bd 8d 36 af bd 7f 47 b8 3d
       0.15025619 -0.03727226 -0.085553266 0.08998012
000240 db 06 4c 3d 8f b4 ed 3c 28 15 da bd 09 e0 93 bd
       0.049811225 0.029016761 -0.106485665 -0.07220466
000250 af 0b a5 3d fb d3 6a 3d c5 1e c8 3d ac 48 d5 3d
       0.08058869 0.057331067 0.09771494 0.10414252
000260 66 5d 03 bd 76 8d 8f 3e da 33 d3 3d 0a c8 f7 bd
       -0.032071494 0.28037614 0.10312624 -0.12098701
000270 09 a5 b2 3d 8e d2 9a 3b 88 bb 23 bd ae 09 3d bd
       0.08722884 0.004724807 -0.039973766 -0.04615181
000280 84 7a 5e 3d de 96 8b bc a3 6b 2c 3d 53 c9 9a bd
       0.05431606 -0.017039713 0.042094838 -0.07557931
000290 85 cb 7f bd 04 0d e9 3d cd ba ec bd 62 61 9f 3d
       -0.06244995 0.11379436 -0.11559067 0.07782246
0002a0 76 10 04 3e bc db dc 3d 1d 3e 08 bd 4c e1 4d 3e
       0.12896904 0.107840985 -0.03326236 0.20105475
0002b0 ed fb 9d 3d 4b dc 08 3e 92 13 1b 3d 99 58 3a 3d
       0.07714067 0.13365285 0.03786046 0.04549465
0002c0 9c b6 87 bd a1 02 5c bc 19 0e ba bd c1 69 bc 3c
       -0.06626627 -0.013428361 -0.0908472 0.022999646
0002d0 96 ea 1d be e8 4a 50 bd 5a a5 4e bd d9 1d e3 3d
       -0.15421519 -0.050852686 -0.05045066 0.11089677
0002e0 d7 7c 9d 3d 7c 47 b4 3c b6 ef 7a 3d 97 01 6c bd
       0.07689827 0.022006743 0.061263762 -0.057618704
0002f0 e8 a7 13 be 6e da 34 bd c5 2d 81 bd d6 54 e6 3d
       -0.1441952 -0.044153623 -0.06307558 0.1124665
000300 48 1e 08 3b 09 8e 74 3c 42 3e fe bc a3 44 83 3d
       0.0020770002 0.014926442 -0.031035546 0.06409576
000310 58 1b 88 3d a3 28 60 be 13 a0 3f 3d a6 d5 ce bd
       0.066458404 -0.21890502 0.046783518 -0.10099344
000320 4f 24 b1 bd eb a7 5f be 16 a0 e6 3d 13 57 fa 3d
       -0.086495034 -0.218414 0.11261003 0.12223639
000330 0c 24 75 3d 15 95 f9 3c 23 02 dd 3c e4 b4 2a bd
       0.05984883 0.030466596 0.026978558 -0.041676417
000340 cb 71 22 be bd db 42 bc 9d 51 a4 3a ab d7 fb bd
       -0.15863721 -0.01189321 0.001253653 -0.12296995
000350 f5 ed b2 3d 65 94 9c 3d 16 0e cc 3d 7d b2 ba 3d
       0.08736793 0.076454915 0.09963624 0.09116075
000360 a5 a2 ba bd 48 dd 24 bd f9 ff 71 3d 56 30 14 3e
       -0.09113053 -0.040250093 0.059082005 0.14471564
000370 5d c1 4c bc 9d e7 3d 3d 9f 70 1e bc 80 3b f2 bd
       -0.012497273 0.04636346 -0.009670406 -0.11827755
000380 32 8b 53 3d 5f b2 c3 3d c7 85 04 be c1 5d d7 bd
       0.05164642 0.09555506 -0.12941657 -0.10515929
000390 93 5f e5 3c 00 b4 c2 3b 6a ca 84 3d ab 6f 49 be
       0.027999675 0.005941868 0.0648392 -0.19671504
0003a0 17 52 2d be a9 7f a9 bd 7b 44 7b 3d 5c 84 49 bd
       -0.16925846 -0.08276302 0.061344605 -0.049198493
0003b0 30 48 fc 3b 91 26 ca bd c0 89 75 3d e3 53 8e 3c
       0.007699035 -0.09870637 0.05994582 0.017373985
0003c0 9a 4d ae 3d 1d e9 3a be 3c ab eb bd d6 6b bc bd
       0.08510895 -0.18252988 -0.1150727 -0.092002556
0003d0 0a 3d b7 3d 61 a0 93 3d 44 0f 14 bd 6f 13 88 bd
       0.08947189 0.07208324 -0.03614737 -0.06644332
0003e0 b5 e1 51 3d 42 12 ba 3d 91 ec 8a bd 6a 8e 88 bd
       0.05124064 0.09085514 -0.06783403 -0.06667788
0003f0 f1 95 90 3c 8b 5d ff 3d 1e bb f8 bd 46 5b dd bd
       0.017649623 0.12469014 -0.12145065 -0.10808425

enc.4.bias f4 [64]
000000 2a 45 42 3e 5e 0b 4d bd 25 24 9e bc 85 ac 19 3d
       0.18971696 -0.05005967 -0.019304344 0.037518043
000010 d8 01 3f 3e c3 58 09 3d ec 1f 26 3e 32 77 b6 bd
       0.18653047 0.033531915 0.16223115 -0.089094535
000020 07 2c c9 3d 1f 07 13 3b c7 b1 e0 bd 11 9a 8f 3d
       0.09822851 0.0022434664 -0.10971408 0.07011808
000030 77 9b 75 3d 89 39 25 3e 89 e1 3a bc bd 2d e9 bb
       0.059962716 0.16135229 -0.011406311 -0.007116048
000040 6d 9f 64 bd 81 4f c7 bc 52 77 af 3d 7a 16 1b 3e
       -0.055816103 -0.024329903 0.085676804 0.15145293
000050 72 bb 9a 3e 4c be dd bd 31 25 0c be 2b fb 2e 3e
       0.30221134 -0.10827312 -0.13686062 0.17088
000060 c1 52 b0 3d 65 26 76 3e ac 97 23 3d eb 99 f7 bd
       0.08609534 0.24038084 0.039939567 -0.120899044
000070 43 5c 96 3e ff 4b 1d be 86 33 03 be 63 ad a9 bd
       0.29367265 -0.15361021 -0.12812623 -0.08285024
000080 23 a2 14 bd fc 88 d7 bd 31 18 1d bc 33 3b c4 3d
       -0.036287438 -0.105241746 -0.009588287 0.09581604
000090 0c 2f 3f 3e 37 e1 12 3e 24 a2 fd 3c 23 16 33 3e
       0.1867029 0.14343725 0.030961104 0.17488913
0000a0 41 1a 4e 3d 1b ef 23 3e dd 98 d6 bd 1d fa 1b 3e
       0.050318006 0.1600918 -0.10478375 0.1523213
0000b0 f0 29 18 3e 47 54 f1 bd 2f f7 e1 bd 50 3a 9d 3c
       0.14859748 -0.11783653 -0.11033475 0.019192845
0000c0 20 c3 a2 bd 79 b9 8e 3e 65 67 e4 bc 5a 01 2d be
       -0.079473734 0.2787588 -0.027881334 -0.16895047
0000d0 0a 3e a9 bd 32 61 26 3e cd 64 56 bb c0 0f 18 3e
       -0.08263786 0.16248015 -0.003271389 0.14849758
0000e0 17 51 c7 bd 87 81 aa bb 21 9d 12 be 6c 05 40 3e
       -0.097322635 -0.005203429 -0.14317752 0.18752068
0000f0 99 f7 d7 bd 03 5e 73 bd 00 bf 0a 3e cc 26 aa 3d
       -0.105452724 -0.05941583 0.13549423 0.08308181

enc.6.weight f4 [4, 64]
000000 a2 96 75 bd 47 81 b8 bc 4e c0 ce 3c 39 a7 c3 bd
       -0.059958108 -0.022522582 0.025238182 -0.095533796
000010 16 30 fd bb 0e bf df 3d 20 36 b8 3d 6f 2f 15 bd
       -0.0077266796 0.10925113 0.089946985 -0.03642219
000020 89 3d df 3d f5 b7 18 be 37 50 2f bd 78 99 01 3d
       0.10900409 -0.14913924 -0.04280111 0.0316405
000030 81 39 11 bc bb 33 ce 3b 4b 4a 8d 3d 8e e6 a6 bd
       -0.008863808 0.006292788 0.06898936 -0.081494436
000040 e6 75 72 3d 8b 69 b0 bc cf 77 b3 bc ca 46 66 3c
       0.059194468 -0.021534702 -0.021907715 0.014054963
000050 e2 de a3 3d 5a 7a d2 3c 47 bf 60 bc 8f f3 f6 3d
       0.08001496 0.025693107 -0.013717479 0.12058174
000060 dd 01 07 3d 3d 08 84 3c 16 a8 8b 3a a1 af 32 bb
       0.03296076 0.01611721 0.0010654952 -0.0027265328
000070 39 0e 9f bc 1f 65 9e bd a2 b4 3f bd 36 17 ce bb
       -0.019415962 -0.07734131 -0.046803124 -0.006289388
000080 28 89 03 3d 93 97 ce 3d eb fa 77 bc 27 93 f9 3d
       0.032113224 0.10087504 -0.015135507 0.1218627
000090 f6 01 e5 bc fb 63 9b 3b db 85 ea bc 21 55 e9 bd
       -0.027955037 0.004742143 -0.02862828 -0.1139319
0000a0 70 45 b2 bc 15 a3 67 bd f2 31 98 3c 2b 7a 99 bd
       -0.021761626 -0.05655201 0.018578503 -0.07494005
0000b0 54 cc 7a bc 01 29 4c 3d c3 b5 64 3d a9 a3 b8 3b
       -0.015307505 0.049843792 0.055837404 0.005634744
0000c0 6b 54 b2 bd ae d7 20 ba e6 a2 b0 bd d9 5f a9 3d
       -0.08707508 -0.00061356544 -0.086248204 0.082702346
0000d0 25 b7 e5 3d df b4 14 3c c5 e6 17 bd aa 03 ce bd
       0.11216573 0.009076326 -0.037085313 -0.100592926
0000e0 aa 0a 5e bc c0 35 d7 3d 3e 56 0b bb b2 50 41 be
       -0.013552347 0.10508299 -0.002126112 -0.18878439
0000f0 9d 02 8d bc fe 11 0a bd 46 cd 2a be ad 67 ba bb
       -0.01721316 -0.033708565 -0.16679868 -0.0056886286
000100 5e f2 ea 3d 37 20 1c bd bc ea 73 bc da 21 6a 3d
       0.11472009 -0.03811666 -0.014887508 0.05716119
000110 6e 8b 2c 3d 04 4a c6 3d fa ec 39 bc cc 30 99 bd
       0.042125158 0.09682086 -0.0113480035 -0.074800104
000120 fd a0 26 3c 79 5b 56 bc 46 d2 83 3c c8 b7 85 bb
       0.010170219 -0.013083332 0.016091477 -0.0040807463
000130 01 39 25 bc ab 6a 4f 3d 67 f1 0e bd fc 4f 10 bc
       -0.010084392 0.050638836 -0.034898188 -0.008808132
000140 bb fa f2 bc 7e 31 83 bc e0 89 91 3b 2f 3a 8b 3d
       -0.029660573 -0.01601481 0.004441485 0.06798207
000150 8f 91 09 3e 55 de 16 bc 77 2b b4 bd 59 a3 93 bc
       0.13434432 -0.0092082815 -0.08797353 -0.018022226
000160 cf 44 d0 bc 46 c1 5c 3d e0 de 02 3d e9 53 49 3d
       -0.025423435 0.053895257 0.03195083 0.04915229
000170 74 c6 b5 3d 2d ca f0 bc ff 2e 3b 3d f8 8e 31 bd
       0.088757426 -0.02939328 0.045699116 -0.043349236
000180 12 e0 fb bc 7e 79 bc 3d 9c 36 ec 3b 5f 34 84 bb
       -0.030746493 0.0920286 0.0072086584 -0.0040345634
000190 35 80 dd 3c fe e9 ad 3c 95 23 28 3d f4 7c 6f 3d
       0.027038673 0.02122974 0.04104956 0.058468774
0001a0 fe a3 6d 3d 00 66 14 3d 90 5a 7b 3d 9c ca 67 3d
       0.058017723 0.036230087 0.061365664 0.056589708
0001b0 ba 70 e4 3c 43 c0 a4 3d 85 bf 78 3c 8c 72 08 bc
       0.027885783 0.080444835 0.015182381 -0.008328091
0001c0 df 20 05 bd 12 a5 ad 3c 56 8f a8 3d 9c 43 e3 3c
       -0.03250205 0.021196876 0.08230464 0.0277422
0001d0 b5 76 8c 3c 92 e5 1d 3d bb c7 9a bc e5 50 1e bd
       0.017146448 0.038549013 -0.018894067 -0.038651366
0001e0 e0 fd d0 3d a0 92 12 bd ca b1 3e bd 51 d3 92 3c
       0.10204673 -0.035784364 -0.04655627 0.01792303
0001f0 af a9 c1 bd 05 df 92 bc 15 a8 5c 3b 3d 0a 81 3d
       -0.09456193 -0.01792861 0.003366952 0.06300781
000200 d8 ab 9e be a6 b6 47 3d a9 43 5c be 4d 4a 6c be
       -0.3099048 0.04875817 -0.21510185 -0.23075218
000210 1b 50 88 be eb 30 61 be 61 b1 31 be ee b6 11 bc
       -0.26623616 -0.21991317 -0.17352821 -0.0088937115
000220 c2 7c b7 be 22 7a 1e be 67 ae b6 3d c8 fe 68 be
       -0.3583737 -0.15476277 0.08919983 -0.22753441
000230 e4 5a fa bd 84 84 9e be c5 58 ae be f6 df a6 be
       -0.12224367 -0.30960476 -0.340521 -0.32592744
000240 b0 bf a1 bd 4d ed 6d be 57 07 87 be 69 91 7f be
       -0.078978896 -0.23235054 -0.26372787 -0.24957813
000250 eb 38 be be db e7 16 be 92 2b 84 bd c0 59 18 be
       -0.371528 -0.14736883 -0.06453623 -0.14877987
000260 80 70 76 be 67 c7 76 be e3 f3 a7 bd 2d 2d bb bd
       -0.24066353 -0.24099503 -0.082008146 -0.09139476
000270 20 01 b5 be c6 cb 97 bd 2a a7 89 bd 07 ae 21 be
       -0.3535242 -0.074119136 -0.06721337 -0.15789042
000280 ce 4a f0 3d 47 47 bc bd 82 92 a0 bd 10 e7 bc be
       0.11733018 -0.091932826 -0.07840444 -0.36895037
000290 4d c5 ad be e4 54 57 be 1b 4d b0 3c 91 4c b9 be
       -0.3393959 -0.21028477 0.021521142 -0.36191228
0002a0 bf 64 a0 3d 7e 14 8c be ad b0 b7 3d 36 f1 6b be
       0.07831716 -0.27359384 0.08969245 -0.23041233
0002b0 1c c7 4b be 58 5b 9e bd 3d 21 a4 bc 37 81 bc bd
       -0.19900173 -0.07732266 -0.02003538 -0.09204333
0002c0 0e e9 90 3d d9 2a 87 be 89 e4 b1 3d 81 1b 8a bd
       0.07075702 -0.26399878 0.08686168 -0.06743527
0002d0 2e 35 7c 3b 3c d6 5c be 31 d5 9c be 7d 8d a1 be
       0.0038483846 -0.21566099 -0.30631402 -0.3155326
0002e0 4b 27 51 3d 49 e8 89 3d 57 30 4e 3c 40 cb bd be
       0.051062863 0.06733758 0.012584767 -0.3706913
0002f0 62 4e dd bd cf 08 6c 3d 53 88 e0 be d6 d7 8c be
       -0.10805966 0.057625588 -0.43854007 -0.2750842
000300 b5 74 94 be 09 f5 9b 3d b8 bf a3 3d b3 f7 9d bd
       -0.2899529 0.07615096 0.07995552 -0.077132605
000310 8b b3 52 be bd 74 11 3d 87 72 1e be 3e 18 64 3d
       -0.20576303 0.03551172 -0.15473376 0.05568718
000320 f8 29 78 3c c2 d1 a9 3b 96 58 e7 3d 8a 72 45 bd
       0.015146725 0.005182476 0.11296193 -0.048204936
000330 0e 99 00 3e f3 d4 78 be 85 e2 7d 3d f5 fa 06 3e
       0.12558386 -0.24299984 0.061983604 0.1318167
000340 64 5f 75 bd b7 38 77 bd 34 36 4c be 41 e7 00 be
       -0.059905425 -0.060356822 -0.19942552 -0.12588216
000350 25 fb b0 be 4a 52 14 3d 93 b2 12 3e 1a cb 3a be
       -0.34566608 0.03621129 0.14325933 -0.1824154
000360 e3 04 67 be f5 3f 71 be a9 30 6c 3c c1 91 ba 3d
       -0.22560458 -0.23559554 0.014415898 0.091098316
000370 da ae 7a be 3d 71 90 bd 2c 90 17 bd 85 4d b8 bd
       -0.24480763 -0.070528485 -0.037002727 -0.08999161
000380 bb 42 d9 3d 85 61 46 3c 74 2b 3e 3d a3 50 20 be
       0.10608431 0.012108211 0.04642816 -0.1565576
000390 d9 19 02 be 9a 90 47 be 0c cd 01 3c d9 a0 69 bd
       -0.12705173 -0.19488755 0.007922422 -0.057038162
0003a0 5b 3c b6 3d 5d 8b 33 be 00 32 b0 3d 3b b1 8e be
       0.08898231 -0.17533632 0.08603287 -0.2786959
0003b0 ec d5 e8 3d 44 f1 d0 bb ec 65 9a bd f4 6e 19 3e
       0.11368927 -0.0063764174 -0.07538971 0.14983732
0003c0 54 42 a3 bd 81 c6 85 be 1b ea b4 3d 8c af a7 bc
       -0.079716355 -0.2612801 0.088337146 -0.02046945
0003d0 c9 2f cb bd 6b 3e 6e be 2d 5d 4a be aa 82 50 bd
       -0.09921224 -0.23265998 -0.19762106 -0.05090586
0003e0 86 45 af bd 05 e5 ab 3b fc c7 25 3c 2e 85 64 be
       -0.085581824 0.005245807 0.010118481 -0.22316429
0003f0 5c 04 37 3e a4 bd 4f bd 5c 14 e7 bd 67 52 e2 bd
       0.17872757 -0.050717965 -0.1128318 -0.11050873

enc.6.bias f4 [4]
000000 72 a7 ce 3c 08 c1 1c 3e 0c b2 d8 be c6 dc d9 be
       0.025226329 0.1530801 -0.4232334 -0.4255125
